results/1692201543/models/last_model.pt (torch, 881893 bytes, 103 tensors)

layers.0.0.weight f4 [64, 5, 7, 7]
000000 71 ce 15 00 f4 76 13 00 ee 05 10 00 68 99 14 80
       2.002603e-39 1.787547e-39 1.471495e-39 -1.891742e-39
000010 bd 04 08 80 24 5d 10 80 66 16 14 00 cc 99 04 00
       -7.36384e-40 -1.50278e-39 1.844745e-39 4.22514e-40
000020 11 f7 00 00 3e 59 10 80 20 41 06 00 df 0c 10 00
       8.8631e-41 -1.501382e-39 5.74375e-40 1.473985e-39
000030 64 b6 02 00 cf 81 08 00 d4 97 10 00 b1 e3 0d 80
       2.491e-40 7.8125e-40 1.523834e-39 -1.275542e-39
000040 78 90 0d 00 5e 70 13 00 43 dc 00 00 9c ac 01 80
       1.245687e-39 1.785184e-39 7.9015e-41 -1.53756e-40
000050 b5 aa 10 00 50 1b 11 00 5f 43 00 80 9b 09 00 00
       1.530606e-39 1.571001e-39 -2.4168e-41 3.446e-42
000060 0b 33 00 00 ff 1a 00 80 52 c3 07 00 5a e2 00 80
       1.8311e-41 -9.684e-42 7.12916e-40 -8.12e-41
000070 e6 47 12 00 ba 09 0d 00 19 fd 0f 80 cf 9f 15 80
       1.678831e-39 1.19735e-39 -1.468327e-39 -1.985874e-39
000080 45 77 02 80 93 73 00 80 18 3c 0b 00 2d d7 00 00
       -2.26457e-40 -4.146e-41 1.031748e-39 7.719e-41
000090 e8 6d 15 00 ee 7d 0e 80 25 ca 0c 00 6d 3a 08 80
       1.967972e-39 -1.330872e-39 1.174542e-39 -7.55643e-40
0000a0 0a 03 06 00 75 3f 06 80 05 16 08 80 a9 a1 0f 80
       5.52103e-40 -5.73777e-40 -7.42583e-40 -1.435525e-39
0000b0 35 56 13 00 33 f5 0c 80 70 28 04 80 0a 37 0a 80
       1.7758e-39 -1.189987e-39 -3.81848e-40 -9.38099e-40
0000c0 9b d9 0b 80 d6 a0 0c 00 dc 85 10 80 24 7c 10 80
       -1.088253e-39 1.159723e-39 -1.517388e-39 -1.513901e-39
0000d0 78 7b 11 80 66 d9 08 80 26 c6 02 80 2d 94 0b 00
       -1.605496e-39 -8.12672e-40 -2.54753e-40 1.063346e-39
0000e0 7c 59 0c 80 18 cc 0f 80 3a 6a 14 80 2f f5 0a 00
       -1.134127e-39 -1.450747e-39 -1.874817e-39 1.00631e-39
0000f0 95 1f 11 00 72 f0 0e 80 73 4a 01 80 87 11 11 80
       1.572533e-39 -1.371952e-39 -1.18543e-40 -1.567491e-39
000100 85 b3 0f 80 ef 90 10 00 18 f8 0f 80 63 f6 0b 80
       -1.441932e-39 1.52136e-39 -1.466532e-39 -1.098577e-39
000110 20 f2 07 00 b9 9d 07 00 85 39 08 00 94 78 01 80
       7.29707e-40 6.99429e-40 7.55318e-40 -1.35091e-40
000120 46 14 06 00 73 f6 13 00 19 76 15 00 a7 53 14 00
       5.58286e-40 1.833284e-39 1.970911e-39 1.866719e-39
000130 f2 91 07 00 f9 92 01 80 de 00 10 00 e8 80 00 00
       6.95204e-40 -1.4456e-40 1.469679e-39 4.6243e-41
000140 40 db 03 80 45 08 0b 00 ea 7f 09 00 28 b4 05 00
       -3.54159e-40 1.013157e-39 8.72406e-40 5.23805e-40
000150 81 26 0c 80 09 c2 05 80 bc 8a 0e 80 ed 77 03 80
       -1.115839e-39 -5.28784e-40 -1.335465e-39 -3.18528e-40
000160 5e bb 15 00 ec 95 0b 80 61 14 13 00 64 f5 0c 80
       1.99576e-39 -1.063972e-39 1.752185e-39 -1.190056e-39
000170 86 4c 0d 80 14 03 10 80 08 82 11 00 55 73 0c 00
       -1.221313e-39 -1.470472e-39 1.60785e-39 1.143399e-39
000180 6e 26 14 00 82 b6 0d 80 6a d9 0e 00 d0 09 0e 00
       1.850496e-39 -1.259333e-39 1.36369e-39 1.289217e-39
000190 9e 32 0c 80 d7 ed 0f 00 f3 ee 13 80 dc 06 08 00
       -1.120184e-39 1.462853e-39 -1.830593e-39 7.37145e-40
0001a0 0b 72 11 80 c0 45 00 80 a5 42 03 00 c9 7d 08 80
       -1.602114e-39 -2.5022e-41 2.99414e-40 -7.79807e-40
0001b0 67 0d 10 80 6c b3 10 80 6a 5d 07 00 27 06 04 80
       -1.474176e-39 -1.533732e-39 6.76359e-40 -3.69549e-40
0001c0 7b 33 0d 80 a5 58 13 00 81 fc 0d 80 a5 80 07 00
       -1.212329e-39 1.776674e-39 -1.284443e-39 6.88997e-40
0001d0 93 89 0f 00 10 f4 03 80 76 b4 14 80 49 20 14 00
       1.426885e-39 -3.6306e-40 -1.901447e-39 1.848292e-39
0001e0 52 b3 0a 00 89 5d 03 00 9e 8d 03 00 44 d5 10 80
       9.82683e-40 3.0906e-40 3.26309e-40 -1.545873e-39
0001f0 a2 5e 0d 00 f6 50 10 80 1f 90 13 80 b3 32 13 00
       1.22781e-39 -1.498411e-39 -1.796575e-39 1.763062e-39
000200 ed 8e 10 00 43 9a 11 00 f0 89 12 00 01 14 0d 00
       1.52064e-39 1.616542e-39 1.702522e-39 1.201037e-39
000210 ca 53 0c 80 20 11 10 00 30 f7 0f 80 35 1a 14 00
       -1.132084e-39 1.475511e-39 -1.466207e-39 1.846111e-39
000220 1e 35 14 00 30 ae 15 80 1b 4d 0a 80 e2 2c 00 80
       1.855765e-39 -1.991032e-39 -9.46015e-40 -1.6101e-41
000230 d0 9e 02 80 9b 1f 0f 80 92 23 14 00 5b 7c 11 00
       -2.40642e-40 -1.38887e-39 1.84947e-39 1.605814e-39
000240 91 dc 0b 00 57 35 13 80 d7 d2 01 80 96 5f 0d 00
       1.089315e-39 -1.764009e-39 -1.6747e-40 1.228151e-39
000250 c8 5f 0c 80 e3 6c 0a 80 24 8c 03 80 eb 3b 10 00
       -1.136386e-39 -9.57416e-40 -3.2578e-40 1.490862e-39
000260 eb f7 09 80 6c 12 08 00 6d 99 0c 80 c6 3e 01 80
       -9.15456e-40 7.41292e-40 -1.157065e-39 -1.14354e-40
000270 21 6e 0a 00 0e ca 0a 00 e1 1d 0d 00 02 46 04 00
       9.57862e-40 9.90839e-40 1.20458e-39 3.92456e-40
000280 14 39 01 80 68 78 11 00 7d 91 0c 80 2c a1 0b 00
       -1.12311e-40 1.604397e-39 -1.154217e-39 1.068008e-39
000290 92 c1 09 80 6e 00 07 80 c3 51 13 00 39 b1 06 00
       -8.9596e-40 -6.43003e-40 1.774205e-39 6.14588e-40
0002a0 71 bd 13 00 e1 94 00 80 f0 41 0c 00 ad 06 14 00
       1.812833e-39 -5.3408e-41 1.12568e-39 1.839105e-39
0002b0 9b cf 13 00 92 4e 11 00 b3 7b 0c 80 87 7e 03 80
       1.819349e-39 1.589389e-39 -1.146401e-39 -3.20896e-40
0002c0 55 94 14 00 1d 67 0b 80 15 db 08 80 d3 b1 10 00
       1.889921e-39 -1.04718e-39 -8.13276e-40 1.533159e-39
0002d0 68 64 11 00 4f 54 12 00 14 87 11 00 bd af 0a 80
       1.597222e-39 1.683283e-39 1.60966e-39 -9.81398e-40
0002e0 57 53 0c 00 53 98 0c 00 c0 ea 10 80 cc 10 0a 80
       1.131923e-39 1.15667e-39 -1.55358e-39 -9.2438e-40
0002f0 34 b3 02 80 9b ff 07 80 af a7 07 00 6e dc 0d 00
       -2.47957e-40 -7.34542e-40 7.03002e-40 1.272937e-39
000300 0c 19 09 80 52 ec 13 00 be be 09 80 cb 20 10 80
       -8.35505e-40 1.82965e-39 -8.94945e-40 -1.481132e-39
000310 9a 95 0a 00 08 1f 01 80 ce fa 08 80 c9 80 0e 00
       9.72022e-40 -1.02967e-40 -8.24656e-40 1.331896e-39
000320 f6 ad 13 00 82 bb 13 00 1c 8a 13 00 ac 7a 05 80
       1.80728e-39 1.81214e-39 1.794419e-39 -5.03184e-40
000330 8d 22 11 80 fa f6 07 80 02 46 0f 80 10 e6 0e 80
       -1.573598e-39 -7.31447e-40 -1.402647e-39 -1.368228e-39
000340 72 b2 0b 00 a8 ed 13 80 1c 22 0c 80 b2 71 14 00
       1.074205e-39 -1.83013e-39 -1.114262e-39 1.877496e-39
000350 44 bf 04 80 91 4e 13 00 57 17 0e 80 b9 a3 09 00
       -4.35955e-40 1.773059e-39 -1.29407e-39 8.85252e-40
000360 76 43 11 80 13 5d 0a 00 19 77 04 00 8f 00 02 80
       -1.585404e-39 9.51744e-40 4.10066e-40 -1.83871e-40
000370 1f 2a 0f 80 0e 00 05 80 d7 cd 10 00 75 15 04 00
       -1.392643e-39 -4.59197e-40 1.54321e-39 3.7504e-40
000380 26 94 08 80 58 0f 09 00 17 04 12 80 87 0d 08 80
       -7.8783e-40 8.32024e-40 -1.654506e-39 -7.39537e-40
000390 dc a6 08 00 15 fe 03 00 7b 5a 02 00 a0 f0 10 00
       7.94542e-40 3.66654e-40 2.16129e-40 1.555688e-39
0003a0 ca 3c 11 80 95 f5 08 80 2e e1 03 80 b9 16 11 80
       -1.58301e-39 -8.22782e-40 -3.56286e-40 -1.569355e-39
0003b0 e1 92 05 00 a7 4e 12 00 71 1b 14 80 4b 37 0e 00
       5.11868e-40 1.681254e-39 -1.846554e-39 1.305532e-39
0003c0 de 07 06 00 de f9 0b 00 9e 88 00 00 c5 86 10 80
       5.53835e-40 1.099826e-39 4.9009e-41 -1.517714e-39
0003d0 09 c3 10 80 be c6 07 80 42 24 07 80 1b 6d 08 00
       -1.539333e-39 -7.14144e-40 -6.55855e-40 7.73824e-40
0003e0 08 4e 04 80 1a e7 01 00 02 6b 01 80 29 d5 07 80
       -3.95334e-40 1.74739e-40 -1.30223e-40 -7.19316e-40
0003f0 da 51 06 80 2e 92 08 80 d2 92 01 00 e3 de 07 00
       -5.80376e-40 -7.87123e-40 1.44505e-40 7.22805e-40

layers.0.1.weight f4 [64]
000000 c0 f6 06 00 a0 e0 a3 ba 5c f1 91 3e aa af a5 ba
       6.3953e-40 -0.0012502857 0.28504455 -0.0012640853
000010 8b 03 46 3e 52 9b 2d 3b eb 84 bf 3d cf be 57 3e
       0.19337289 0.0026490283 0.09351524 0.21068881
000020 2c 59 50 3e e8 e6 74 b4 4f dd 07 80 bd 3e 35 3e
       0.20346516 -2.2808274e-07 -7.22239e-40 0.17699714
000030 50 01 0b 80 13 f1 de ba 0e 30 95 3e 52 85 af b7
       -1.010661e-39 -0.0017009102 0.29138225 -2.0923708e-05
000040 bf cc 00 80 fd f3 05 00 f4 55 7a 3e f0 c7 0a 00
       -7.3449e-41 5.46704e-40 0.24446851 9.90079e-40
000050 ff 91 0e 00 c6 b3 07 00 cc 2b 09 80 6b 5c 73 3e
       1.33807e-39 7.07339e-40 -8.42231e-40 0.23765723
000060 19 a2 27 3b aa b3 03 00 af 89 4b 31 23 57 06 00
       0.0025578795 3.39958e-40 2.9618652e-09 5.82272e-40
000070 8d 9c 67 3e da fa 13 80 64 bc 4d 07 e3 f2 0e 80
       0.22618313 -1.834863e-39 1.5477849e-34 -1.372828e-39
000080 7c e9 1a 3e cb 7b 1d 13 15 2b 91 3e 32 49 c3 3b
       0.1512813 1.987722e-27 0.2835318 0.0059596533
000090 46 8c 92 38 6f 6e 02 00 fc 34 0a 0e f6 b6 42 3e
       6.9879505e-05 2.23287e-40 1.7035324e-30 0.19015107
0000a0 d7 30 73 3e 35 e4 80 3e 0a 96 d6 3c 17 35 08 3b
       0.237491 0.25174108 0.026194591 0.0020783597
0000b0 5c 6c 42 3e ef a3 2e 3e 62 98 58 39 4b 21 fd b4
       0.18986648 0.17054723 0.00020656132 -4.7149146e-07
0000c0 2c 40 48 ba 34 65 33 3e 98 6a 02 00 6a b0 05 00
       -0.0007638957 0.17519075 2.2191e-40 5.22463e-40
0000d0 fd 10 b4 19 0d 17 92 3e 98 a3 59 8f 02 45 05 00
       1.8618425e-23 0.2853321 -1.0730433e-29 4.83933e-40
0000e0 d8 5c f2 3b 7d b9 03 b1 ab 0f 70 3e 2a 9b 00 80
       0.0073963217 -1.9168447e-09 0.23443477 -5.5662e-41
0000f0 4b f4 0e 80 1f 69 a3 3e b0 a4 e6 3d a1 bc 5d ba
       -1.373333e-39 0.3191614 0.112618804 -0.0008458589

layers.0.1.bias f4 [64]
000000 1e 16 f3 a1 18 45 0d bb c9 58 cd bd 1e 0c 76 bc
       -1.6472175e-18 -0.0021556076 -0.100267 -0.015017537
000010 1e 19 09 bd a9 82 1a bc 7c 59 04 be 78 a1 eb 3d
       -0.03347122 -0.009430566 -0.1292476 0.11505407
000020 7f 28 a7 bd 2c 1f a0 9c e9 91 b4 8d 53 90 e1 bc
       -0.08162021 -1.059597e-21 -1.1128483e-30 -0.02753464
000030 aa 05 0a 11 25 43 d5 bb 72 c9 4b 3e 65 dc 8e b3
       1.0888026e-28 -0.0065082484 0.19901064 -6.65248e-08
000040 c6 73 84 9a 2b f0 f1 b9 84 0f db bc a6 66 f4 02
       -5.478096e-23 -0.0004614604 -0.026740797 3.5911495e-37
000050 3a 53 de b6 61 e1 fa 15 f6 3b 0d 10 d7 61 04 be
       -6.6258044e-06 1.0132978e-25 2.785354e-29 -0.12927948
000060 da e3 0f bb 56 fe 35 b4 da 5e f1 95 4c d7 88 14
       -0.0021955878 -1.6949465e-07 -9.7488774e-26 1.381741e-26
000070 fd b9 34 be e5 20 03 80 e5 a6 9f b3 ec 01 d8 8e
       -0.17649074 -2.87307e-40 -7.4343724e-08 -5.324996e-30
000080 b5 58 f3 3d 22 d0 0b 39 7b 9b c7 bd 85 e3 ad bc
       0.11882154 0.00013333609 -0.097464524 -0.021226654
000090 9c fb 8c b2 15 67 b8 27 af 7e 94 2a 7b ef b9 bd
       -1.6412564e-08 5.118202e-15 2.6377986e-13 -0.090788804
0000a0 6f 24 02 bd 4b 9c 99 bd ac 05 dc bd 9e 42 f4 bb
       -0.031773027 -0.07500514 -0.10743269 -0.0074542305
0000b0 0d 76 9a bd c3 31 29 bd de 4d 20 b5 56 af 7b af
       -0.07542048 -0.041307222 -5.9717956e-07 -2.2890609e-10
0000c0 75 ee 15 bb 5d 94 e9 bd 4b 35 60 a8 3b 70 08 80
       -0.0022877727 -0.11405251 -1.2446054e-14 -7.74945e-40
0000d0 6c af 4c 2a 89 68 f8 3d a8 27 5c 0e 92 77 cb 0e
       1.8179701e-13 0.121293135 2.7136187e-30 5.0158506e-30
0000e0 f2 e3 89 bc d4 44 40 80 d8 c8 99 3d b3 87 1e 2b
       -0.016832326 -5.902163e-39 0.07509011 5.6321197e-13
0000f0 93 5c 10 a9 33 bc 83 bb 98 3c 9d bd 45 6c ce b9
       -3.205472e-14 -0.004020238 -0.07677573 -0.0003937205

layers.0.1.running_mean f4 [64]
000000 f3 52 05 00 bd 38 b2 a9 63 5c b4 bc a5 f5 ee 39
       4.88934e-40 -7.9146305e-14 -0.02201671 0.00045577917
000010 fc 57 15 bd 55 04 b7 39 a4 b5 bd ba 0a b5 a3 39
       -0.03646086 0.00034907708 -0.0014473689 0.00031224667
000020 a8 5f 92 3c da 6c 01 00 f4 5a 02 00 2c 55 56 3b
       0.017867878 1.30884e-40 2.16299e-40 0.0032704575
000030 b0 bd 04 80 e0 e8 50 b2 c3 80 80 bd 0e e6 00 80
       -4.35389e-40 -1.2160143e-08 -0.06274559 -8.2528e-41
000040 6d 77 01 80 eb 42 01 00 d8 54 51 bc b0 5e 01 00
       -1.34677e-40 1.15841e-40 -0.012776576 1.25803e-40
000050 49 55 01 80 2d 0a 02 80 7d 13 01 00 4c 9f a2 3c
       -1.2243e-40 -1.87321e-40 9.8827e-41 0.01985135
000060 7c 89 bc 32 89 d9 00 00 aa 1d 00 00 7a 12 04 00
       2.1948601e-08 7.8037e-41 1.0641e-41 3.7397e-40
000070 0f 19 84 bc 3b 33 03 80 bc 37 4a 83 e4 b6 02 00
       -0.01612523 -2.93885e-40 -5.9426445e-37 2.4928e-40
000080 ca d0 bc bb 80 61 c6 11 d4 51 5a 3c 35 aa 92 3c
       -0.0057621943 3.129898e-28 0.013325173 0.017903427
000090 5a 3f be a4 d8 7b 00 80 5e 2a 00 00 c0 84 11 3b
       -8.250669e-17 -4.4427e-41 1.5198e-41 0.002220437
0000a0 44 7e d6 3c 91 db 46 3c 9e fe 0c 3b 11 28 05 32
       0.026183255 0.01213731 0.0021514068 7.750729e-09
0000b0 96 82 9e 3c 5c 67 c4 3c d7 03 01 00 e0 03 01 00
       0.019349378 0.023975067 9.3213e-41 9.3226e-41
0000c0 7c 26 09 96 bb b9 46 bd 91 bb 01 80 0d c1 00 00
       -1.1078915e-25 -0.04851697 -1.59122e-40 6.9254e-41
0000d0 3f 42 41 07 ee 8d 2f bc fa e1 00 80 eb c3 01 00
       1.4539174e-34 -0.010714991 -8.1065e-41 1.62118e-40
0000e0 df 27 9c b8 f1 5f 02 80 e2 46 1a 3d 6c b0 07 80
       -7.446086e-05 -2.18088e-40 0.037665255 -7.06137e-40
0000f0 9c ea 00 00 5e 21 e2 bc 30 8f 14 3a 9c d7 00 00
       8.4162e-41 -0.027603801 0.00056670886 7.7346e-41

layers.0.1.running_var f4 [64]
000000 04 00 00 00 04 b9 00 16 cd 62 89 3c 79 b0 ea 36
       6e-45 1.0398138e-25 0.016770745 6.9942876e-06
000010 28 68 c4 3c 92 95 48 35 11 fa 4a 3c a9 36 06 3d
       0.023975447 7.472346e-07 0.012388722 0.03276697
000020 d7 f1 9d 3c 04 00 00 00 04 00 00 00 36 41 63 3c
       0.019280357 6e-45 6e-45 0.013870528
000030 04 00 00 00 1d 44 e8 27 29 1e 0e 3d 04 00 00 00
       6e-45 6.4466784e-15 0.03469673 6e-45
000040 04 00 00 00 04 00 00 00 0b 31 56 3c 04 00 00 00
       6e-45 6e-45 0.013073216 6e-45
000050 04 00 00 00 04 00 00 00 04 00 00 00 42 0b bd 3c
       6e-45 6e-45 6e-45 0.023076657
000060 6c 9e f8 27 04 00 00 00 04 00 00 00 04 00 00 00
       6.900559e-15 6e-45 6e-45 6e-45
000070 53 6e 25 3c 04 00 00 00 04 00 00 00 04 00 00 00
       0.010097104 6e-45 6e-45 6e-45
000080 df 02 5a 3c 04 00 00 00 30 da a9 3c 05 13 eb 3a
       0.013306349 6e-45 0.020733923 0.0017934745
000090 c0 0c 22 0c 04 00 00 00 04 00 00 00 01 44 5d 3c
       1.2483863e-31 6e-45 6e-45 0.013504983
0000a0 9d 31 8b 3c f6 ce cc 3c ae b1 c5 3a 9b b8 08 26
       0.01699143 0.02500103 0.001508286 4.7434666e-16
0000b0 7c bb 89 3c 7e a6 a9 3c 04 00 00 00 04 00 00 00
       0.016813032 0.020709272 6e-45 6e-45
0000c0 04 00 00 00 3f 95 20 3d 04 00 00 00 04 00 00 00
       6e-45 0.039204832 6e-45 6e-45
0000d0 04 00 00 00 36 6f a1 3c 04 00 00 00 04 00 00 00
       6e-45 0.01970635 6e-45 6e-45
0000e0 83 28 19 34 04 00 00 00 5a ef 05 3d 04 00 00 00
       1.4263973e-07 6e-45 0.032698967 6e-45
0000f0 04 00 00 00 88 08 a7 3c 36 a9 56 3c 04 00 00 00
       6e-45 0.02038981 0.0131018665 6e-45

layers.1.conv1.weight f4 [64, 64, 3, 3]
000000 e1 30 0f 00 b4 57 10 80 56 30 0d 00 d3 a8 06 80
       1.395067e-39 -1.50083e-39 1.211201e-39 -6.11576e-40
000010 f4 52 12 00 ea 97 0e 00 4f c6 10 00 e4 ed 10 00
       1.682797e-39 1.340193e-39 1.540508e-39 1.554707e-39
000020 c7 92 11 00 a7 5a 14 00 15 1b 0e 00 ec 5a 05 00
       1.613857e-39 1.86923e-39 1.295412e-39 4.91794e-40
000030 fb 54 14 00 29 fc 12 80 9e 0e 0c 80 f2 ad 13 00
       1.867195e-39 -1.743497e-39 -1.10727e-39 1.807274e-39
000040 26 81 06 80 6f 99 03 80 5f ef 06 80 f5 ad 02 00
       -5.97343e-40 -3.30548e-40 -6.36883e-40 2.46075e-40
000050 21 a3 02 00 8c 1f 0a 00 f5 39 06 80 02 4d 01 80
       2.4219e-40 9.29672e-40 -5.71804e-40 -1.1946e-40
000060 b9 7e 03 00 27 10 09 00 f1 57 04 00 fd c8 00 80
       3.20966e-40 8.32314e-40 3.9889e-40 -7.2101e-41
000070 7c 64 10 00 9a 4f 09 80 b3 ec 05 80 7e d6 04 80
       1.505415e-39 -8.55075e-40 -5.44089e-40 -4.44287e-40
000080 89 3b 05 80 27 3d 07 80 d0 a4 00 00 4b 83 05 00
       -4.80535e-40 -6.64786e-40 5.9124e-41 5.06277e-40
000090 2d 4b 06 00 d4 4f 05 80 59 c7 08 00 4a c6 08 80
       5.77981e-40 -4.87814e-40 8.06196e-40 -8.05817e-40
0000a0 2d 8b 0b 80 a8 5e 06 80 40 45 07 00 4e de 07 80
       -1.060117e-39 -5.84969e-40 6.6769e-40 -7.22596e-40
0000b0 a9 1e 02 80 e3 54 15 00 32 7d 0e 80 e6 6f 13 00
       -1.9467e-40 1.958997e-39 -1.330609e-39 1.785016e-39
0000c0 29 cc 0f 80 4e b8 0f 80 41 ab 0c 00 ae c9 0a 00
       -1.450771e-39 -1.443649e-39 1.16346e-39 9.90704e-40
0000d0 d3 25 06 80 c9 1e 0c 80 e2 2b 08 80 18 84 04 00
       -5.64582e-40 -1.11307e-39 -7.50426e-40 4.14728e-40
0000e0 e4 63 06 00 fc ad 09 00 26 e8 03 00 25 eb 00 80
       5.86847e-40 8.88933e-40 3.58786e-40 -8.4354e-41
0000f0 77 31 02 00 d7 1b 02 00 9e 63 01 80 9e b2 07 00
       2.01416e-40 1.93658e-40 -1.27571e-40 7.06924e-40
000100 71 72 0b 00 d5 78 03 00 4f 18 03 80 b6 10 05 00
       1.051244e-39 3.18853e-40 -2.84227e-40 4.65172e-40
000110 a3 1c 07 80 e5 e2 04 80 9a ea 02 00 58 f0 0a 00
       -6.53121e-40 -4.48736e-40 2.6783e-40 1.004574e-39
000120 13 79 08 00 92 9c 09 00 3f 6b 04 00 a7 8a 03 00
       7.78117e-40 8.82686e-40 4.05815e-40 3.25246e-40
000130 ff 90 08 00 c6 a5 04 80 c1 cb 04 80 fb 1f 09 00
       7.86699e-40 -4.2681e-40 -4.40435e-40 8.37992e-40
000140 63 cd 04 00 66 6e 09 00 d0 e9 09 80 06 22 11 00
       4.41021e-40 8.66123e-40 -9.10396e-40 1.573409e-39
000150 ec d2 0b 80 cf 71 02 00 9d d2 01 00 95 15 00 80
       -1.085855e-39 2.24498e-40 1.6739e-40 -7.742e-42
000160 d9 7f 00 00 d0 d3 03 00 30 97 0f 00 15 68 10 00
       4.5863e-41 3.5149e-40 1.431768e-39 1.506706e-39
000170 b4 1e 12 00 37 32 00 00 87 ae 07 00 a0 dd 14 80
       1.664053e-39 1.8014e-41 7.05457e-40 -1.916214e-39
000180 43 fa 05 00 cf e1 05 80 81 03 00 80 f6 7d 09 00
       5.48954e-40 -5.40182e-40 -1.257e-42 8.71706e-40
000190 fb 08 09 80 5b 60 0a 80 16 d4 0a 00 85 25 01 00
       -8.29741e-40 -9.52921e-40 9.94437e-40 1.05295e-40
0001a0 ce 0c 0a 80 4a 42 04 00 6e 6c 06 80 b6 1d 0a 00
       -9.22948e-40 3.91122e-40 -5.8991e-40 9.29013e-40
0001b0 95 e2 06 00 19 fc 08 00 8a f9 0b 80 df 4d 11 00
       6.32295e-40 8.2512e-40 -1.099708e-39 1.589138e-39
0001c0 50 04 02 80 cf a2 0f 80 05 ac 0b 00 4c cc 0d 80
       -1.85218e-40 -1.435937e-39 1.0719e-39 -1.26715e-39
0001d0 6b 48 08 80 10 ef 10 80 d7 f2 11 00 7d 94 12 00
       -7.60663e-40 -1.555127e-39 1.648318e-39 1.706306e-39
0001e0 67 4e 06 80 81 b5 01 80 27 10 15 00 c1 a9 0a 80
       -5.79138e-40 -1.56947e-40 1.93434e-39 -9.79251e-40
0001f0 c4 bc 0b 80 d2 5e 00 80 e6 0a 0a 80 95 0f 0a 80
       -1.077907e-39 -3.4015e-41 -9.22265e-40 -9.23945e-40
000200 71 84 06 80 34 fa 09 80 c7 fa 08 00 2e 5a 03 00
       -5.98524e-40 -9.16275e-40 8.24646e-40 3.07857e-40
000210 34 44 04 00 24 5b 07 00 53 82 09 00 dd e1 0f 00
       3.91809e-40 6.75544e-40 8.73271e-40 1.458557e-39
000220 18 96 11 00 80 a2 10 00 2f 85 10 00 fa c7 0b 00
       1.615047e-39 1.527662e-39 1.517145e-39 1.081929e-39
000230 7f 80 10 00 e7 05 0f 00 1a 88 15 00 54 d0 11 00
       1.515464e-39 1.37965e-39 1.97737e-39 1.635937e-39
000240 b6 b5 05 80 5d df 07 00 9d a4 08 00 71 10 0a 80
       -5.24363e-40 7.22976e-40 7.93736e-40 -9.24253e-40
000250 19 d3 09 00 08 88 03 80 f9 58 0b 80 fb d9 0c 00
       9.02247e-40 -3.24305e-40 -1.042108e-39 1.180223e-39
000260 1d 6a 03 00 d2 45 0c 80 43 dc 14 80 ec 6c 07 80
       3.13573e-40 -1.127073e-39 -1.915725e-39 -6.81922e-40
000270 e7 73 07 00 9f 21 14 80 7c 51 15 80 5b 47 0a 80
       6.84426e-40 -1.848771e-39 -1.957777e-39 -9.43952e-40
000280 a1 12 10 00 20 48 0c 80 9f 9d 01 00 49 4e 05 00
       1.476051e-39 -1.1279e-39 1.48379e-40 4.87261e-40
000290 f2 dc 0a 80 f5 1c 04 00 24 79 03 80 eb a7 00 80
       -9.97615e-40 3.7773e-40 -3.18964e-40 -6.0238e-41
0002a0 40 6a 05 00 93 20 09 00 f3 7e 07 80 cb a7 03 00
       4.97293e-40 8.38205e-40 -6.88389e-40 3.35699e-40
0002b0 2e b6 0a 00 57 87 0a 00 a3 29 08 00 7d 94 12 80
       9.83709e-40 9.66906e-40 7.4962e-40 -1.706306e-39
0002c0 6a 6e 02 00 84 99 0a 00 43 ad 11 00 23 ba 0c 00
       2.2328e-40 9.73426e-40 1.623358e-39 1.168799e-39
0002d0 4b 22 0c 80 ba 5f 14 80 8c f2 14 80 ca 70 10 00
       -1.114328e-39 -1.87105e-39 -1.92372e-39 1.509829e-39
0002e0 af 61 09 00 06 44 0b 00 a2 14 16 00 28 3b 07 80
       8.61562e-40 1.034593e-39 2.027783e-39 -6.6407e-40
0002f0 82 56 03 00 2f f5 07 00 71 64 0c 80 39 57 0d 80
       3.0654e-40 7.30804e-40 -1.138058e-39 -1.225151e-39
000300 96 07 13 80 b1 44 09 00 88 8f 00 80 ad e0 12 00
       -1.747596e-39 8.51161e-40 -5.149e-41 1.733637e-39
000310 b5 cb 0c 00 51 b0 0c 80 2b 46 02 80 ec 7e 11 80
       1.175102e-39 -1.165276e-39 -2.08843e-40 -1.606734e-39
000320 5e c7 0b 80 96 22 10 80 07 70 04 00 8a bd 01 80
       -1.08171e-39 -1.481775e-39 4.0753e-40 -1.5983e-40
000330 75 32 09 80 50 e7 13 80 53 6f 08 80 bd 0f 0a 00
       -8.4462e-40 -1.827854e-39 -7.7462e-40 9.24001e-40
000340 8a ce 04 80 30 80 06 00 e9 6f 09 00 e7 61 02 80
       -4.41434e-40 5.96998e-40 8.66665e-40 -2.18792e-40
000350 04 a8 03 00 68 f9 07 80 8e 89 07 80 65 03 03 00
       3.35779e-40 -7.32319e-40 -6.92194e-40 2.76724e-40
000360 9e 43 08 00 f5 c6 0b 80 5e 0e 05 80 c6 66 07 00
       7.5894e-40 -1.081563e-39 -4.64331e-40 6.79717e-40
000370 eb 98 14 00 72 59 0d 80 52 53 08 80 e6 cf 09 00
       1.891567e-39 -1.225948e-39 -7.64574e-40 9.011e-40
000380 6b 89 11 00 65 6c 0c 00 99 0d 04 80 ed 7e 0b 00
       1.6105e-39 1.14091e-39 -3.7222e-40 1.055723e-39
000390 a8 fd 01 80 1f 1b 10 00 e3 ff 13 80 c2 37 00 80
       -1.8283e-40 1.479097e-39 -1.836669e-39 -2.0002e-41
0003a0 52 18 15 00 86 83 10 00 56 19 0a 00 18 44 09 80
       1.93727e-39 1.51655e-39 9.27444e-40 -8.50947e-40
0003b0 aa 2c 0b 00 e1 32 01 80 5e 1b 0b 80 f4 d6 00 80
       1.026213e-39 -1.10087e-40 -1.020008e-39 -7.711e-41
0003c0 5f 83 0c 80 94 06 0c 80 49 3e 09 00 b7 1e 01 80
       -1.149153e-39 -1.104386e-39 8.48863e-40 -1.02854e-40
0003d0 9e 87 0e 00 32 ba 12 00 69 ac 10 00 df 3d 13 00
       1.334347e-39 1.719833e-39 1.531217e-39 1.76707e-39
0003e0 ea 87 15 80 c5 23 0b 00 44 3b 14 00 75 ff 0a 00
       -1.977302e-39 1.023022e-39 1.85797e-39 1.009996e-39
0003f0 21 63 02 80 27 c7 00 80 ef 02 08 00 40 1b 04 00
       -2.19232e-40 -7.1442e-41 7.35736e-40 3.77117e-40

layers.1.bn1.weight f4 [64]
000000 6a 54 80 b2 eb 62 47 3b 8c b2 36 b8 ce a4 e8 3b
       -1.4939548e-08 0.003042395 -4.3558466e-05 0.0070997244
000010 f9 6b 02 00 58 5d b0 bb f9 ed e2 3a 72 50 0c 00
       2.22404e-40 -0.005382221 0.0017313353 1.130884e-39
000020 d8 69 10 38 17 0b 04 00 06 5d cb 3a f9 33 11 b8
       3.443085e-05 3.7132e-40 0.0015515394 -3.4619097e-05
000030 07 75 10 00 b9 71 31 bb 7d a0 8a 3e b9 65 e4 37
       1.51135e-39 -0.002707584 0.27075568 2.7227086e-05
000040 6c 57 72 bc 71 a4 18 bc 66 27 05 80 53 6c f8 1b
       -0.014791351 -0.00931655 -4.73311e-40 4.1098161e-22
000050 22 05 09 00 55 fa f3 b5 a3 6a 96 2d ac 18 3a 38
       8.28361e-40 -1.8177767e-06 1.7100382e-11 4.4368833e-05
000060 83 ee 97 bb db bc 04 00 db d5 52 3b bb 68 02 00
       -0.004636587 4.3509e-40 0.0032170925 2.21241e-40
000070 ed 71 7a 3c b3 f4 ea 34 30 a3 c4 8c 11 af 09 00
       0.015285951 4.376394e-07 -3.0296796e-31 8.89321e-40
000080 60 f7 07 00 39 5e e4 11 c3 fb 49 3a 3d e1 03 80
       7.3159e-40 3.6030126e-28 0.0007705057 -3.56307e-40
000090 fe d2 03 bc a0 04 02 80 d9 e8 13 00 b9 61 f0 9e
       -0.00804591 -1.8533e-40 1.828404e-39 -2.5451406e-20
0000a0 6f 73 d6 22 af da 05 00 d5 68 05 00 8d 9b 08 00
       5.8127036e-18 5.37626e-40 4.96784e-40 7.90485e-40
0000b0 fc dc 32 bc 44 ac 04 80 ab 44 05 80 f4 fd f8 2f
       -0.010916945 -4.29139e-40 -4.83811e-40 4.5291382e-10
0000c0 cd ca 06 80 c2 45 9c ae e5 f9 47 bb 7f ad f4 3b
       -6.23764e-40 -7.10645e-11 -0.003051394 0.0074669714
0000d0 93 82 05 80 44 f1 1d 1e 12 e7 07 80 ff 83 c1 3a
       -5.06019e-40 8.361403e-21 -7.25741e-40 0.0014764069
0000e0 36 7e 66 3e 38 52 ba 3b ff 29 ce b9 cc dc c8 ba
       0.22509083 0.005686071 -0.0003932267 -0.0015324592
0000f0 3f 59 18 00 b6 27 1d ba 19 b1 f6 30 af 53 06 3b
       2.236067e-39 -0.0005994992 1.794919e-09 0.0020496657

layers.1.bn1.bias f4 [64]
000000 88 5f 3a a2 96 9b be bb 0f 6e 52 b3 02 da 48 bc
       -2.5258274e-18 -0.005816887 -4.8994533e-08 -0.012259008
000010 10 22 66 36 22 ff ed bb 68 a1 da bb dd aa d0 8c
       3.4292498e-06 -0.00726308 -0.006672073 -3.215031e-31
000020 ca db 07 b4 d7 b7 79 92 88 f8 71 ba ad 4b 3d ae
       -1.2652814e-07 -7.8797146e-28 -0.00092304545 -4.3040838e-11
000030 7e 4e a1 b1 4a 13 6c bb d7 9d a5 3e e8 f4 24 ba
       -4.6946402e-09 -0.003602224 0.32346985 -0.00062925974
000040 41 1f 6b bc 52 a9 81 bc 60 fb 08 b6 35 02 b8 ae
       -0.014350713 -0.015827809 -2.0411899e-06 -8.367743e-11
000050 3b c4 ef 9c 87 26 82 b5 83 69 8e aa a2 0f 51 b6
       -1.5866418e-21 -9.696968e-07 -2.529748e-13 -3.1152526e-06
000060 b1 ac 92 bc 60 89 01 9f c2 2e 96 bc 00 1f 55 86
       -0.017904611 -2.7430446e-20 -0.018332843 -4.0083623e-35
000070 3e df ed bc 3f d2 32 b4 ae e1 74 90 6d b7 1e 9b
       -0.029037114 -1.6654029e-07 -4.8294373e-29 -1.3128722e-22
000080 4a 0e 4e b6 ad e0 01 8d 70 db 9a ba 07 ea ba ba
       -3.070471e-06 -4.002164e-31 -0.0011814665 -0.0014260419
000090 3b df eb bc 47 a0 bb b0 59 6f 42 94 ff 0a 6e 87
       -0.028792968 -1.3651594e-09 -9.8164565e-27 -1.7908361e-34
0000a0 2a 78 90 89 60 4c b9 b7 db c8 44 80 3e d4 26 b5
       -3.477974e-33 -2.2089283e-05 -6.316867e-39 -6.214867e-07
0000b0 09 5b d1 bc 47 3c 2f 8d f8 b0 90 23 f2 fa ca a1
       -0.025556104 -5.3998595e-31 1.568746e-17 -1.3754477e-18
0000c0 b3 20 b6 88 bb 28 1e ac 36 fd 25 ba 22 93 e0 bc
       -1.0961414e-33 -2.247576e-12 -0.0006331982 -0.027413908
0000d0 c3 37 92 96 ec a9 c1 90 03 7c 2f ba 4c 3d 77 bc
       -2.3622763e-25 -7.6386883e-29 -0.00066941994 -0.015090298
0000e0 0d 40 eb bc ad 4a ae bc dd 74 e0 ba 13 3e cc 3c
       -0.028717065 -0.021275843 -0.0017124672 0.024931943
0000f0 aa c4 3e a1 a9 6c 64 b9 e0 fb 46 b2 96 ec 15 ba
       -6.4634787e-19 -0.00021784253 -1.1582387e-08 -0.0005719153

layers.1.bn1.running_mean f4 [64]
000000 e0 31 07 00 66 41 79 ba 21 c3 09 80 e8 20 66 36
       6.6074e-40 -0.00095083413 -8.96519e-40 3.4291825e-06
000010 94 0c 15 80 9e 17 73 31 25 04 43 b0 aa 72 17 80
       -1.933058e-39 3.5374579e-09 -7.0946476e-10 -2.15335e-39
000020 0c 8d 09 00 6b 22 00 80 5f ad 9b ae 6e 7a 06 00
       8.77118e-40 -1.2347e-41 -7.079381e-11 5.94932e-40
000030 20 01 0b 00 ea f0 47 2c 9e 6b a9 bf 71 d9 23 21
       1.010594e-39 2.8413335e-12 -1.3235967 5.551433e-19
000040 a0 f9 e7 b0 c0 fb 6a 3c 53 66 04 80 7d 65 08 80
       -1.687841e-09 0.014342248 -4.04049e-40 -7.71091e-40
000050 2b 0e 06 00 39 8b 08 00 bf a7 0b 80 2a f5 20 1b
       5.56095e-40 7.84628e-40 -1.070366e-39 1.3314107e-22
000060 84 87 f8 b7 85 00 0b 80 94 08 50 b8 f4 45 02 00
       -2.9627008e-05 -1.010377e-39 -4.9599053e-05 2.08765e-40
000070 d7 9d 4d bd e2 f4 01 80 23 f9 02 00 3b 1a 02 00
       -0.050199356 -1.79683e-40 2.73044e-40 1.93081e-40
000080 a6 b6 00 80 e4 f3 03 80 c9 75 11 00 19 77 0d 00
       -6.5522e-41 -3.62998e-40 1.603457e-39 1.236586e-39
000090 45 58 85 3d 88 57 05 00 83 29 00 00 43 17 10 80
       0.06510977 4.90578e-40 1.4892e-41 -1.477713e-39
0000a0 9f 1f 03 80 b0 95 04 80 38 de 20 80 95 03 01 80
       -2.8685e-40 -4.2104e-40 -3.018453e-39 -9.312e-41
0000b0 44 18 a3 3a c7 53 04 80 83 b7 04 80 36 a5 01 80
       0.0012443145 -3.97396e-40 -4.33174e-40 -1.51102e-40
0000c0 49 74 08 00 e6 fc 03 80 0c 41 ab 88 6f fe ed 3a
       7.76399e-40 -3.6623e-40 -1.0306981e-33 0.0018157492
0000d0 70 25 0a 00 90 66 09 80 5d 87 01 00 bc e9 ac bd
       9.31785e-40 -8.63312e-40 1.40395e-40 -0.08443019
0000e0 02 1a 4e bd 85 93 3d 38 65 3f 81 af 0c 7d 1d 35
       -0.05031777 4.51985e-05 -2.3510008e-10 5.8669025e-07
0000f0 06 04 0c 00 63 d0 09 00 72 25 05 00 41 8d 06 00
       1.103469e-39 9.01275e-40 4.7261e-40 6.01685e-40

layers.1.bn1.running_var f4 [64]
000000 04 00 00 00 11 13 3e 35 04 00 00 00 79 78 25 2e
       6e-45 7.080826e-07 6e-45 3.7623658e-11
000010 04 00 00 00 a9 2b 22 24 64 b9 91 21 04 00 00 00
       6e-45 3.5165132e-17 9.874655e-19 6e-45
000020 04 00 00 00 04 00 00 00 93 d9 4f 1e 04 00 00 00
       6e-45 6e-45 1.1003482e-20 6e-45
000030 04 00 00 00 a8 dc 04 1a 8d b1 88 3f 2e fb b4 03
       6e-45 2.7475205e-23 1.0679184 1.0637117e-36
000040 01 66 73 26 ef 55 22 39 04 00 00 00 04 00 00 00
       8.44458e-16 0.00015481537 6e-45 6e-45
000050 04 00 00 00 04 00 00 00 04 00 00 00 4a 00 00 00
       6e-45 6e-45 6e-45 1.04e-43
000060 ee 53 2b 31 04 00 00 00 fd 01 d5 31 04 00 00 00
       2.4931484e-09 6e-45 6.199342e-09 6e-45
000070 81 7b a4 3a 04 00 00 00 04 00 00 00 04 00 00 00
       0.0012549014 6e-45 6e-45 6e-45
000080 04 00 00 00 04 00 00 00 04 00 00 00 04 00 00 00
       6e-45 6e-45 6e-45 6e-45
000090 23 0f 32 3c 04 00 00 00 04 00 00 00 04 00 00 00
       0.010867867 6e-45 6e-45 6e-45
0000a0 04 00 00 00 04 00 00 00 04 00 00 00 04 00 00 00
       6e-45 6e-45 6e-45 6e-45
0000b0 41 9d 9a 36 04 00 00 00 04 00 00 00 04 00 00 00
       4.6078644e-06 6e-45 6e-45 6e-45
0000c0 04 00 00 00 04 00 00 00 04 00 00 00 71 63 35 36
       6e-45 6e-45 6e-45 2.7028984e-06
0000d0 04 00 00 00 04 00 00 00 04 00 00 00 62 28 93 3b
       6e-45 6e-45 6e-45 0.004490898
0000e0 bb 8d c9 3e 24 88 e8 30 14 ab cb 1f 98 02 0e 2c
       0.39365944 1.6918915e-09 8.625687e-20 2.0180854e-12
0000f0 04 00 00 00 04 00 00 00 04 00 00 00 04 00 00 00
       6e-45 6e-45 6e-45 6e-45

layers.1.conv2.weight f4 [64, 64, 3, 3]
000000 8c c3 02 00 48 a3 0f 00 08 d2 0e 80 0e 7f 03 80
       2.5382e-40 1.436107e-39 -1.361042e-39 -3.21085e-40
000010 e4 3c 0c 00 88 7c 10 80 1e 5a 15 80 2e ee 0b 00
       1.12387e-39 -1.514041e-39 -1.960873e-39 1.095633e-39
000020 cb 0a 07 80 84 56 07 80 65 2f 06 80 81 e4 06 80
       -6.4672e-40 -6.73884e-40 -5.68015e-40 -6.32985e-40
000030 a8 ba 06 80 e4 f8 04 00 81 db 05 80 b2 d9 03 00
       -6.17973e-40 4.56627e-40 -5.3792e-40 3.53601e-40
000040 26 81 01 80 06 fe 04 00 81 a4 09 00 fd eb 0c 00
       -1.38165e-40 4.58468e-40 8.85532e-40 1.186683e-39
000050 ef 63 09 80 ee 49 09 80 bf cc 08 80 3a a0 0c 00
       -8.62369e-40 -8.5304e-40 -8.08133e-40 1.159504e-39
000060 93 9e 01 00 22 d0 07 00 e2 38 0d 80 20 aa ef 08
       1.48721e-40 7.17512e-40 -1.214267e-39 1.44242855e-33
000070 44 37 ea 08 1e d8 d6 88 58 c6 fa 89 30 34 40 8a
       1.4096356e-33 -1.2930465e-33 -6.0371832e-33 -9.254279e-33
000080 e1 a5 ee 87 60 65 55 09 f4 f4 cb 88 ff 18 d7 89
       -3.5907755e-34 2.5686609e-33 -1.2275206e-33 -5.1782873e-33
000090 f9 9a 1f 12 75 6b 5b 12 21 41 49 93 d6 51 cd 10
       5.036257e-28 6.9236666e-28 -2.5401878e-27 8.098433e-29
0000a0 e9 51 71 09 61 c4 89 93 70 cd 02 93 c3 e4 12 93
       2.9047834e-33 -3.4777307e-27 -1.6509595e-27 -1.8540579e-27
0000b0 da 17 c9 93 7b e5 06 80 02 e9 05 00 42 87 04 00
       -5.0763053e-27 -6.33335e-40 5.42765e-40 4.15863e-40
0000c0 95 cd 0e 80 60 5b 03 00 2d d5 07 80 a2 cf 0a 00
       -1.359446e-39 3.08286e-40 -7.19322e-40 9.9284e-40
0000d0 42 b3 0f 80 0c 2d 05 80 5c 1f 07 00 ca 89 0a 80
       -1.441838e-39 -4.75337e-40 6.54098e-40 -9.67784e-40
0000e0 e3 74 02 80 dc 63 07 80 34 83 0d 80 80 c7 07 80
       -2.25602e-40 -6.78671e-40 -1.240928e-39 -7.14416e-40
0000f0 ed 72 0e 80 86 17 0a 80 d6 95 09 80 05 70 09 80
       -1.326925e-39 -9.26794e-40 -8.8027e-40 -8.66705e-40
000100 df 19 0a 80 3d 85 0d 00 8c bb 0e 80 8e 45 0b 80
       -9.27636e-40 1.241658e-39 -1.352976e-39 -1.035142e-39
000110 a3 e2 08 00 3a 5b 0c 80 60 89 08 80 63 fe 03 80
       8.15986e-40 -1.134752e-39 -7.83965e-40 -3.66763e-40
000120 4a da 0d 80 5d 84 0c 80 27 c7 0a 80 99 b1 0d 00
       -1.272169e-39 -1.149509e-39 -9.89797e-40 1.257571e-39
000130 3a 00 11 80 36 6b 09 80 7c fb 0a 80 8c 1f 0d 00
       -1.561285e-39 -8.6498e-40 -1.00857e-39 1.205178e-39
000140 d1 0e 0e 80 da 11 14 00 d0 22 15 80 6c 23 0c 00
       -1.291012e-39 1.843114e-39 -1.941034e-39 1.114733e-39
000150 78 c2 10 00 a5 3d 11 80 85 3e 12 00 a7 15 13 00
       1.53913e-39 -1.583317e-39 1.675467e-39 1.752642e-39
000160 b9 5b 05 00 f5 46 0c 80 da 24 0e 00 cc b7 01 00
       4.92081e-40 -1.12748e-39 1.298917e-39 1.5777e-40
000170 f4 fa 0c 00 30 ee 07 00 54 71 0a 00 b2 44 0f 00
       1.192051e-39 7.28294e-40 9.5901e-40 1.402176e-39
000180 d3 58 0e 00 93 5d 07 80 7f df 07 00 db f9 07 00
       1.317561e-39 -6.76417e-40 7.23024e-40 7.3248e-40
000190 51 60 13 00 60 09 08 00 8c 0a 08 00 41 aa 14 00
       1.779426e-39 7.38047e-40 7.38467e-40 1.897786e-39
0001a0 25 f6 07 00 5b 26 05 00 7e a2 01 00 31 e2 06 00
       7.31148e-40 4.72937e-40 1.50127e-40 6.32155e-40
0001b0 1c 97 0f 00 e8 4d 0b 80 83 bc 0c 80 cd 4c 0b 80
       1.43174e-39 -1.038138e-39 -1.169651e-39 -1.037741e-39
0001c0 9f b0 0f 80 98 cd 14 80 ef 50 00 00 7a 94 0f 80
       -1.440892e-39 -1.910463e-39 2.9034e-41 -1.430796e-39
0001d0 dd 8c 00 00 4f 26 05 00 17 ef 09 80 5c b3 11 00
       5.0532e-41 4.7292e-40 -9.12289e-40 1.625545e-39
0001e0 34 64 0c 00 12 81 09 80 fc f1 05 00 21 45 08 80
       1.137972e-39 -8.72821e-40 5.45985e-40 -7.59483e-40
0001f0 c8 65 04 80 44 4a 04 00 c0 a0 14 3a 67 b3 dc 3a
       -4.03854e-40 3.93983e-40 0.00056697056 0.0016838134
000200 00 c7 4a 3b 09 82 e0 3a 26 f8 12 3b 75 41 28 3b
       0.0030941367 0.0017128597 0.002242574 0.002567378
000210 23 f6 82 3b 24 57 ab 3a a8 12 3d bb ef c4 0f 80
       0.003996627 0.0013072235 -0.0028850231 -1.448179e-39
000220 34 78 02 80 45 f3 02 80 9e f2 11 00 82 76 09 00
       -2.26792e-40 -2.7094e-40 1.648238e-39 8.69032e-40
000230 f7 85 0d 00 f0 ec 13 00 ef 79 0f 80 65 52 06 80
       1.241919e-39 1.829872e-39 -1.421274e-39 -5.8057e-40
000240 d8 77 28 81 ee ca e0 01 87 ed cb 83 1e 2e 86 82
       -3.094271e-38 8.2575794e-38 -1.1985801e-36 -1.9716e-37
000250 ae 98 2b 02 ed 7e 58 80 bd 5f b4 00 cd 3b 91 81
       1.2606913e-37 -8.127056e-39 1.6564734e-38 -5.33504e-38
000260 85 74 0c 00 f4 82 3c 92 9c f8 16 10 51 73 94 11
       1.143825e-39 -5.948375e-28 2.9773806e-29 2.3421352e-28
000270 c3 56 17 92 ff e7 0a 9d 9d 41 bf 9c 68 4c af 91
       -4.775414e-28 -1.8384087e-21 -1.265628e-21 -2.765722e-28
000280 d1 ce 1c 9e 99 a1 4a 9e 32 da 0b 80 84 90 11 00
       -8.30134e-21 -1.07272086e-20 -1.088464e-39 1.613046e-39
000290 96 d8 14 00 db cd 00 00 72 5b 15 00 12 ca 03 80
       1.914406e-39 7.3847e-41 1.96135e-39 -3.47996e-40
0002a0 64 fe 03 80 e5 1a 00 00 3d a2 10 00 02 48 10 00
       -3.66765e-40 9.648e-42 1.527568e-39 1.4952e-39
0002b0 b5 3e 02 80 20 a4 02 00 99 78 00 00 f1 34 02 80
       -2.06166e-40 2.42548e-40 4.3262e-41 -2.02663e-40
0002c0 ef 6c 08 80 64 fc 0f 80 bc 3b 03 80 72 c1 08 80
       -7.73762e-40 -1.468073e-39 -2.96935e-40 -8.04079e-40
0002d0 e3 f0 02 07 05 e7 83 06 9b 86 67 07 8e a5 59 06
       9.850903e-35 4.9616176e-35 1.7418065e-34 4.0934794e-35
0002e0 ad 69 08 80 bd cb 31 07 49 5d 72 07 2a 1a 4b 07
       -7.72593e-40 1.3375873e-34 1.823347e-34 1.5279712e-34
0002f0 c8 73 b8 07 8e f0 0c 00 d8 b8 0c 00 56 2a 06 00
       2.7753293e-34 1.188321e-39 1.168335e-39 5.662e-40
000300 11 d4 03 80 f3 1a 0f 00 b7 66 11 00 61 6b 0f 80
       -3.51582e-40 1.3872e-39 1.59805e-39 -1.416053e-39
000310 98 b1 09 00 f5 4d 03 80 c2 14 05 00 92 cf 14 80
       8.90228e-40 -3.03472e-40 4.66624e-40 -1.911172e-39
000320 63 12 06 00 7e 4d 0a 80 c4 97 10 80 5a 05 15 00
       5.57609e-40 -9.46154e-40 -1.523811e-39 1.930465e-39
000330 62 77 05 80 97 55 13 00 7a 80 0b 00 75 8a 11 80
       -5.02004e-40 1.775578e-39 1.056279e-39 -1.610872e-39
000340 3b ac 09 80 34 8e 0a 00 9b b8 0c 80 a5 00 0a 80
       -8.88304e-40 9.69368e-40 -1.16825e-39 -9.18586e-40
000350 10 04 09 00 a2 cb 08 80 f3 45 0c 80 f5 34 08 00
       8.27977e-40 -8.07734e-40 -1.127119e-39 7.53681e-40
000360 00 ba b8 09 ef db 98 8a 53 74 0e 8a 69 2a 79 89
       4.4471302e-33 -1.4719797e-32 -6.8589295e-33 -2.9992226e-33
000370 49 2f d7 8a 96 13 7d 8a 8c 37 fb 08 13 66 f4 87
       -2.0721534e-32 -1.21851906e-32 1.5119572e-33 -3.6773033e-34
000380 26 2c 51 0c 78 0f 0a 80 d0 eb 0e 00 55 e5 15 80
       1.611406e-31 -9.23904e-40 1.37029e-39 -2.010814e-39
000390 d5 ad 10 00 16 6e 02 00 e6 cf 10 00 32 f4 06 80
       1.531727e-39 2.23162e-40 1.543948e-39 -6.38614e-40
0003a0 55 77 15 00 e2 71 08 80 a3 23 04 00 24 3e 08 80
       1.971354e-39 -7.75537e-40 3.80126e-40 -7.56976e-40
0003b0 7d cc 00 00 90 56 09 80 c6 06 02 80 13 b9 07 00
       7.3357e-41 -8.57572e-40 -1.86101e-40 7.0924e-40
0003c0 20 79 08 00 6e 2c 02 00 36 f6 04 00 f3 87 11 00
       7.78135e-40 1.9961e-40 4.55666e-40 1.609973e-39
0003d0 e1 d0 13 00 d7 e7 0f 00 01 00 12 00 46 28 00 80
       1.819806e-39 1.460701e-39 1.65304e-39 -1.4447e-41
0003e0 53 ad 14 00 1b 1b 14 00 a8 2c 10 00 ff b5 0f 00
       1.898887e-39 1.846434e-39 1.485388e-39 1.44282e-39
0003f0 a8 24 b6 05 50 26 b4 86 06 4c 1f 06 cf 48 a3 06
       1.7128663e-35 -6.776477e-35 2.996043e-35 6.142077e-35

layers.1.bn2.weight f4 [64]
000000 f9 e9 81 3c c1 bf e1 b7 b0 7a 72 3e 26 82 0c bc
       0.015858637 -2.6911383e-05 0.23679614 -0.008575952
000010 25 53 88 3e bc d1 65 3c d4 0d 3f 39 8c b5 57 3e
       0.26625934 0.014027055 0.00018220331 0.21065348
000020 ba 5d 43 3e 60 1e 8a 2c f5 c3 0a 80 31 7c 26 3e
       0.19078723 3.925568e-12 -9.88651e-40 0.16258313
000030 a9 b3 0d 00 c9 e0 85 3b ef 2a 19 3e 09 5d 06 00
       1.258311e-39 0.0040856344 0.14957784 5.84388e-40
000040 b7 b7 00 80 2d fe 06 80 45 5d 7a 3e ab 02 08 00
       -6.5904e-41 -6.42194e-40 0.24449642 7.35641e-40
000050 85 37 09 00 9a 95 01 00 2b b7 03 00 7d 81 11 3e
       8.46436e-40 1.45502e-40 3.41215e-40 0.14209552
000060 2c 50 9c bb 31 48 07 80 bc d7 15 1e 1f 1e 14 00
       -0.0047702994 -6.68746e-40 7.932607e-21 1.847515e-39
000070 87 71 8d 3d 5d 80 ad 35 e5 7b 31 9e 0f 43 14 80
       0.06906419 1.2926863e-06 -9.395923e-21 -1.860766e-39
000080 e1 81 e0 3d a4 93 00 80 08 e5 7d 3e bf b1 8b 3c
       0.109622724 -5.2963e-41 0.247944 0.01705253
000090 e3 9a 2d 36 89 ac b7 8e 1c 4c d6 93 80 a4 ce 3d
       2.5869165e-06 -4.527913e-30 -5.4096244e-27 0.1008997
0000a0 27 13 20 3e 6d cc 5f 3e 34 ce 97 3b 0a 0e fe bb
       0.15632306 0.21855326 0.0046327356 -0.0077531384
0000b0 c4 2c c1 3d 6a 73 01 3e 10 78 c3 b6 88 b3 1a 07
       0.094323665 0.12641683 -5.82543e-06 1.1638432e-34
0000c0 6b 48 7c 3b 1d 2e bb 3d ad 71 02 00 a8 b0 6f aa
       0.0038495313 0.09139655 2.2445e-40 -2.1288754e-13
0000d0 47 fd 0e 00 a8 49 3a 3e 0b 9f 06 00 96 2c 09 00
       1.376556e-39 0.1819216 6.08067e-40 8.42514e-40
0000e0 c8 04 03 3b 96 ac 54 0e 15 2f 39 3e f5 ec 14 00
       0.0019991864 2.6214115e-30 0.18084367 1.921714e-39
0000f0 c1 83 10 80 29 65 7b 3e 27 dc bd 3d 24 e7 a5 b9
       -1.516632e-39 0.24550308 0.09270506 -0.00031643466

layers.1.bn2.bias f4 [64]
000000 8d e1 ec bc 9c d9 0b bb 30 4c be 3d 65 60 e5 bc
       -0.028916145 -0.0021339422 0.09291875 -0.028000066
000010 40 46 0f bc f1 fb bf bc 7b bd 17 be 5c 22 f4 3d
       -0.008744776 -0.023435565 -0.14818375 0.11920616
000020 63 d4 ad bd 14 23 4b a5 c2 2e da 8c 78 d0 bc bc
       -0.08487775 -1.7619328e-16 -3.361636e-31 -0.023048624
000030 14 2f 5d 98 67 ee 71 bc f4 2f 49 3e ed 88 1f b2
       -2.8587349e-24 -0.014766312 0.19647199 -9.286151e-09
000040 3f eb cc 99 46 e7 09 ba ef c4 50 bd ba 41 c7 02
       -2.118812e-23 -0.00052605977 -0.05096906 2.9278147e-37
000050 b2 4d a3 b6 e3 a8 c5 15 27 b3 91 8f ef 5b ed 3b
       -4.8668235e-06 7.983412e-26 -1.4367111e-29 0.0072436254
000060 69 2e 8f bb 36 ad f1 b3 82 51 0e 99 b6 24 86 14
       -0.004369546 -1.1253944e-07 -7.357688e-24 1.3545022e-26
000070 c7 2f 36 bd 03 40 5d b3 a8 29 8b b5 1f 17 1b 1b
       -0.044479158 -5.151379e-08 -1.0368431e-06 1.282877e-22
000080 04 7a e9 3d 77 e9 a1 37 22 4f 2d 3d 12 8e 03 bd
       0.11400226 1.9301411e-05 0.042311795 -0.03211791
000090 0e cf de b2 d7 ad 23 ba ea 58 a6 2b 46 5a b5 bd
       -2.5938359e-08 -0.00062438607 1.1819688e-12 -0.08855109
0000a0 4a fb 79 bc d5 23 ab 3d d3 31 ba bd 95 84 57 bc
       -0.015257666 0.08356444 -0.090915345 -0.013154169
0000b0 b7 d9 9d bd 61 be 09 3e 7f 59 cb b3 5b a5 12 ad
       -0.077075414 0.1345153 -9.4692034e-08 -8.3358554e-12
0000c0 10 23 8c ba 40 8e 1f bb c2 5b dc a9 19 cc 2f a6
       -0.0010691602 -0.0024346262 -9.78588e-14 -6.0991926e-16
0000d0 1e ec 7d 2a 63 dd ba 3d d5 57 7f 9a ae d1 84 95
       2.2552834e-13 0.091242574 -5.2803714e-23 -5.364519e-26
0000e0 f3 a7 c4 bc e3 7b e1 03 79 d4 ec 3d 67 67 43 2b
       -0.024005866 1.3252754e-36 0.115639634 6.9421416e-13
0000f0 2d e3 eb a3 7a f0 ba 3b 69 99 50 3d 9b f2 d9 b9
       -2.5574964e-17 0.0057049366 0.050927553 -0.0004157022

layers.1.bn2.running_mean f4 [64]
000000 e3 d5 8c 3b 1a 0a 07 95 d3 94 88 3d fa d4 94 bc
       0.004297958 -2.7271002e-26 0.06669011 -0.018167961
000010 e9 32 27 3e fb 9f 55 3c 02 63 df 3c d8 ed 37 3e
       0.16328014 0.013038631 0.02726889 0.17961824
000020 c6 de 36 3e a5 bb 02 80 a4 6e 04 80 31 00 63 bc
       0.17858419 -2.50985e-40 -4.07032e-40 -0.013855026
000030 6a aa 0c 00 35 41 35 3a 01 48 5d 3e 3a b0 00 80
       1.163159e-39 0.00069143187 0.21609499 -6.3218e-41
000040 55 41 00 00 c6 33 05 80 8f 7e 37 3e 99 7b 00 00
       2.3437e-41 -4.7775e-40 0.17919372 4.4338e-41
000050 9b 5e 01 80 60 f7 01 00 2f 35 06 80 08 a8 31 3e
       -1.25774e-40 1.80577e-40 -5.70092e-40 0.17349255
000060 2a 7f c2 b8 7a 75 03 80 ca 97 04 00 d2 83 03 00
       -9.274327e-05 -3.17649e-40 4.21794e-40 3.22795e-40
000070 5c 3f ac 3d ef 4e 7d 8a be cb 61 19 45 9f 01 00
       0.08410522 -1.2196353e-32 1.1673373e-23 1.4897e-40
000080 76 37 f8 3d 33 53 01 80 fc c9 42 3c 17 e5 3d 3b
       0.12119953 -1.21682e-40 0.011888977 0.002897566
000090 f3 48 33 17 4c ed a7 8e 18 c6 21 84 a8 f2 6c 3d
       5.7930094e-25 -4.1397187e-30 -1.901642e-36 0.057848603
0000a0 91 15 c7 3d 9b 5d d6 3d a5 34 62 3b 52 00 0c 39
       0.0972091 0.104670726 0.0034516242 0.0001335156
0000b0 4e 0f 57 3d 32 5f 22 3e bb c6 03 00 81 3e 01 00
       0.05250483 0.15856627 3.46798e-40 1.14258e-40
0000c0 74 4e af 26 0b 6a ae 3d 07 ff 02 00 80 05 f0 13
       1.2164329e-15 0.0851632 2.75158e-40 6.058994e-27
0000d0 e0 95 04 80 4a ab d6 3d d6 77 02 80 93 b2 02 80
       -4.21107e-40 0.104818895 -2.2666e-40 -2.47731e-40
0000e0 c4 78 49 3c 47 04 01 00 7a 11 e5 3d 5b 19 02 00
       0.012296859 9.337e-41 0.11184974 1.92767e-40
0000f0 90 93 00 80 46 f2 0e 3e 39 32 05 3e 86 92 a3 23
       -5.2935e-41 0.13959607 0.1300744 1.773455e-17

layers.1.bn2.running_var f4 [64]
000000 78 7d ee 36 04 00 00 00 01 99 01 3c 39 2a fb 38
       7.107559e-06 6e-45 0.007910014 0.00011976477
000010 25 d3 1c 3c bb 51 b0 38 e8 42 c8 39 17 48 93 3c
       0.009571825 8.4075575e-05 0.00038196822 0.017978711
000020 ec ba 28 3c 04 00 00 00 04 00 00 00 5c 48 85 3b
       0.010298472 6e-45 6e-45 0.004067464
000030 04 00 00 00 43 a6 a4 34 b8 64 89 3c 04 00 00 00
       6e-45 3.0668352e-07 0.01677166 6e-45
000040 04 00 00 00 04 00 00 00 0b 75 5a 3c 04 00 00 00
       6e-45 6e-45 0.013333569 6e-45
000050 04 00 00 00 04 00 00 00 04 00 00 00 87 67 41 3c
       6e-45 6e-45 6e-45 0.011804468
000060 86 00 82 31 04 00 00 00 04 00 00 00 04 00 00 00
       3.7835575e-09 6e-45 6e-45 6e-45
000070 83 8d af 3b 04 00 00 00 04 00 00 00 04 00 00 00
       0.0053574457 6e-45 6e-45 6e-45
000080 fb 73 d1 3b 04 00 00 00 cf 04 23 3c 45 ef 62 36
       0.006392 6e-45 0.009949877 3.3815897e-06
000090 04 00 00 00 04 00 00 00 04 00 00 00 9b a3 a6 3b
       6e-45 6e-45 6e-45 0.0050854213
0000a0 07 88 ed 3b bd 5a 1d 3c 54 f0 d3 37 ac bf db 31
       0.0072488817 0.009604153 2.5265072e-05 6.3955294e-09
0000b0 df 44 c2 3b 2f b0 2c 3c 04 00 00 00 04 00 00 00
       0.00592862 0.010540052 6e-45 6e-45
0000c0 17 da e1 0d 4b 39 d8 3b 04 00 00 00 04 00 00 00
       1.3919199e-30 0.0065986267 6e-45 6e-45
0000d0 04 00 00 00 14 0d 2c 3c 04 00 00 00 04 00 00 00
       6e-45 0.010501165 6e-45 6e-45
0000e0 01 8e 6e 38 04 00 00 00 7b 75 17 3c 04 00 00 00
       5.6875873e-05 6e-45 0.009244318 6e-45
0000f0 04 00 00 00 40 76 65 3c 08 77 d0 3b 7d 4a 9c 07
       6e-45 0.014005244 0.006361846 2.3516051e-34
