results/1692182831/models/last_model.pt (torch, 881893 bytes, 103 tensors)

layers.0.0.weight f4 [64, 5, 7, 7]
0.034453362 0.024424054 0.06292507 -0.023145542 -0.02460027 -0.052804414 -0.0077506537 -0.0044370824
0.011774342 0.007871863 -0.012979517 0.010745541 0.00506572 0.007965784 0.018174516 -0.028719736
-0.013048331 0.058365 0.010775321 0.037730057 0.041709613 0.009666301 -0.029405003 0.042067125
0.03211248 -0.0038489033 0.022945529 -0.0058754245 0.00829513 -0.016135624 -0.009972504 0.020493176
-0.004553727 0.014637454 -0.017134247 0.041239392 -0.028927205 -0.026604785 -0.04583118 -0.00031632793
0.021934995 0.013196009 0.021149859 -0.058498107 -0.008465686 -0.033341903 -0.01399518 -0.012112327
0.009874497 0.008221615 -0.01518562 -0.007799654 -0.020937921 0.0011046809 -0.017924475 0.009066153
-0.008488156 0.0012096734 -0.013555137 -0.0023207727 -0.031987153 -0.0024902157 -0.001494482 -0.0074472134
-0.022420129 -0.00094832556 -0.023952676 -0.013448374 0.0178571 0.04164532 -0.02634089 0.011989051
-0.030604867 0.023160378 0.0071844645 0.005213101 0.03573011 -0.036709163 -0.03592317 0.044261295
0.020972451 0.040796347 0.03766853 0.052047215 0.028850332 -0.040221073 -0.02349464 -0.0073022246
0.009214277 -0.05683987 -0.044216953 -0.0040908633 -0.061734498 0.01680601 -0.033342943 0.0017838301
-0.033930074 -0.009102763 0.014657538 0.0028654907 0.014113525 0.006283917 -0.017314604 0.0715046
-0.0025008703 0.03596182 -0.015957434 0.042047694 0.03788607 0.00059768494 -0.016259328 0.005527418
0.008007006 0.03263998 -0.00056348566 0.05547004 -0.053867746 0.0054267026 0.038664874 -0.014848413
0.00045560824 -0.011815912 -0.0154987695 -0.0032947694 -0.064079165 0.0051112026 0.005641934 -0.007390144
0.016326357 0.038341254 -0.04199072 0.012392921 -0.03795268 -0.011023171 -0.017612586 -0.03845916
-0.036876272 -0.023479247 -0.006668838 0.01963472 0.03369152 0.00040370118 0.0027110463 0.0044681593
-0.045847822 -0.007399085 -0.0007826657 -0.04860762 0.02098998 0.027706698 -0.0030804712 0.017044576
0.016671661 0.03040115 -0.05354184 0.0044377334 -0.015257099 -0.028598312 -0.023600135 0.041034173
0.019462436 -0.004265056 0.0116209835 0.024878364 -0.011135262 0.049599566 0.01755951 -0.02873275
0.0007398753 -0.013873995 0.026530426 -0.015381277 -0.029575357 -0.032061204 -0.051578537 -0.04472691
-0.041302063 -0.018365778 -0.009984025 0.005794899 0.029819245 0.024362111 0.043248296 0.022107607
-0.030523427 -0.0048708823 -0.00029527768 0.022433868 -0.0062268735 0.008228364 0.04461527 -0.050044432
-0.025736565 -0.015976146 -0.016673483 0.08046439 -2.4666227e-07 -8.171256e-07 3.430987e-07 5.0950865e-07
-3.7564266e-08 -1.10530415e-07 1.226976e-07 4.0114023e-09 -2.104775e-08 7.876405e-07 -3.8188595e-08 -7.214873e-11
-5.5910887e-10 7.9471306e-08 -4.9388895e-08 7.454461e-08 -2.1430789e-07 1.5093119e-07 1.9285606e-07 1.2291996e-07
-2.3874298e-07 -9.900445e-08 -5.0680666e-07 -1.391928e-07 -4.47495e-08 3.863261e-08 -3.1769996e-08 -1.0086057e-08
-3.8544895e-10 -2.2449741e-07 3.114981e-08 -7.156677e-08 3.474552e-08 -4.114466e-10 -1.468835e-07 8.0015596e-08
5.4357084e-08 4.361187e-09 1.530148e-07 -1.7639976e-09 3.421117e-07 -1.7161884e-07 2.462956e-07 -1.28704585e-08
-1.6378198e-07 -1.7678908e-09 2.1422494e-08 -5.360219e-08 2.2870496e-07 -0.011424423 0.004640449 0.0039081173
-0.02655713 0.025545172 0.010476778 0.025243375 0.009354281 0.005188516 0.020952558 -0.013501244
00000000: f81e 0d3d f414 c83c dcde 803d b89b bdbc
00000010: 8186 c9bc 7149 58bd 32f9 fdbb f264 91bb
00000020: 2be9 403c fdf8 003c 0aa8 54bc 110e 303c
00000030: 57fe a53b eb82 023c b9e2 943c a745 ebbc
00000040: abc8 55bc 2310 6f3d f98a 303c d58a 1a3d
00000050: b3d7 2a3d 685f 1e3c c3e2 f0bc 944e 2c3d
00000060: 6088 033d e23d 7cbb 43f8 bb3c a286 c0bb
00000070: 4ce8 073c db2e 84bc b763 23bc 4ee1 a73c
00000080: 6e37 95bb efd1 6f3c 1f5d 8cbc a3ea 283d
00000090: bff8 ecbc 47f2 d9bc 7ab9 3bbd d1d8 a5b9
000000a0: 05b1 b33c 1334 583c 7842 ad3c b69b 6fbd
000000b0: a9b3 0abc 8591 08bd 0a4c 65bc c872 46bc
000000c0: a4c8 213c f4b3 063c 1bcd 78bc 3d94 ffbb
000000d0: 0186 abbc f1ca 903a 59d6 92bc 348a 143c
000000e0: e811 0bbc e78d 9e3a 5e16 5ebc 1b18 18bb
000000f0: f604 03bd e332 23bb 7fe2 c3ba c107 f4bb
00000100: 6baa b7bc 0d99 78ba 6738 c4bc 9256 5cbc
00000110: 0e49 923c 4894 2a3d dac8 d7bc b96d 443c
00000120: 0fb7 fabc d5ba bd3c a86b eb3b a9d2 aa3b
00000130: bc59 123d 595c 16bd 2d24 13bd 554b 353d
00000140: 6bce ab3c 121a 273d 514a 1a3d 762f 553d
00000150: 8857 ec3c dabe 24bd d577 c0bc 8047 efbb
00000160: 7bf7 163c ecd0 68bd d61c 35bd a60c 86bb
00000170: 50dd 7cbd c2ac 893c 9c92 08bd 68cf e93a
00000180: 43fa 0abd c123 15bc 2c26 703c f5ca 3b3b
00000190: 6a3c 673c 51e9 cd3b 5bd7 8dbc 0171 923d
000001a0: a4e5 23bb b44c 133d 2ab9 82bc 343a 2c3d
000001b0: 6c2e 1b3d f5ad 1c3a 4832 85bc 581f b53b
000001c0: d12f 033c 80b1 053d e2b6 13ba 8d34 633d
000001d0: 6da4 5cbd 7bd2 b13b 0f5f 1e3d c246 73bc
000001e0: b4de ee39 8797 41bc 8dee 7dbc 0fed 57bb
000001f0: f03b 83bd e07b a73b f9df b83b 0529 f2bb
00000200: dabe 853c b80b 1d3d 76fe 2bbd ae0b 4b3c
00000210: 4574 1bbd 889a 34bc 4548 90bc 5a87 1dbd
00000220: 930b 17bd 8d57 c0bc 4586 dabb fed8 a03c
00000230: 1f00 0a3d dba7 d339 cfab 313b a369 923b
00000240: edca 3bbd 0674 f2bb ce2b 4dba c918 47bd
00000250: 2ef3 ab3c 28f9 e23c bbe1 49bb 11a1 8b3c
00000260: 0293 883c d50b f93c b04e 5bbd 686a 913b
00000270: e9f8 79bc 0247 eabc 1255 c1bc 7313 283d
00000280: b06f 9f3c e2c1 8bbb f065 3e3c b6cd cb3c
00000290: ad70 36bc ea28 4b3d f6d8 8f3c f260 ebbc
000002a0: 31f4 413a c14f 63bc 5656 d93c c001 7cbc
000002b0: 0548 f2bc 9c52 03bd 0444 53bd 9033 37bd
000002c0: 5a2c 29bd d473 96bc 0994 23bc 23e3 bd3b
000002d0: 7d47 f43c 0d93 c73c 2025 313d 031b b53c
000002e0: 440c fabc ec9b 9fbb 80cf 9ab9 3bc7 b73c
000002f0: cd0a ccbb 43d0 063c 80be 363d 64fb 4cbd
00000300: 7dd5 d2bc 68e0 82bc d496 88bc 84ca a43d
00000310: 016d 84b4 7258 5bb5 2033 b834 2bc5 0835
00000320: 5956 21b3 bd5c edb3 dcbe 0334 abd4 8931
00000330: 7ecc b4b2 3e6e 5335 ce04 24b3 20a8 9eae
00000340: caaf 19b0 d0a9 aa33 aa1f 54b3 5515 a033
00000350: 811c 66b4 a60f 2234 df13 4f34 fbfb 0334
00000360: 962c 80b4 469c d4b3 7d0b 08b5 0775 15b4
00000370: 9832 40b3 01ed 2533 7b73 08b3 f346 2db2
00000380: 1ee7 d3af 610d 71b4 94c9 0533 3fb0 99b3
00000390: 1a3b 1533 f631 e2af 07b7 1db4 0ad5 ab33
000003a0: 3f76 6933 68d9 9531 634c 2434 2671 f2b0
000003b0: 79ab b734 3a46 38b4 9c3a 8434 e01c 5db2
000003c0: 0cdc 2fb4 21fa f2b0 9004 b832 3b38 66b3
000003d0: f191 7534 812d 3bbc e80e 983b aa0f 803b
000003e0: 578e d9bc 1c44 d13c cba6 2b3c 32cb ce3c
000003f0: b342 193c 6d04 aa3b b3a4 ab3c 5234 5dbc

layers.0.1.weight f4 [64]
0.9860964 0.98018605 0.98934424 0.99986684 0.9915586 0.9830611 0.9920016 0.9919255
0.99050534 0.9905729 1.0010465 0.9898738 0.9913012 1.0052613 0.9937284 0.9791783
0.99838346 0.9766538 0.9993135 0.98589754 0.99401027 0.9922457 0.99412966 0.9973049
0.99299127 0.99081206 0.9966618 0.9968145 0.9852158 0.9993227 0.9923658 0.9981817
0.9906661 0.9950823 0.98914135 0.9914919 1.0038482 0.99388134 0.9826001 0.98198867
0.99686176 0.99974364 0.989963 0.99830693 0.99460334 0.99173874 0.988484 1.0006646
0.99804515 0.9820477 0.9968662 0.99017006 0.98035336 0.9959376 1.007337 0.9963355
0.9838931 0.98900187 0.98683995 0.9828377 0.98080087 0.9983492 0.9859717 0.994093
00000000: d070 7c3f 79ed 7a3f aa45 7d3f 46f7 7f3f
00000010: c9d6 7d3f e4a9 7b3f d1f3 7d3f d4ee 7d3f
00000020: c291 7d3f 3096 7d3f 4b22 803f 5f68 7d3f
00000030: eac5 7d3f 67ac 803f fc64 7e3f 6eab 7a3f
00000040: 0f96 7f3f fc05 7a3f 02d3 7f3f c863 7c3f
00000050: 7577 7e3f d003 7e3f 487f 7e3f 604f 7f3f
00000060: ad34 7e3f dca5 7d3f 3a25 7f3f 3c2f 7f3f
00000070: 1a37 7c3f 9dd3 7f3f af0b 7e3f d688 7f3f
00000080: 4b9c 7d3f b7bd 7e3f 5e38 7d3f 6ad2 7d3f
00000090: 197e 803f 026f 7e3f ae8b 7b3f 9c63 7b3f
000000a0: 5532 7f3f 33ef 7f3f 376e 7d3f 0b91 7f3f
000000b0: 539e 7e3f 97e2 7d3f 4a0d 7d3f c715 803f
000000c0: e37f 7f3f 7a67 7b3f a032 7f3f c97b 7d3f
000000d0: 70f8 7a3f c4f5 7e3f 6bf0 803f d80f 7f3f
000000e0: 6be0 7b3f 3a2f 7d3f 8ba1 7c3f 409b 7b3f
000000f0: c415 7b3f d093 7f3f a468 7c3f e17c 7e3f

layers.0.1.bias f4 [64]
-0.008384262 -0.017337577 -0.0014241303 0.004528624 -0.003776614 -0.021876566 0.020465106 -0.0015403221
0.00032096863 0.0017834383 0.0065992363 0.0005160576 -0.016740065 0.01768026 0.0044200076 -0.009506467
0.003986001 -0.017407537 0.0070200735 -0.006721289 -0.0019754004 -0.016832981 -0.0035701871 -0.0021729602
-0.0071863695 -0.011859991 0.0013271336 0.00034455923 0.007139077 0.007748514 -0.00018092986 0.002111498
0.0023592834 0.0026110136 -0.003786585 -0.011062015 0.01268556 -0.009830897 0.01680992 -0.018730886
-0.023675447 0.0026821727 -0.010425356 -0.006406407 -0.0074769263 -0.008949285 -0.00907147 0.0063204723
0.015407236 -0.007411873 0.012437433 -0.007459457 -0.0017792196 -0.0018293837 0.002039091 0.0061550415
0.011421476 -0.0013681113 0.0034691193 -0.0011224697 -0.009139248 -0.00071468024 -0.010419244 -0.011064933
00000000: 255e 09bc 8907 8ebc e2a9 baba da64 943b
00000010: 1281 77bb 7c36 b3bc 70a6 a73c a2e4 c9ba
00000020: ae47 a839 42c2 e93a 683e d83b 0a48 073a
00000030: 7622 89bc 31d6 903c b6d5 903b 03c1 1bbc
00000040: 009d 823b 409a 8ebc a508 e63b 423e dcbb
00000050: b875 01bb 52e5 89bc cdf9 69bb 3968 0ebb
00000060: a37b ebbb 6850 42bc 37f3 ad3a f5a5 b439
00000070: ebee e93b 3fe7 fd3b fdb7 3db9 0f61 0a3b
00000080: 359e 1a3b 8a1d 2b3b 5b28 78bb 743d 35bc
00000090: 18d7 4f3c c511 21bc f5b4 893c 8471 99bc
000000a0: 03f3 c1bc 64c7 2f3b 1dcf 2abc d6ec d1bb
000000b0: 0101 f5bb 06a0 12bc 81a0 14bc f71b cf3b
000000c0: a26e 7c3c 4cdf f2bb 60c6 4b3c 766e f4bb
000000d0: b434 e9ba eec7 efba 45a2 053b 3bb0 c93b
000000e0: 2421 3b3c 3352 b3ba 2a5a 633b d51f 93ba
000000f0: c9bc 15bc 6159 3bba 7ab5 2abc b149 35bc

layers.0.1.running_mean f4 [64]
-0.0001411201 -0.0011859639 0.007810577 0.0073171207 0.008118221 -0.00489361 -0.014854505 -0.006964107
-0.004274194 -0.011965321 0.009684703 0.0073545454 -0.0076232445 0.007011283 0.004328139 -0.003723152
0.0020508685 0.0036538485 0.010319502 -0.0054868828 -0.0031833288 -0.007356451 -0.0037534933 -0.002135963
-4.2406613e-05 -0.0006447193 0.00075173005 -0.009211689 -0.0040858095 0.0112062935 0.004448167 0.007920582
-0.015345851 -0.0026321781 -0.013125886 -0.005205382 -0.0022451994 -0.010596742 -0.010004674 -0.01455681
-0.0010006336 -0.002587004 -0.010700679 -0.0017476026 0.0136618465 -0.0066855443 0.008010003 0.0030825948
-0.006262322 -0.00038046803 -0.0022417612 -0.01162201 -0.015670814 -0.002281833 0.00038252844 0.009726815
-0.009330799 0.005853552 -0.006748487 -0.007050284 0.0014594444 0.0021007962 -0.0024999382 0.0012764883
00000000: a3f9 13b9 5872 9bba deef ff3b 75c4 ef3b
00000010: 4902 053c 935a a0bb 4f60 73bc 2a33 e4bb
00000020: 8a0e 8cbb 320a 44bc 97ac 1e3c 66fe f03b
00000030: 69cc f9bb e8be e53b 10d3 8d3b 2000 74bb
00000040: dd67 063b 6875 6f3b 2113 293c 4fcb b3bb
00000050: 659f 50bb 620e f1bb 2bfd 75bb 83fb 0bbb
00000060: c1dd 31b8 6102 29ba c00f 453a a0ec 16bc
00000070: 41e2 85bb 9a9a 373c eec1 913b 54c5 013c
00000080: 2a6d 7bbc 9f80 2cbb f50d 57bc e991 aabb
00000090: 3224 13bb f59d 2dbc a5ea 23bc b07f 6ebc
000000a0: b127 83ba ba8a 29bb e751 2fbc d00f e5ba
000000b0: f0d5 5f3c 6912 dbbb 633c 033c 5c05 4a3b
000000c0: 2a34 cdbb 8e79 c7b9 83ea 12bb 3e6a 3ebc
000000d0: 1460 80bc ce8a 15bb 198e c839 385d 1f3c
000000e0: 35e0 18bc 27cf bf3b 6922 ddbb 1206 e7bb
000000f0: d44a bf3a 83ad 093b 01d6 23bb d74f a73a

layers.0.1.running_var f4 [64]
0.0017808431 0.0014712539 0.0026823236 0.0016459884 0.0018491574 0.0012695643 0.0028089802 0.0018322448
0.0014178349 0.0017655251 0.001342356 0.0014560758 0.0016696719 0.0015494619 0.0016133564 0.0015670214
0.0017340328 0.001565862 0.0022376673 0.0019990646 0.0013701371 0.0012025132 0.001586528 0.0013852583
0.0013982201 0.0012052887 0.0010041612 0.002638532 0.0017950844 0.002073451 0.0013963772 0.0019621006
0.0038332394 0.0011997655 0.002431448 0.0013136578 0.00073529687 0.002612872 0.0013811274 0.0032864374
0.0009396728 0.0013429739 0.002174829 0.0010943664 0.0022103447 0.001790106 0.0017843569 0.001116353
0.0014839437 0.0017387766 0.0014092436 0.0032231882 0.0032698521 0.0015397115 0.0017942142 0.0018117966
0.0014381822 0.0020225127 0.0016687466 0.0012629224 0.0015187513 0.0021382018 0.0015613869 0.0015010233
00000000: 2e6b e93a 17d7 c03a ecc9 2f3b 35be d73a
00000010: 6d5f f23a 8267 a63a de16 383b ef27 f03a
00000020: a5d6 b93a 3169 e73a fef1 af3a ccd9 be3a
00000030: e4d8 da3a 5017 cb3a 4277 d33a 8364 cd3a
00000040: 7c48 e33a 9c3d cd3a d4a5 123b bd02 033b
00000050: 2c96 b33a a69d 9d3a 0cf3 cf3a 8e91 b53a
00000060: 7b44 b73a c7fa 9d3a 0f9e 833a 39eb 2c3b
00000070: 0a49 eb3a bce2 073b a506 b73a 9696 003b
00000080: 1637 7b3b 7341 9d3a ee58 1f3b 0b2f ac3a
00000090: f0c0 403a b83c 2b3b f206 b53a 4561 573b
000000a0: 6054 763a ba06 b03a 9387 0e3b d870 8f3a
000000b0: 6edb 103b fda1 ea3a 15e1 e93a 9752 923a
000000c0: e380 c23a a9e7 e33a 5eb6 b83a 203c 533b
000000d0: 044b 563b 25d0 c93a d72b eb3a ce79 ed3a
000000e0: 6381 bc3a 228c 043b d8b9 da3a a588 a53a
000000f0: d610 c73a 1321 0c3b 73a7 cc3a fcbd c43a

layers.1.conv1.weight f4 [64, 64, 3, 3]
-0.015360709 0.049966812 -0.12702245 -0.06416028 0.058959294 -0.027611628 0.090583384 -0.08914424
-0.051472243 0.07489915 -0.008962356 -0.038612936 -0.106381 -0.06781473 0.015512383 -0.10050488
0.02079662 0.13872845 0.04209033 0.0021720051 0.09550545 0.045507874 0.034649927 0.047110222
-0.024112185 0.025279377 -0.019847078 -0.036996957 -0.0114282435 0.07092996 0.03321135 0.08541491
0.02350947 0.12314952 -0.032903064 -0.08188133 -0.035849337 -0.057516854 -0.009334839 -0.035966642
0.0112611195 -0.034351785 -0.028992992 -0.009375885 0.023309976 -0.02592973 0.046348117 0.0005938845
-0.008083966 0.020887451 -0.02461984 -0.045919858 0.07553018 -0.045077316 0.11592875 -0.010865544
0.069513686 -0.0674219 0.076110005 0.08140752 0.009939613 0.082648516 0.032458805 -0.051658005
0.0254725 -0.0873332 0.065819055 -0.07515666 -0.09725546 -0.032294184 -0.05265428 0.067590654
0.03954191 -0.07191295 -0.00075633975 -0.00466098 0.075837106 0.052090857 0.0057528904 -0.010237589
-0.07641339 -0.026998494 0.10174815 -0.0314263 -0.059652276 0.0088514555 0.011354964 -0.031287584
-0.02593517 0.05558068 -0.04258734 0.025317617 0.009154186 0.025251586 -0.06123126 -0.022958424
0.057851743 -0.044721246 -0.027598467 -0.04006581 -0.11214894 -0.019359782 -0.021066967 -0.06308229
0.0165927 -0.035283785 -0.019196853 0.021952836 -0.08490168 0.025900353 -0.004525777 -0.108916424
0.07432459 -0.04039725 -0.08931358 -0.02277148 -0.060255874 -0.03487484 0.05221175 -0.004108074
0.027334318 -0.0076210485 -0.021565516 -0.01000973 -0.016558383 -0.040592898 0.00012136927 -0.048919946
0.037397344 -0.03327842 -0.02537717 -0.034520112 0.03775226 -0.0386457 -0.0035911796 0.07077773
-0.003603048 -0.026612243 -0.020635711 -0.050089452 0.058640398 -0.028323941 0.031450696 -0.15059753
0.1000615 -0.10393043 0.06487917 0.02518058 -0.051915728 0.024320299 -0.040599335 0.050744124
-0.0394646 0.04383647 0.093075894 0.045839105 0.04644213 -0.017853372 -0.08153533 -0.043793038
0.049323585 0.03166435 -0.0831173 0.089456774 0.03962117 0.0509908 -0.021050086 -0.13139412
0.02376452 0.014908605 -0.037141066 0.053900946 -0.06172585 -0.10744802 -0.11615727 -0.09466089
0.004594612 0.07044419 0.02938854 -0.014625404 0.15312637 -0.015835023 0.011616424 0.100961946
-0.036068197 0.056875605 -0.0051969877 0.032724824 -0.08907567 -0.121901944 0.040478937 0.046713572
0.053601336 -0.023464656 0.06808594 0.06331838 0.07545545 -0.040904205 0.042160287 -0.044041403
0.035584487 -0.06517812 -0.101483606 -0.005684609 0.023578383 0.08034077 -0.049083866 0.12210004
0.08442027 -0.0072078337 -0.033499524 -0.041605722 0.050432194 -0.013399542 -0.0397103 0.059945777
0.055170886 -0.05859639 0.012185443 0.021425162 -0.029343653 -0.050968744 0.009001551 -0.029860664
-0.010368177 0.03721224 -0.075438604 0.058555685 0.03720027 -0.05989943 -0.11035177 0.001466786
0.088406205 -0.07680794 0.011514002 0.07180909 0.06598535 0.019944435 -0.06868042 -0.0035178636
-0.07448571 0.021288577 -0.0196792 -0.12690799 0.041531574 0.054426298 0.030011833 0.0026731428
0.111425556 -0.016386759 -0.06718492 -0.097339936 0.023364028 -0.068259485 -0.019441616 -0.015952807
00000000: 7cab 7bbc 00aa 4c3d 2c12 02be 7766 83bd
00000010: 4d7f 713d c831 e2bc c883 b93d 4191 b6bd
00000020: 8fd4 52bd ba64 993d d8d6 12bc 9928 1ebd
00000030: 48de d9bd 73e2 8abd a627 7e3c 81d5 cdbd
00000040: ac5d aa3c d50e 0e3e e966 2c3d 3358 0e3b
00000050: 5d98 c33d 7766 3a3d 15ed 0d3d a6f6 403d
00000060: eb86 c5bc b216 cf3c 5796 a2bc 1f8a 17bd
00000070: 873d 3bbc ba43 913d a008 083d 03ee ae3d
00000080: ef96 c03c d135 fc3d 5dc5 06bd 66b1 a7bd
00000090: c1d6 12bd cb96 6bbd 27f1 18bc c251 13bd
000000a0: 8f80 383c 75b4 0cbd b682 edbc 509d 19bc
000000b0: 90f4 be3c 966a d4bc 86d7 3d3d eaae 1b3a
000000c0: 9c72 04bc 291c ab3c 8caf c9bc 7616 3cbd
000000d0: 91af 9a3d fea2 38bd 0d6c ed3d 6505 32bc
000000e0: 315d 8e3d 7e14 8abd 90df 9b3d fcb8 a63d
000000f0: c2d9 223c a043 a93d 86f3 043d 5897 53bd
00000100: b4ab d03c c0db b2bd 24cc 863d bceb 99bd
00000110: df2d c7bd e846 04bd 04ac 57bd f86c 8a3d
00000120: b3f6 213d 1947 93bd 1a45 46ba 22bb 98bb
00000130: 7c50 9b3d 395d 553d be82 bc3b 8fbb 27bc
00000140: a07e 9cbd f22b ddbc 5661 d03d ddb8 00bd
00000150: f255 74bd b205 113c 2c0a 3a3c 6927 00bd
00000160: fe75 d4bc 91a8 633d 1070 2ebd e466 cf3c
00000170: 70fb 153c 6adc ce3c a1cd 7abd 4e13 bcbc
00000180: f3f5 6c3d a02d 37bd 2e16 e2bc 0c1c 24bd
00000190: 58ae e5bd 6898 9ebc a294 acbc 4a31 81bd
000001a0: 6aed 873c bb85 10bd b842 9dbc 6fd6 b33c
000001b0: efe0 adbd fa2c d43c f84c 94bb 930f dfbd
000001c0: 7e37 983d 9677 25bd 0aea b6bd 418b babc
000001d0: ddce 76bd ecd8 0ebd fddb 553d 069d 86bb
000001e0: 38ec df3c fdb9 f9bb 2aaa b0bc daff 23bc
000001f0: 72a5 87bc bd44 26bd a187 fe38 4860 48bd
00000200: f52d 193d f44e 08bd c8e3 cfbc f664 0dbd
00000210: 1da2 1a3d f44a 1ebd ff59 6bbb eaf3 903d
00000220: 1d21 6cbb eb01 dabc 390c a9bc 992a 4dbd
00000230: ea30 703d 9c07 e8bc 72d2 003d 3d36 1abe
00000240: 0bed cc3d 7ad9 d4bd 5fdf 843d 8147 ce3c
00000250: 96a5 54bd 5d3b c73c 7d4b 26bd 12d9 4f3d
00000260: a2a5 21bd df8d 333d 939e be3d c9c1 3b3d
00000270: 1a3a 3e3d 3c41 92bc fffb a6bd 5460 33bd
00000280: 8707 4a3d 7ab2 013d 6739 aabd 1d35 b73d
00000290: cf49 223d bbdb 503d 3b71 acbc 2e8c 06be
000002a0: d0ad c23c 3943 743c 3b21 18bd 3dc7 5c3d
000002b0: 3fd4 7cbd b50d dcbd dde3 edbd 92dd c1bd
000002c0: 668e 963b 0b45 903d 3cc0 f03c 649f 6fbc
000002d0: 29cd 1c3e 73b8 81bc d052 3e3c 23c5 ce3d
000002e0: 3fbc 13bd 65f6 683d 7e4b aabb 770a 063d
000002f0: 4e6d b6bd baa7 f9bd 3ecd 253d bb56 3f3d
00000300: 138d 5b3d f338 c0bc a470 8b3d 11ad 813d
00000310: 6388 9a3d 2b8b 27bd 44b0 2c3d c264 34bd
00000320: 0ac1 113d 1b7c 85bd a3d6 cfbd f545 babb
00000330: 7427 c13c b489 a43d 2a0c 49bd 960f fa3d
00000340: 89e4 ac3d b12f ecbb cc36 09bd c36a 2abd
00000350: fd91 4e3d c189 5bbc 44a7 22bd b489 753d
00000360: defa 613d c502 70bd 74a5 473c d283 af3c
00000370: 1a62 f0bc 9ac4 50bd 3e7b 133c 5a9e f4bc
00000380: 49df 29bc dd6b 183d 8e7f 9abd 16d8 6f3d
00000390: 4f5f 183d 1b59 75bd 1c00 e2bd 2c41 c03a
000003a0: 500e b53d 7b4d 9dbd 3aa5 3c3c a510 933d
000003b0: 5423 873d 8362 a33c 52a8 8cbd f58b 66bb
000003c0: f78b 98bd 6265 ae3c 4636 a1bc 2bf4 01be
000003d0: 031d 2a3d 1cee 5e3d 60db f53c e52f 2f3b
000003e0: 1533 e43d 863d 86bc 3f98 89bd 295a c7bd
000003f0: eb65 bf3c a1cb 8bbd 0644 9fbc 76af 82bc

layers.1.bn1.weight f4 [64]
0.96176296 0.97029376 0.9807183 0.99880046 0.9918878 0.9690644 0.9750922 0.98975056
0.9961054 0.995542 0.977748 0.9614133 0.9855747 0.95174915 0.9966092 0.9797462
0.9885872 1.0071357 0.97021884 0.9938781 0.9812915 0.99266905 0.9785455 0.98218775
0.9884309 0.99527466 0.99286896 0.9783146 0.9911217 0.95949227 0.99585676 0.96487325
0.9867543 0.9925872 0.9727771 0.9845261 0.99165756 0.9884561 0.9719343 0.9856466
0.991222 0.9942559 0.98337626 0.97536993 0.9758149 0.9849267 0.9725394 0.97966075
0.9800919 0.99631226 0.98775005 0.98373765 1.0019006 0.9830093 0.98041 0.97993803
0.97533673 1.0120754 0.97802895 0.98297876 0.9904782 0.9823699 1.0011241 0.9765632
00000000: 1936 763f 2c65 783f 5b10 7b3f 63b1 7f3f
00000010: 5cec 7d3f 9b14 783f a49f 793f 4b60 7d3f
00000020: c300 7f3f d7db 7e3f b14d 7a3f 2f1f 763f
00000030: a04e 7c3f d5a5 733f c821 7f3f a6d0 7a3f
00000040: 0d14 7d3f d3e9 803f 4360 783f cc6e 7e3f
00000050: eb35 7b3f 8f1f 7e3f f581 7a3f a870 7b3f
00000060: cf09 7d3f 52ca 7e3f a92c 7e3f d372 7a3f
00000070: 27ba 7d3f 49a1 753f 78f0 7e3f ef01 773f
00000080: ee9b 7c3f 321a 7e3f ec07 793f e709 7c3f
00000090: 45dd 7d3f 750b 7d3f b0d0 783f 5653 7c3f
000000a0: bac0 7d3f 8e87 7e3f 8cbe 7b3f d8b1 793f
000000b0: 01cf 793f 2824 7c3f 58f8 783f 0ccb 7a3f
000000c0: 4ee7 7a3f 520e 7f3f 30dd 7c3f 3bd6 7b3f
000000d0: 473e 803f 7fa6 7b3f 26fc 7a3f 38dd 7a3f
000000e0: abaf 793f b08b 813f 1b60 7a3f 7fa4 7b3f
000000f0: fb8f 7d3f 987c 7b3f d624 803f 0c00 7a3f

layers.1.bn1.bias f4 [64]
-0.0010528361 -0.012311546 -0.0038171913 -0.0093507655 0.0067702783 0.003887573 0.005778914 0.01670471
0.0076140556 0.0124234 -0.013593648 -0.0048890756 -0.0025672677 0.0029865238 0.020717146 0.004271264
-0.008508991 0.01576131 -0.010646991 0.017496794 -0.015189266 0.002734568 -0.00054604333 -0.0012934561
0.006155353 -0.003577373 0.0049288804 -0.002680868 -0.0042147064 -0.013783847 0.0045934203 -0.020074245
0.0015923247 -4.1100604e-05 0.0046694744 0.029115278 0.002114393 -0.009269261 -0.0019911237 0.0056575187
-0.0026217601 0.001940873 -0.0037829408 -0.0063973186 -0.0036683779 -0.002200544 -0.009383751 -0.0001483418
-0.011215929 0.010926564 -0.0072911833 0.0043397467 0.0128740985 -0.006588154 -0.008796164 0.008583837
-0.01629853 0.009700053 -0.013375234 -0.007140844 -0.0051661767 0.0023016336 0.006702385 -0.016005175
00000000: 51ff 89ba 5eb6 49bc d829 7abb f433 19bc
00000010: 36d9 dd3b a7c6 7e3b 0b5d bd3b 51d8 883c
00000020: 547f f93b 848b 4b3c e4b7 5ebc 8a34 a0bb
00000030: 9b3f 28bb 8eb9 433b 01b7 a93c f6f5 8b3b
00000040: 4c69 0bbc dd1d 813c b870 2ebc 7055 8f3c
00000050: 66dc 78bc 7036 333b 5924 0fba 2f89 a9ba
00000060: d8b2 c93b 5c72 6abb 7282 a13b 80b1 2fbb
00000070: 851b 8abb a5d5 61bc 6784 963b be72 a4bc
00000080: 8db5 d03a 7063 2cb8 6402 993b 2a83 ee3c
00000090: a191 0a3b 19de 17bc 837d 02bb b562 b93b
000000a0: d6d1 2bbb e464 fe3a 37eb 77bb 99a0 d1bb
000000b0: 2b69 70bb 0137 10bb 4ebe 19bc 338c 1bb9
000000c0: 04c3 37bc 5505 333c e1ea eebb 6f34 8e3b
000000d0: e2ed 523c 71e1 d7bb c91d 10bc 39a3 0c3c
000000e0: 7f84 85bc f9ec 1e3c cc23 5bbc befd e9bb
000000f0: 0849 a9bb 01d7 163b ae9f db3b 491d 83bc

layers.1.bn1.running_mean f4 [64]
-0.38271978 0.7680097 -2.9512503 0.40865535 -3.0797932 -2.63139 -2.5276172 -0.8430887
2.490686 0.94356054 0.6785491 1.1533096 0.16991204 -3.7328866 -1.6734896 -1.7908342
0.62211394 0.10284214 0.13779134 0.64129096 0.46322817 -0.1051498 -1.6930636 2.9389899
1.0898277 2.5680814 2.3435464 -1.4927521 2.7743375 -2.1061761 0.7728567 0.8273608
0.20966604 0.5358364 1.1461769 0.56637156 -2.7926562 0.9176591 3.0346875 -1.0086294
2.052374 1.1359996 1.2435628 -0.15695915 0.71994954 -1.246998 -0.77482486 -2.3437634
0.9663746 0.74169666 2.8576849 -1.5127568 2.8785572 0.16441537 -2.4384365 0.6647533
-0.04879483 0.6393189 0.6310341 1.3184042 1.2438432 -0.73059213 -0.28627068 -2.0617158
00000000: d9f3 c3be 499c 443f 49e1 3cc0 463b d13e
00000010: 551b 45c0 b268 28c0 7bc4 21c0 a9d4 57bf
00000020: 6667 1f40 2f8d 713f 65b5 2d3f a69f 933f
00000030: 6cfd 2d3e 9de7 6ec0 e834 d6bf 0e3a e5bf
00000040: dc42 1f3f e69e d23d 2c19 0d3e a52b 243f
00000050: 3e2c ed3e c758 d7bd 4fb6 d8bf 6918 3c40
00000060: 797f 8b3f 725b 2440 aafc 1540 8012 bfbf
00000070: bf8e 3140 97cb 06c0 f0d9 453f ebcd 533f
00000080: b2b2 563e 932c 093f edb5 923f bafd 103f
00000090: e1ba 32c0 b5eb 6a3f 5238 4240 c51a 81bf
000000a0: 185a 0340 6f68 913f 112d 9f3f e6b9 20be
000000b0: 9d4e 383f a19d 9fbf ec5a 46bf 3800 16c0
000000c0: 5364 773f d5df 3d3f 4fe4 3640 04a2 c1bf
000000d0: 483a 3840 815c 283e 580f 1cc0 462d 2a3f
000000e0: 16dd 47bd 67aa 233f 738b 213f 78c1 a83f
000000f0: 4136 9f3f 1608 3bbf 1292 92be 27f3 03c0

layers.1.bn1.running_var f4 [64]
2.015708 2.567056 7.9426107 1.2383274 10.3736515 9.29739 7.34342 4.8579082
7.962095 2.3589015 2.077829 5.051029 2.5849214 14.747424 4.02735 6.2508965
2.2151592 1.261833 3.0565743 2.6648324 2.3715935 1.484708 3.5411553 9.407607
3.7360108 8.364859 6.5975723 4.9347258 9.530287 4.133881 3.3919656 6.9209533
2.7834387 6.3772078 3.8177474 3.2134314 8.466277 2.6420522 10.0056095 2.6816843
5.8688073 4.0574813 2.8041155 2.7966957 1.9479879 3.0451536 2.7883866 5.947623
2.734789 4.8863006 7.1094713 4.6792383 10.720181 2.8913438 5.8919606 2.348925
1.934227 2.1627162 6.2062855 2.8516634 5.778056 1.6715139 1.7822101 4.9445577
00000000: 5c01 0140 a54a 2440 de29 fe40 8381 9e3f
00000010: 7afa 2541 1cc2 1441 4cfd ea40 fc73 9b40
00000020: 7bc9 fe40 3ef8 1640 26fb 0440 08a2 a140
00000030: 5a6f 2540 73f5 6b41 0de0 8040 5807 c840
00000040: 2bc5 0d40 be83 a13f ea9e 4340 9d8c 2a40
00000050: 30c8 1740 e90a be3f 4aa2 6240 8f85 1641
00000060: cd1a 6f40 76d6 0541 501f d340 46e9 9d40
00000070: 0e7c 1841 c148 8440 f715 5940 7378 dd40
00000080: dc23 3240 1612 cc40 f955 7440 dca8 4d40
00000090: df75 0741 6217 2940 fa16 2041 b7a0 2b40
000000a0: 45cd bb40 e3d6 8140 a176 3340 10fd 3240
000000b0: ab57 f93f cce3 4240 ed74 3240 ed52 be40
000000c0: c806 2f40 935c 9c40 ca80 e340 52bc 9540
000000d0: dd85 2b41 c70b 3940 f18a bc40 ca54 1640
000000e0: c094 f73f f169 0a40 e499 c640 a781 3640
000000f0: d6e5 b840 2bf4 d53f 761f e43f d139 9e40

layers.1.conv2.weight f4 [64, 64, 3, 3]
0.0029562775 -0.106450126 -0.01087626 0.003205632 -0.05992755 0.072221085 0.022546673 0.09227614
0.011506736 0.101077214 0.0044243364 -0.015017718 0.032988526 0.062422037 -0.12405795 -0.09656251
-0.06759087 -0.11509412 -0.00787217 -0.036550418 -0.0041740765 -0.052213203 -0.10045774 -0.03727697
0.12433447 -0.050507233 -0.003126046 0.03403041 0.018430667 0.10644021 -0.048464283 -0.03295896
0.038574737 -0.020870142 -0.071965165 0.016112754 0.032808673 -0.001680164 0.05356499 0.12060372
0.045677546 -0.07232254 0.08767249 0.028661722 0.0026895215 0.015430178 0.04763043 -0.06637708
-0.094727926 0.043227136 -0.0107428925 0.09927207 0.032722846 0.040725842 0.15031978 -0.055266835
-0.014910494 -0.0016469938 0.012744536 -0.059414115 0.048120365 0.016616689 -0.05588281 0.034682047
-0.05575475 -0.04135846 -0.07970108 0.016520977 -0.03518712 0.094955996 0.0040053977 0.015778052
-0.034485605 -0.0019531088 -0.03432376 -0.0017521664 0.083180524 0.0013098982 0.0393103 -0.070040286
0.022003794 -0.008596235 -0.011569584 -0.0795164 0.020125428 -0.11898755 -0.003197589 0.013028538
-0.001545756 -0.021102695 -3.1497828e-05 0.021344725 -0.022252984 0.05576309 -0.04168776 -0.0435153
-0.047700442 0.029562967 -0.02520318 -0.0013522323 0.08918494 0.12610577 -0.02170801 0.11478587
0.095536314 -0.037527535 -0.0017044088 -0.017054252 -0.12688577 -0.07464852 -0.0005724849 0.0062369253
0.065618016 0.19379203 -0.09472069 -0.045836244 -0.03144829 0.028344087 0.019254303 0.04032218
0.03101978 0.07498127 -0.04415759 -0.0004584262 0.043327954 -0.04083789 -0.019289901 0.039829925
-0.039759338 -0.040664382 -0.04477482 0.052550625 0.042271394 -0.020916574 0.018731287 -0.03221847
0.04664815 -0.11118626 -0.057219155 0.007901505 -0.029179279 0.0449684 0.015009499 -0.12302712
0.11606546 0.076147914 0.041938975 -0.06452528 -0.05577797 -0.017798394 -0.0012978694 0.02461386
-0.06732854 0.04075817 0.080951534 -0.11086644 0.08665755 0.03954276 -0.035886783 0.002288247
0.0319724 -0.06843733 -0.01535147 -0.030550374 -0.105014384 0.041825324 -0.019962221 -0.031746052
0.071451366 0.020178841 -0.02640098 -0.06314258 0.11139743 0.010198807 -0.012572565 0.07837329
-0.055035133 -0.01616541 -0.09539149 -0.08065716 0.025713185 0.09748361 0.045012288 0.030602656
-0.022229103 0.0037165086 -0.010435215 0.02973709 0.005309056 -0.10912875 0.12089522 0.12757388
-0.108856596 -0.043050013 -0.04803584 -0.035464857 -0.023715148 0.0618046 0.13338467 -0.114064604
0.013187764 0.070599854 0.09678808 -0.05380361 -0.0026183208 -0.119459026 0.10098594 -0.03404073
0.08891554 0.15143539 -0.021083638 0.04979826 0.041963413 -0.0720438 -0.16916975 -0.002438578
-0.043633208 0.003476122 -0.027847491 0.047902025 0.04298824 -0.10842543 0.021964565 -0.10481337
-0.0137910675 0.04257974 0.0029800076 0.038705822 -0.043195426 -0.027202563 0.03626032 0.12403691
0.024991654 -0.015092909 -0.008435984 -0.055702597 -0.067391865 -0.004434729 -0.039720528 -0.1196729
0.11558936 -0.08486912 0.0113997795 0.014044329 0.042617686 -0.031491224 0.04169254 -0.0006421864
-0.0057319715 -0.124975964 0.05786345 -0.07784106 0.06957613 0.08584145 -0.0023188626 0.03491076
00000000: 1bbe 413b 8602 dabd 5732 32bc 9515 523b
00000010: 9776 75bd a6e8 933d cdb3 b83c 46fb bc3d
00000020: c086 3c3c 9201 cf3d 06fa 903b e00c 76bc
00000030: fa1e 073d 40ae 7f3d 1812 febd 91c2 c5bd
00000040: 156d 8abd 77b6 ebbd 46fa 00bc e4b5 15bd
00000050: b1c6 88bb 83dd 55bd cabc cdbd bcaf 18bd
00000060: 12a3 fe3d ace0 4ebd 59de 4cbb 7963 0b3d
00000070: e9fb 963c 53fd d93d 7c82 46bd f9ff 06bd
00000080: 8b00 1e3d dcf7 aabc 7962 93bd e5fe 833c
00000090: 6362 063d f338 dcba f766 5b3d 15ff f63d
000000a0: 6118 3b3d d71d 94bd a28d b33d fdcb ea3c
000000b0: af42 303b dbce 7c3c 2018 433d b5f0 87bd
000000c0: b700 c2bd f00e 313d f502 30bc 284f cb3d
000000d0: 6408 063d 24d0 263d 6eed 193e 7a5f 62bd
000000e0: 254b 74bc f1df d7ba 75ce 503c 375c 73bd
000000f0: dc19 453d b91f 883c 60e5 64bd c30e 0e3d
00000100: 185f 64bd 7d67 29bd 523a a3bd 0057 873c
00000110: 5f20 10bd 4a78 c23d b63f 833b f940 813c
00000120: c740 0dbd 75ff ffba 1297 0cbd f3a8 e5ba
00000130: 8d5a aa3d e4b0 ab3a d603 213d 4871 8fbd
00000140: 4d41 b43c 39d7 0cbc 5a8e 3dbc 7fd9 a2bd
00000150: 15de a43c bfaf f3bd a48e 51bb a675 553c
00000160: f79a caba 8fdf acbc 891c 04b8 22db ae3c
00000170: e44b b6bc d667 643d c9c0 2abd 193d 32bd
00000180: 8a61 43bd 092e f23c e676 cebc 633d b1ba
00000190: 98a6 b63d df21 013e ffd4 b1bc db14 eb3d
000001a0: 8ba8 c33d 79b6 19bd 7866 dfba 5cb5 8bbc
000001b0: 58ee 01be 53e1 98bd d012 16ba 1f5f cc3b
000001c0: bd62 863d 6b71 463e ecfc c1bd c9be 3bbd
000001d0: eccf 00bd dc31 e83c 33bb 9d3c df28 253d
000001e0: 321d fe3c c88f 993d 97de 34bd ec58 f0b9
000001f0: a778 313d a245 27bd db05 9ebc b424 233d
00000200: b0da 22bd b28f 26bd cd65 37bd 533f 573d
00000210: c524 2d3d 3c59 abbc 5b72 993c 84f7 03bd
00000220: 2112 3f3d 9fb5 e3bd a25e 6abd 5075 013c
00000230: 6209 efbc c930 383d 67ea 753c a5f5 fbbd
00000240: bab3 ed3d 70f3 9b3d 34c8 2b3d d425 84bd
00000250: 7177 64bd f0cd 91bc 451d aaba 01a3 c93c
00000260: 8ce3 89bd 0af2 263d ebc9 a53d f20d e3bd
00000270: 8379 b13d 97f7 213d 05fe 12bd 6af6 153b
00000280: 7ef5 023d df28 8cbd bb84 7bbc c744 fabc
00000290: c811 d7bd 0851 2b3d d087 a3bc 2608 02bd
000002a0: 1855 923d 194e a53c de46 d8bc e650 81bd
000002b0: 5624 e43d e618 273c 29fd 4dbc 2d82 a03d
000002c0: 856c 61bd 526d 84bc 9d5c c3bd 952f a5bd
000002d0: 75a4 d23c 7da5 c73d ce5e 383d 6cb2 fa3c
000002e0: cf19 b6bc ab90 733b 77f8 2abc 339b f33c
000002f0: 97f7 ad3b e57e dfbd ea97 f73d baa2 023e
00000300: 35f0 debd 3655 30bd 3bc1 44bd 9943 11bd
00000310: 4546 c2bc d226 7d3d fe95 083e b49a e9bd
00000320: 7e11 583c a896 903d d438 c63d 2d61 5cbd
00000330: 2298 2bbb efa6 f4bd b7d1 ce3d 4b6e 0bbd
00000340: 5a19 b63d e111 1b3e 98b7 acbc 43f9 4b3d
00000350: d4e1 2b3d b38b 93bd d63a 2dbe 8dd0 1fbb
00000360: bcb8 32bd a6cf 633b 6c20 e4bc ea34 443d
00000370: 7014 303d 270e debd 08ef b33c 64a8 d6bd
00000380: eef3 61bc 1868 2e3d 3b4c 433b ff89 1e3d
00000390: b0ed 30bd e9d7 debc b485 143d 1007 fe3d
000003a0: 4cbb cc3c 4048 77bc 1537 0abc 6828 64bd
000003b0: bf04 8abd 3451 91bb feb1 22bd 1117 f5bd
000003c0: 1dba ec3d dccf adbd 24c6 3a3c 2f1a 663c
000003d0: e28f 2e3d f1fc 00bd ccc5 2a3d 6658 28ba
000003e0: 43d3 bbbb 66f3 ffbd 3a02 6d3d 226b 9fbd
000003f0: ee7d 8e3d a4cd af3d 0ff8 17bb 96fe 0e3d

layers.1.bn2.weight f4 [64]
0.9772902 0.98122674 0.99949545 0.9838593 0.9779356 0.980027 0.99043024 0.98785
0.9925876 0.9470003 0.981354 0.9753548 0.9761173 0.98028654 0.981063 0.9751085
0.9864734 0.9758779 0.97829515 0.9915489 1.0064628 0.9728521 0.97826374 0.9845834
1.000017 0.98280597 1.0043527 0.9895891 0.9866609 0.9627016 0.9793941 0.98050743
0.98969674 0.98979527 1.0020698 0.9856594 0.9870666 0.984459 0.99418616 0.9790545
0.97556055 0.99372685 0.9760958 0.9791642 0.98812956 1.001201 0.98558277 0.98754597
0.9792201 0.9797325 0.98746765 0.9810961 0.98190814 0.9701513 0.98154896 0.99202585
1.0069422 0.99517745 0.9964742 0.9923025 0.9816074 0.9886152 0.983599 0.9866878
00000000: b12f 7a3f ad31 7b3f efde 7f3f 34de 7b3f
00000010: fd59 7a3f 0de3 7a3f d68c 7d3f bde3 7c3f
00000020: 391a 7e3f 9d6e 723f 043a 7b3f dab0 793f
00000030: d3e2 793f 0ff4 7a3f f226 7b3f b6a0 793f
00000040: 8589 7c3f 22d3 793f 8d71 7a3f 26d6 7d3f
00000050: c6d3 803f d60c 793f 7e6f 7a3f a80d 7c3f
00000060: 8f00 803f 2c99 7b3f a18e 803f b655 7d3f
00000070: cf95 7c3f 9d73 763f 92b9 7a3f 8902 7b3f
00000080: c45c 7d3f 3963 7d3f d343 803f 2d54 7c3f
00000090: 66b0 7c3f 8105 7c3f fc82 7e3f 51a3 7a3f
000000a0: 56be 793f e264 7e3f 6ae1 793f 81aa 7a3f
000000b0: 0ff6 7c3f 5b27 803f 274f 7c3f d0cf 7c3f
000000c0: 2bae 7a3f c0cf 7a3f aeca 7c3f 1d29 7b3f
000000d0: 555e 7b3f d65b 783f cb46 7b3f 68f5 7d3f
000000e0: 7be3 803f f3c3 7e3f ef18 7f3f 8907 7e3f
000000f0: 9f4a 7b3f e315 7d3f 25cd 7b3f 9297 7c3f

layers.1.bn2.bias f4 [64]
0.007418305 -0.015990704 -0.0045317225 -0.00419702 -0.016876852 -0.013611532 0.012384687 -0.0065214215
0.010814004 -0.0022373481 0.0072085634 0.01775085 -0.002667111 0.008716803 -0.0022133256 -0.00809041
-0.0022702655 -0.011376774 -0.01349865 -0.006240721 0.0017998964 -0.015139955 -0.0036248663 -0.00749792
-0.017467288 -0.011070854 0.010300265 -0.0013129693 0.016261749 0.012214167 -0.013698686 -0.008154732
-0.0005252167 0.0013154615 -0.0055953427 -0.0039205127 0.01026519 -0.006660696 0.01928158 -0.01919312
-0.01751061 0.0031363394 -0.013639181 -0.0057041827 0.0017843718 0.006376693 -0.011757191 -0.002484815
-0.002926803 -0.011373434 0.013799712 -0.004214594 -0.0039854883 -0.005947991 0.00899619 0.011692799
0.0044249576 0.026354678 0.0024695045 0.005558414 -0.0092497105 0.010398355 -0.0102466075 -0.011626783
00000000: 4115 f33b f0fe 82bc d87e 94bb 2887 89bb
00000010: 5341 8abc e702 5fbc 24e9 4a3c a6b1 d5bb
00000020: 382d 313c 79a0 12bb d035 ec3b 3b6a 913c
00000030: b3ca 2ebb ecd0 0e3c 710d 11bb a48d 04bc
00000040: bcc8 14bb a665 3abc 7129 5dbc f67e ccbb
00000050: 80ea eb3a 930d 78bc 2a8f 6dbb 1db1 f5bb
00000060: 8f17 8fbc 8762 35bc 71c2 283c f017 acba
00000070: 5c37 853c ee1d 483c 7470 60bc 6d9b 05bc
00000080: b2ae 09ba 906b ac3a 2359 b7bb a577 80bb
00000090: 542f 283c f841 dabb 67f4 9d3c e43a 9dbc
000000a0: 6972 8fbc 0b8b 4d3b df76 5fbc 27ea babb
000000b0: 95e1 e93a 94f3 d03b 3ca1 40bc 47d8 22bb
000000c0: 9bcf 3fbb a457 3abc 3018 623c 941a 8abb
000000d0: b398 82bb 5de7 c2bb c164 133c 2793 3f3c
000000e0: 3cff 903b c4e5 d73c 69d7 213b 5b23 b63b
000000f0: 198c 17bc dd5d 2a3c 63e1 27bc 437e 3ebc

layers.1.bn2.running_mean f4 [64]
0.7683119 0.37849677 0.5116115 0.3532925 0.17890768 0.0732449 0.62157035 -0.018283758
0.32724386 -0.42145145 -0.09187354 0.8858285 -1.8279964 1.0990531 -0.75020117 -0.50434864
0.023074802 -0.0369659 0.3810077 -0.6898258 -0.4731781 0.532662 -0.09316559 -0.25836346
-0.54827285 -0.9335134 -0.09695235 0.6608975 0.5456695 -0.24737203 -0.23474461 1.2766862
0.031738758 -0.36365595 0.30394724 -0.3052593 0.51140636 -0.49535674 0.90164185 0.035660677
-1.584888 0.78462255 -0.53518677 0.16930541 -0.58045554 -0.82951754 0.7671138 -0.16372293
1.3603331 -0.11951336 0.7246154 -0.17447107 0.20607166 -0.5322966 0.14928666 0.76509947
0.2367634 -0.94931525 -0.14624447 0.8385376 1.0246904 0.10144107 -0.09979785 -0.12875913
00000000: 17b0 443f 54ca c13e f9f8 023f c1e2 b43e
00000010: 9333 373e 6c01 963d 3c1f 1f3f d2c7 95bc
00000020: 828c a73e 7cc8 d7be 3228 bcbd a8c5 623f
00000030: c9fb e9bf c6ad 8c3f 2f0d 40bf fe1c 01bf
00000040: 5e07 bd3c 8e69 17bd 7113 c33e 6c98 30bf
00000050: 6644 f2be 895c 083f 9acd bebd 3748 84be
00000060: 9c5b 0cbf bcfa 6ebf f48e c6bd 9430 293f
00000070: ffb0 0b3f 184f 7dbe e460 70be 746a a33f
00000080: 8000 023d 1d31 babe f99e 9b3e f24a 9cbe
00000090: 87eb 023f 669f fdbe 00d2 663f ee10 123d
000000a0: 9cdd cabf 06dd 483f 0002 09bf 665e 2d3e
000000b0: bc98 14bf 435b 54bf 9261 443f fca6 27be
000000c0: 651f ae3f 6cc3 f4bd 6580 393f 8ba8 32be
000000d0: 7304 533e 9744 08bf 9ade 183e 8fdd 433f
000000e0: 1b72 723e 5306 73bf 1cc1 15be 66aa 563f
000000f0: 0e29 833f 56c0 cf3d d162 ccbd 6fd9 03be

layers.1.bn2.running_var f4 [64]
0.90810645 1.3189217 1.4606056 0.7581196 1.1816372 0.7238731 0.50708073 0.5902863
1.171208 1.3958412 1.5701658 0.65951854 1.6480303 2.1450918 1.471939 1.6567274
0.54862374 0.6325469 0.48265606 0.75047505 0.6992942 0.568832 0.77051115 0.60343426
0.62807965 0.8197409 0.5749878 1.3489397 1.075868 1.637063 0.98617667 1.7189558
0.56193495 0.5800266 0.7509336 0.70371336 2.284906 1.6360297 1.0602838 0.9789014
2.0936482 1.0846244 1.1084003 0.8041157 0.7231252 1.3289636 1.8282816 0.7299156
1.192456 1.143323 1.0532274 0.56096596 1.1267151 1.041454 1.0632812 2.3156912
0.6571625 3.0315819 0.38715133 1.5585291 0.4270442 1.2769314 0.6324239 0.75991863
00000000: aa79 683f 6dd2 a83f 20f5 ba3f 2014 423f
00000010: e33f 973f bf4f 393f 0bd0 013f 011d 173f
00000020: 25ea 953f edaa b23f 31fb c83f 35d6 283f
00000030: a8f2 d23f 2f49 0940 7f68 bc3f a50f d43f
00000040: 9b72 0c3f 98ee 213f b21e f73e 221f 403f
00000050: f204 333f f99e 113f 3840 453f ab7a 1a3f
00000060: d4c9 203f 8ada 513f 6732 133f 0eaa ac3f
00000070: 0bb6 893f 488b d13f 1376 7c3f be06 dc3f
00000080: f8da 0f3f a07c 143f 2f3d 403f 8f26 343f
00000090: e63b 1240 6c69 d13f 61b7 873f 4899 7a3f
000000a0: 55fe 0540 f9d4 8a3f 10e0 8d3f 87da 4d3f
000000b0: bc1e 393f 7b1b aa3f 2205 ea3f c0db 3a3f
000000c0: 66a2 983f 6858 923f 28d0 863f 779b 0f3f
000000d0: 3338 903f 5d4e 853f 9919 883f 4934 1440
000000e0: cd3b 283f 7005 4240 b338 c63e e27d c73f
000000f0: 8aa5 da3e 7d72 a33f 88e6 213f 078a 423f

layers.2.conv1.weight f4 [64, 64, 3, 3]
-0.015167584 -0.079240575 -0.09437359 0.037147887 0.14634897 0.014494042 -0.0629294 -0.16546138
0.113097735 -0.028584149 -0.008769917 -0.05647475 -0.07384088 -0.029387973 -0.05324936 -0.076375276
0.005350621 0.051228713 -0.12506391 0.10666919 -0.03871067 0.0338953 0.05059709 -0.11417403
0.0477091 0.038924303 -0.035942473 -0.022765268 0.09147178 -0.017837742 0.0174132 -0.018177915
0.06279793 0.0034784055 -0.007273576 -0.021732002 -0.008935879 0.080189645 0.017516643 -0.0489807
0.09974803 0.0752417 -0.025326803 0.06981956 -0.03116921 -0.013199276 -0.021665128 0.08059676
-0.047763735 -0.054830454 -0.033173185 -0.060085703 0.0775115 -0.012388156 0.06695154 0.008315951
0.07822608 0.067518935 -0.10830323 -0.019775547 0.02369969 0.039657325 -0.04009866 0.02393589
-0.059878662 -0.053875633 -0.043280955 -0.04416575 -0.005443926 -0.016652199 0.04516204 -0.027116193
-0.030795328 -0.06446912 0.106413275 -0.038203977 0.07482993 0.03491328 0.006637323 0.07855181
-0.053367585 -0.038721908 0.04032239 -0.022615975 -0.061822552 0.025864385 -0.031414207 0.05419261
-0.035755545 -0.10626031 -0.021813123 0.09651866 0.025126241 0.08952844 0.07858092 0.044878345
-0.047432683 -0.034872703 0.040116116 -0.06660281 0.006864841 -0.062158946 0.030327907 0.09059437
-0.027811596 -0.03765609 0.002748056 0.040289845 -0.011381699 0.09651871 0.12512062 -0.06731256
0.079962455 0.07621306 -0.040353075 -0.08202494 -0.070222534 0.007827294 0.025568973 -0.021360701
-0.015646743 0.045872055 0.04922388 0.03340218 -0.10037992 -0.11418646 -0.0314507 0.02175758
-0.05219222 0.025190547 0.029618956 -0.016765933 0.07074664 -0.01644635 -0.017558211 0.097786814
-0.05457455 -0.008039452 -0.01668576 -0.0059084482 0.031747825 0.05476951 -0.060203616 -0.017773299
0.04018595 0.029253662 0.0065545137 -0.033799116 0.011226927 -0.08312478 -0.017044606 0.16879894
0.08339246 -0.031424176 0.067815125 0.011150138 0.053135406 -0.08998054 -0.12129664 -0.0025064398
-0.008662639 0.039406728 -0.007091779 -0.06662211 0.05906711 -0.060337752 -0.034767352 -0.011127541
-0.108666494 -0.0065969275 0.009005344 0.07317068 -0.008173728 -0.06074039 0.0299799 -0.035659812
0.053223386 0.08642605 -0.069972225 0.09739607 -0.023815416 0.122707024 -0.01796411 -0.025511237
-0.0036542849 -0.035294533 -0.051481824 0.0020792605 -0.01402108 -0.005022372 0.0083769765 0.061876785
-0.019062633 0.020416962 -0.08685686 -0.046169903 0.0952392 0.023775322 -0.012395159 -0.03181311
0.15620738 0.08818435 0.04896704 0.068780094 -0.057541057 -0.0094211595 0.00974477 0.030056085
0.0035732437 -0.0388664 -0.013690816 -0.009893704 -0.018974908 0.02237876 0.023942541 0.024642484
0.04676817 0.09382085 0.0072170766 -0.06609291 0.0058691613 -0.08105784 -0.07458984 -0.064256035
-0.05518334 -0.08616353 0.03264967 -0.061457075 -0.056033943 -0.015474832 -0.022954296 -0.012449056
-0.100204594 0.002053669 -0.008744471 0.1071288 0.030468037 0.14553769 0.027259009 -0.020907583
-0.038295936 -0.036956277 -0.08106049 -0.0033386145 -0.005228296 -0.0483187 0.020869585 0.018681802
-0.07031001 -0.05805555 -0.10816416 0.05734642 -0.053387944 0.0832354 -0.011943058 -0.028127244
00000000: 7581 78bc e248 a2bd f146 c1bd 6228 183d
00000010: 81dc 153e 6b78 6d3c 21e1 80bd b56e 29be
00000020: c99f e73d 4e29 eabc b3af 0fbc 1152 67bd
00000030: e339 97bd 0cbf f0bc 001c 5abd a46a 9cbd
00000040: 4354 af3b 33d5 513d c110 00be 6075 da3d
00000050: 148f 1ebd ccd5 0a3d e53e 4f3d 13d4 e9bd
00000060: 9e6a 433d 176f 1f3d 6a38 13bd 3a7e babc
00000070: 8e55 bb3d 7520 92bc 21a6 8e3c dae9 94bc
00000080: 339c 803d f6f5 633b 2e57 eebb 5007 b2bc
00000090: cb67 12bc 783a a43d 107f 8f3c fd9f 48bd
000000a0: b248 cc3d 5218 9a3d 287a cfbc 8ffd 8e3d
000000b0: 9256 ffbc c741 58bc 117b b1bc ea0f a53d
000000c0: e8a3 43bd e695 60bd 9be0 07bd 6d1c 76bd
000000d0: 59be 9e3d b1f7 4abc e41d 893d a03f 083c
000000e0: ff34 a03d 5e47 8a3d 15ce ddbd 5400 a2bc
000000f0: da25 c23c b86f 223d 7e3e 24bd 3315 c43c
00000100: 5443 75bd b2ac 5cbd 5f47 31bd 25e7 34bd
00000110: f662 b2bb 316a 88bc d5fb 383d c722 debc
00000120: 7c46 fcbc 6308 84bd 34ef d93d c67b 1cbd
00000130: 6f40 993d 3a01 0f3d e77d d93b c5df a03d
00000140: f897 5abd dd9a 1ebd 1729 253d 2345 b9bc
00000150: a539 7dbd 8ce1 d33c 2fac 00bd 12f9 5d3d
00000160: 6874 12bd 019f d9bd 6fb1 b2bc 93ab c53d
00000170: 8cd5 cd3c b05a b73d 09ef a03d 5bd2 373d
00000180: c648 42bd aed6 0ebd cc50 243d 0e67 88bd
00000190: 76f2 e03b 619a 7ebd 3b72 f83c 8b89 b93d
000001a0: 25d5 e3bc 463d 1abd bb18 343b f706 253d
000001b0: 4e7a 3abc 9aab c53d 9f1f 003e 2bdb 89bd
000001c0: 5bc3 a33d 9815 9c3d 4449 25bd b1fc a7bd
000001d0: d5d0 8fbd 0d3e 003c 0676 d13c a3fc aebc
000001e0: 992d 80bc 56e4 3b3d fb9e 493d b9d0 083d
000001f0: fd93 cdbd 97da e9bd 73d2 00bd f43c b23c
00000200: 82c7 55bd 685c ce3c 74a3 f23c b658 89bc
00000210: 9de3 903d 7fba 86bc 3dd6 8fbc 7444 c83d
00000220: 9089 5fbd e8b7 03bc 93b0 88bc a89b c1bb
00000230: 020a 023d fe55 603d 1198 76bd 4f99 91bc
00000240: 069a 243d 60a5 ef3c 3fc7 d63b f170 0abd
00000250: 25f1 373c 533d aabd 21a1 8bbc a1d9 2c3e
00000260: abc9 aa3d a3b6 00bd a8e2 8a3d 12af 363c
00000270: 83a4 593d b847 b8bd 5f6a f8bd 1543 24bb
00000280: beed 0dbc f368 213d 2762 e8bb 2c71 88bd
00000290: 5bf0 713d b824 77bd 3668 0ebd 4a50 36bc
000002a0: 8a8c debd 0a2b d8bb 268b 133c 82da 953d
000002b0: 1aeb 05bc eaca 78bd 6898 f53c 0610 12bd
000002c0: c400 5a3d 2400 b13d 994d 8fbd 9777 c73d
000002d0: 8c18 c3bc d24d fb3d 7829 93bc f1fc d0bc
000002e0: ba7c 6fbb 0091 10bd 9bde 52bd 3444 083b
000002f0: acb8 65bc b692 a4bb 963f 093c 8372 7d3d
00000300: 3d29 9cbc 7941 a73c 02e2 b1bd a71c 3dbd
00000310: c50c c33d 77c4 c23c 1115 4bbc 774e 02bd
00000320: d4f4 1f3e ff99 b43d aa91 483d 94dc 8c3d
00000330: 2cb0 6bbd 355b 1abc 87a8 1f3c 2e38 f63c
00000340: 152d 6a3b 6032 1fbd 724f 60bc 3419 22bc
00000350: 4471 9bbc a953 b73c 2623 c43c 09df c93c
00000360: fb8f 3f3d 2525 c03d 3a7d ec3b b85b 87bd
00000370: 1852 c03b a701 a6bd 8fc2 98bd ab98 83bd
00000380: ed07 62bd 8176 b0bd a9bb 053d 6aba 7bbd
00000390: d983 65bd 268a 7dbc a60a bcbc 20f7 4bbc
000003a0: 1138 cdbd d996 063b f844 0fbc 5866 db3d
000003b0: 1b98 f93c d507 153e 494e df3c 6146 abbc
000003c0: 33dc 1cbd 775f 17bd 0b03 a6bd a8cc 5abb
000003d0: 2052 abbb d4e9 45bd b1f6 aa3c 940a 993c
000003e0: b2fe 8fbd a8cb 6dbd 2c85 ddbd 14e4 6a3d
000003f0: 51ad 5abd 5277 aa3d d1ac 43bc 1b6b e6bc

layers.2.bn1.weight f4 [64]
0.97746646 0.94312483 0.97985965 0.9997332 0.99039745 0.989363 0.96070534 0.9743762
0.9702106 0.9809358 0.98419 0.991584 0.9878491 0.97615325 0.9907561 0.9728576
0.9664798 0.99169666 0.97251916 0.9779083 0.97281325 0.9753182 0.9848189 0.9929082
0.99890745 0.98114616 0.98778933 0.9854606 0.9619915 0.99989885 0.9647127 0.98623085
1.009508 0.9883241 0.9804857 0.98483896 0.9993321 0.9508563 0.9920882 0.98000294
0.9827749 0.98310584 0.99577 0.9957688 0.9785306 0.9927387 0.97805136 0.9901258
1.0004747 0.98004067 1.0022309 0.9741005 0.96625984 0.96828055 0.9721998 0.96851414
0.97639906 0.99274665 0.9860513 0.9717476 0.97559935 0.9707882 0.9843567 0.9922905
00000000: 3e3b 7a3f a170 713f 15d8 7a3f 84ee 7f3f
00000010: b08a 7d3f e546 7d3f c9f0 753f b870 793f
00000020: b95f 783f 9c1e 7b3f e0f3 7b3f 73d8 7d3f
00000030: aee3 7c3f 2ee5 793f 31a2 7d3f 320d 793f
00000040: 386b 773f d5df 7d3f 04f7 783f 3358 7a3f
00000050: 4a0a 793f 74ae 793f 171d 7c3f 3b2f 7e3f
00000060: 66b8 7f3f 652c 7b3f c3df 7c3f 2547 7c3f
00000070: 1345 763f 5ff9 7f3f 69f7 763f a079 7c3f
00000080: 8f37 813f cf02 7d3f 1c01 7b3f 681e 7c3f
00000090: 3ad4 7f3f 526b 733f 7ef9 7d3f 79e1 7a3f
000000a0: 2397 7b3f d3ac 7b3f c8ea 7e3f b4ea 7e3f
000000b0: fb80 7a3f 2024 7e3f 9361 7a3f e278 7d3f
000000c0: 8e0f 803f f2e3 7a3f 1a49 803f a65e 793f
000000d0: ce5c 773f 3ce1 773f 16e2 783f 8bf0 773f
000000e0: 4af5 793f a524 7e3f dc6d 7c3f 73c4 783f
000000f0: e1c0 793f 9385 783f cdfe 7b3f c006 7e3f

layers.2.bn1.bias f4 [64]
-0.0049926066 0.0035806778 -0.008383671 0.008364256 -0.022487773 -0.0030528083 -0.016612185 -0.008683614
0.0022826628 0.00051718747 -0.0075588687 -0.0023833795 0.00083654834 -0.028481863 -0.0002343909 -0.009554725
-0.010358995 -0.0018656891 -0.0034165897 -0.01364895 0.015908148 -0.016005626 0.00073369825 0.0059362515
0.017600289 -0.0036226714 -0.0056092674 -0.006836008 -0.004307168 0.0065272716 -0.0136493 -0.005803736
0.005649548 0.0023582724 -0.0050344705 0.0016636549 -0.004558106 -0.018443108 -0.0033105998 0.007632321
-0.011597459 -0.010526755 0.01403424 -0.00087551214 -0.004409809 0.009372172 -0.013712137 0.013920215
0.0047220965 -0.010807279 0.008649844 0.0029200087 -0.016466161 -0.015624838 0.0068741646 -0.0024696034
0.010348152 0.010027205 0.016232114 -0.012706791 -0.005127184 -0.021481378 -0.004377068 0.0012881175
00000000: 0599 a3bb cea9 6a3b aa5b 09bc 3b0a 093c
00000010: 4738 b8bc a011 48bb 4716 88bc b845 0ebc
00000020: ba98 153b dd93 073a 63b0 f7bb 7932 1cbb
00000030: cf4b 5b3a cc52 e9bc d4c6 75b9 6c8b 1cbc
00000040: c6b8 29bc 238a f4ba dde8 5fbb d89f 5fbc
00000050: ce51 823c 3b1e 83bc a855 403a e384 c23b
00000060: 7b2e 903c 576a 6dbb f2cd b7bb 9700 e0bb
00000070: 2523 8dbb b9e2 d53b 50a1 5fbc 442d bebb
00000080: d81f b93b 3f8d 1a3b 33f8 a4bb ff0e da3a
00000090: 2a5c 95bb 0016 97bc a6f6 58bb 8d18 fa3b
000000a0: 4503 3ebc 6978 2cbc deef 653c a082 65ba
000000b0: 2980 90bb bd8d 193c dfa8 60bc 9d11 643c
000000c0: d1bb 9a3b 0311 31bc 13b8 0d3c 9e5d 3f3b
000000d0: 0be4 86bc 52ff 7fbc ac40 e13b 12d9 21bb
000000e0: 4c8b 293c 2549 243c 36f9 843c 2530 50bc
000000f0: f001 a8bb b7f9 afbc 826d 8fbb 0dd6 a83a

layers.2.bn1.running_mean f4 [64]
1.0358087 -2.6739988 -2.7260168 -0.3385986 0.78808874 -0.46681672 -2.86697 -2.1350346
-0.9377636 2.6170888 -2.2250059 0.75849295 3.083977 0.90736455 0.21753873 0.52879244
0.53349566 1.2775832 -2.106333 -2.1413767 -2.6090748 -0.32355088 -0.5591534 1.1263441
3.4466789 -0.9060784 0.6478566 -0.88279784 -3.0171928 2.6060224 2.7359636 -0.82825613
1.7892928 3.322687 1.4247264 1.971054 -0.47391486 -3.2568035 -1.8118109 -2.152576
0.097231485 -0.9505477 1.8085076 0.012472243 -0.44574416 -3.1643324 -0.3960798 -3.5936325
2.9637003 0.02582003 1.471921 -3.3497043 -1.6416653 0.47102162 -3.8491936 0.28807724
-0.8846296 -1.690348 -3.1105995 0.8605656 -3.71103 -0.21182461 0.37269396 4.255503
00000000: 6195 843f cc22 2bc0 0f77 2ec0 cc5c adbe
00000010: 2fc0 493f 9a02 efbe 707c 37c0 68a4 08c0
00000020: 4611 70bf 627e 2740 7f66 0ec0 982c 423f
00000030: e15f 4540 0b49 683f 79c2 5e3e f15e 073f
00000040: 2c93 083f d987 a33f 29ce 06c0 510c 09c0
00000050: 15fb 26c0 76a8 a5be ad24 0fbf 0b2c 903f
00000060: 6396 5c40 c1f4 67bf eed9 253f 0aff 61bf
00000070: b019 41c0 12c9 2640 071a 2f40 9808 54bf
00000080: 8c07 e53f e7a6 5440 6f5d b63f 7f4b fc3f
00000090: f8a4 f2be 786f 50c0 6be9 e7bf cec3 09c0
000000a0: 4d21 c73d 1857 73bf 2d7d e73f 6158 4c3c
000000b0: 9438 e4be 6c84 4ac0 f9ca cabe 13fe 65c0
000000c0: 44ad 3d40 8784 d33c e867 bc3f 8e61 56c0
000000d0: 1722 d2bf bf29 f13e 3059 76c0 dc7e 933e
000000e0: 1677 62bf 535d d8bf 1014 47c0 074e 5c3f
000000f0: 8481 6dc0 8de8 58be bed1 be3e 152d 8840

layers.2.bn1.running_var f4 [64]
4.6779943 7.771536 3.43748 3.9296277 9.273564 2.5091116 5.1165524 6.0125976
4.460301 5.744172 5.0544553 3.871091 8.430692 4.1753798 3.052483 3.7368777
1.9486945 4.7465105 4.234436 3.7724726 5.99324 9.399053 4.8712783 4.763044
15.377347 4.0056944 1.9806759 5.361058 5.511547 12.486971 8.995604 4.292954
3.5727727 9.413456 4.5285316 7.622538 3.7825904 11.607739 6.165845 5.6788125
4.073534 3.4053407 6.3077955 2.1807437 3.731229 4.6401277 2.628038 10.48598
12.16258 2.838814 3.061648 9.052971 9.605556 2.023488 7.9204254 4.071093
5.157299 5.022869 9.380326 2.8116024 10.937536 4.5938854 3.6201794 7.064894
00000000: 21b2 9540 6cb0 f840 acff 5b40 057f 7b40
00000010: 8560 1441 4995 2040 ccba a340 3367 c040
00000020: c9ba 8e40 42d0 b740 19be a140 f4bf 7740
00000030: 1de4 0641 b69c 8540 e25b 4340 0129 6f40
00000040: d26e f93f 6ae3 9740 8080 8740 3170 7140
00000050: 9fc8 bf40 8562 1641 83e1 9b40 db6a 9840
00000060: 9d09 7641 a62e 8040 ca86 fd3f ca8d ab40
00000070: 985e b040 a2ca 4741 feed 0f41 e15f 8940
00000080: 4fa8 6440 849d 1641 bbe9 9040 d5eb f340
00000090: f615 7240 4db9 3941 9a4e c540 d5b8 b540
000000a0: 645a 8240 1af1 5940 76d9 c940 4e91 0b40
000000b0: 75cc 6e40 ed7b 9440 c631 2840 93c6 2741
000000c0: ed99 4241 21af 3540 0af2 4340 f8d8 1041
000000d0: 5bb0 1941 d480 0140 2074 fd40 6546 8240
000000e0: 9808 a540 58bb a040 d115 1641 4bf1 3340
000000f0: 2600 2f41 1c01 9340 05b1 6740 9d13 e240
