results/1691513650/models/last_model.pt (torch, 740517 bytes, 103 tensors)

layers.0.0.weight f4 [32, 5, 7, 7]
00000000: 0c9f 87bc 1470 d9bb 17f1 ba3d 1104 553d
00000010: 31f3 043d 14ac 883b 0a70 5d3c 9394 073d
00000020: f705 1e3d 54fc 60bb 343e 833d ccc8 e23c
00000030: ceb0 ac3b 4720 453b 6c3d 4ebc bf08 583b
00000040: a954 06bd 1d37 5ebd 0e4f 7e3c 1d98 d63b
00000050: e63e 943c ef6e 0cbd 1ee2 40bd c469 60bd
00000060: 0f11 1cbd 9e76 d0bc 470b 3d3c 15e8 5bbc
00000070: fbee 693c 188f 693d 93d4 d83c d6be e4bc
00000080: 6c58 023d 1e03 893b 9782 4cbc 3fa7 e938
00000090: 5da8 d93b 470e 3a3d a2ff 253d 84fb 173d
000000a0: 9662 d8bb ccbe 903c 3884 24bc 003c 35ba
000000b0: b2af 5f3d 2e0c 69bb 706f aabc a09e ef3c
000000c0: 8bb3 d7bc 9f12 82bb 6a3d 823c 42cf bbb9
000000d0: b989 3dbc 2f8d 253c db89 52ba cb4a dcbb
000000e0: ab79 88ba 14bf e83a 16da c33c d78b 2e3d
000000f0: dec7 013d fa68 81bc b11e 1bbc f5b9 63bc
00000100: 09f7 4fbb 27c3 8f3c caa7 5c3d d96a 8f3c
00000110: 37a3 1fbc c37f 25bb e055 793c 661d 373c
00000120: 6176 133d a456 a93c e83d 493d b105 613d
00000130: 7a92 ec3c c09a c4bc 8018 983c f250 ef3c
00000140: 14d1 023c 9b59 773d b1b7 5a3d 7985 13bb
00000150: ca69 18bc 70d8 66bb 675b 5dbb 433c 453d
00000160: d206 cb3d cac8 693d 7b48 ae3c 89e4 2b3c
00000170: 76c3 f63c 7428 e73c 21a7 083d 1766 183d
00000180: 3ede c43c d203 a03a 087c a43c 2922 a2bb
00000190: 52b6 6abb 0114 c2bb 85f7 6fbd a075 e1bb
000001a0: ab6e 8f3d b695 43bc f1cb b7bc 7736 59bc
000001b0: ef85 1abc eee7 58bb 67c8 ccbb c4c4 0b3d
000001c0: 1422 23bd c9fe 07bd 96fc 8cbc bd1e 06bb
000001d0: 47ab 593c 9470 aa3c 5420 4e3b 900e 0bbd
000001e0: 8718 82bc ee6c 0ebc 042e 5dbb d62b d03b
000001f0: d0cb 3d3a 6faf 3c3c 9ece 893c 8833 9bbc
00000200: 9753 8fbc 6781 a4bc 1aa2 41bc ea52 05bd
00000210: 6f2d e83c d598 773d dd82 143b dafa 22bd
00000220: 98da 63bd b889 29bd c3ef 90bd 2cc7 aa3d
00000230: 885a fd3c 6691 1fbd e0f9 a2bc 6c78 7fbd
00000240: dfe8 4ebd ce34 5dbd 3d5a 593d 7188 16bc
00000250: ca88 ecbc 2cf7 3ebc 5f59 d1bc 3290 ab3c
00000260: bbd2 2e3c 03c3 92bc ba43 30ba 202d 22bd
00000270: 0b5d c5bc ebbb f03a a80f b93d 2c65 f33d
00000280: 3478 843d fadb 803d 997b 1cbd 9bcc 813b
00000290: 25c3 3cbc 66a7 ce3b 505d 893d a17f 553d
000002a0: a7db 5d3b 56d6 34bd 9903 183d 2948 ba3d
000002b0: 8f9d 03bd d76e 91bc 8ebf df3c fa7b 1d3d
000002c0: 7ead d3bc f495 e03c ee7d b23d 725a d53c
000002d0: 3c7a 7fbb bea3 133d c63a 223c f12f 0dbd
000002e0: 0fc8 92bc ed57 18bd 6c2d 23bd 5ea9 8fbc
000002f0: f2d8 7dbc 0ae2 3abc 1012 cfb9 acba 3f3d
00000300: d5d3 163d ddb6 8fbd a1da 03bd cf9a 23bd
00000310: 79f0 1000 e946 0d80 eaf0 0d00 7a29 1280
00000320: e066 0280 5f99 0580 8739 0f00 0f58 0600
00000330: 821b 0100 d19e 0b00 2950 0380 b13b 0580
00000340: 11c2 0e00 dbf3 0c80 6979 0880 fedf 0b00
00000350: 45a1 1380 9408 0600 7e62 0b00 885b 0400
00000360: 266d 0900 73d1 1000 1a09 1080 746d 0c00
00000370: b271 0c80 eb5c 0f00 657c 1300 28fb 1200
00000380: 5b54 1180 3771 0880 7f72 1180 9d94 0b00
00000390: 347b 0b80 fbc6 0a80 8e57 0d80 cbb8 0c00
000003a0: 5f93 0080 d746 0c00 e2ab 0a00 5df1 0780
000003b0: b6f7 0680 a081 0c80 0dab 0280 d216 0c00
000003c0: d8a1 0b00 3ffa 1080 4942 1100 c876 0d00
000003d0: 5d7c 0300 f653 c7bc 468a 8dbd 5c0f 54bd
000003e0: e199 01bc 8f2e 62bd eea9 b4bd e2cf 05ba
000003f0: 46f9 6ebd d133 54bd 9935 b1bc cf94 ab3d
-0.016555332 -0.006635675 0.091280155 0.05200583 0.032458488 0.004170904 0.013515482 0.033100676
0.038579907 -0.0034330087 0.06408349 0.027683638 0.0052701 0.0030079053 -0.012587886 0.0032964197
-0.032795582 -0.05425178 0.015521778 0.006548895 0.018096399 -0.034285482 -0.047090642 -0.054788366
-0.038102206 -0.025447186 0.011538333 -0.013422032 0.014278169 0.05702123 0.02646855 -0.027923029
0.031822607 0.00418128 -0.012482307 0.00011141458 0.006642385 0.045423772 0.040526994 0.0371051
-0.0066035492 0.017669104 -0.010041289 -0.0006913543 0.054610915 -0.0035560238 -0.02080509 0.029250443
-0.02633073 -0.003969505 0.015898425 -0.00035821839 -0.01156848 0.010104462 -0.00080314063 -0.006722783
-0.0010412236 0.0017757141 0.023907702 0.04261383 0.03168475 -0.015797127 -0.009467767 -0.013899316
-0.0031732938 0.01754911 0.053870954 0.017507004 -0.009743503 -0.0025253154 0.015218228 0.011176443
0.036001567 0.020671196 0.049131304 0.05493707 0.02887844 -0.023999572 0.01856637 0.029213402
0.007984418 0.06038819 0.053397838 -0.0022509976 -0.009302566 -0.0035224222 -0.0033776404 0.048153173
0.0991341 0.057076253 0.021274796 0.010491499 0.0301225 0.028217532 0.03336251 0.037206735
0.024031755 0.001220817 0.020078674 -0.00494792 -0.0035814238 -0.005922795 -0.058585662 -0.006880477
0.0700353 -0.011937549 -0.022436114 -0.013257614 -0.009431346 -0.0033097225 -0.0062494758 0.034123197
-0.03982742 -0.033201966 -0.017210286 -0.0020465099 0.013285465 0.020805635 0.0031452375 -0.033949435
-0.015880836 -0.008692963 -0.0033749351 0.006352882 0.0007240148 0.011516436 0.016822156 -0.01894547
-0.017495913 -0.020081235 -0.011818433 -0.032549776 0.028341977 0.060448486 0.0022661008 -0.039790012
-0.05562839 -0.041391104 -0.07076981 0.0833877 0.030926958 -0.038957022 -0.01989454 -0.062370703
-0.050515052 -0.054005437 0.053064574 -0.009187804 -0.02887382 -0.01165561 -0.02555531 0.020942781
0.010670359 -0.017915254 -0.0006723959 -0.039593816 -0.024092218 0.0018366551 0.09036189 0.118845314
0.064682394 0.06291957 -0.03820381 0.0039611585 -0.011521135 0.0063065765 0.06707251 0.05212367
0.0033852847 -0.04414972 0.037112806 0.09095795 -0.03213268 -0.017753048 0.02731302 0.03844831
-0.025839563 0.027415253 0.087154254 0.026044104 -0.003898277 0.03604483 0.009901708 -0.03446955
-0.017917661 -0.037193228 -0.03983824 -0.017536815 -0.015493618 -0.011406431 -0.00039495574 0.046808884
0.036823113 -0.070173 -0.032190923 -0.03994256 1.555633e-39 -1.219299e-39 1.280285e-39 -1.667918e-39
-2.20576e-40 -5.14197e-40 1.39817e-39 5.82602e-40 1.01703e-40 1.067163e-39 -3.04263e-40 -4.80591e-40
1.355315e-39 -1.189505e-39 -7.78238e-40 1.090544e-39 -1.802727e-39 5.5409e-40 1.045523e-39 4.00177e-40
8.65675e-40 1.544504e-39 -1.472633e-39 1.14129e-39 -1.142812e-39 1.410865e-39 1.789499e-39 1.743137e-39
-1.591464e-39 -7.75298e-40 -1.602277e-39 1.063503e-39 -1.054387e-39 -9.89736e-40 -1.22527e-39 1.168317e-39
-5.2867e-41 1.127439e-39 9.80015e-40 -7.29433e-40 -6.39875e-40 -1.148527e-39 -2.45032e-40 1.110212e-39
1.068249e-39 -1.55914e-39 1.584982e-39 1.236472e-39 3.2012e-40 -0.024332028 -0.06911139 -0.05177246
-0.007910223 -0.055220183 -0.08821474 -0.00051045243 -0.058343194 -0.05180723 -0.021632003 0.08377992

layers.0.1.weight f4 [32]
00000000: dff9 153e 1527 8b3e ea1f 773e e6a9 0680
00000010: d571 b33e 5b28 963e e6d3 ce3b 3aad ae3e
00000020: 27ba a53b 6be9 233e b147 1a3e ce40 0180
00000030: 24ee 943e 146e 983e dae3 1100 abaa 0100
00000040: 7139 8e15 4375 483e 57d8 523e cf49 a13a
00000050: 591e 0500 d3e2 a33e 68ff 0000 8809 0a00
00000060: 5b9a ba39 8a03 8d3d c808 0180 b6b3 c03e
00000070: 6937 a7ba 9686 3a99 a474 8839 8966 0e80
0.146461 0.27178255 0.24133268 -6.11961e-40 0.35047784 0.29327664 0.0063118814 0.34116536
0.0050575915 0.1600701 0.1506641 -1.15083e-40 0.29087937 0.29771483 1.642941e-39 1.5306e-40
5.744397e-26 0.19575982 0.2059034 0.0012305322 4.70064e-40 0.3200899 9.1622e-41 9.21774e-40
0.00035591688 0.06885441 -9.4986e-41 0.3763711 -0.0012757602 -9.643154e-24 0.00026026845 -1.32248e-39

layers.0.1.bias f4 [32]
00000000: b568 9fbc 5b8e 2c3d ee84 bebd d99e 0280
00000010: 5a71 85bd 8948 f63c 68c5 a4bc a234 52bd
00000020: b505 54bb 3d96 20bc f1ad 68bd 0e08 3c1a
00000030: 1269 dcbd 0395 9a3d 1801 ceac 71c0 0281
00000040: eef5 e880 02c4 b8bd f814 2bbd 8c85 edbc
00000050: 8d73 9eb8 1356 8b3d b386 6eb9 7817 a5b1
00000060: 6cce 42ba a085 ebbd a286 6380 8b3b d0bc
00000070: 2055 5dba d431 cab9 ab75 2ebc 28c8 9eb4
-0.019459108 0.04212795 -0.09302698 -2.40655e-40 -0.06515761 0.030063884 -0.020113662 -0.051319726
-0.0032352034 -0.009801445 -0.05680651 3.8883995e-23 -0.10762228 0.07547953 -5.8549936e-12 -2.40153e-38
-2.1394058e-38 -0.090217605 -0.041768044 -0.028994344 -7.55555e-05 0.06803527 -0.00022747628 -4.8048e-09
-0.0007431272 -0.11500096 -9.140011e-39 -0.025419017 -0.00084431656 -0.00038565567 -0.010648171 -2.9575426e-07

layers.0.1.running_mean f4 [32]
00000000: 7acd 63bc ceb9 dbbc 1140 89bc 6c2c 0080
00000010: 919d 9dbb 30e2 99bc 2536 8939 a59f 5bbb
00000020: 3d9e e3b8 673f 223d 816e ff3b 8a95 0380
00000030: c306 583b deb3 13ba 1244 0180 01f9 0080
00000040: 7314 0200 77a2 373d 5912 b3bb f64e 47bd
00000050: 27b1 0000 8b20 fbbc d683 0180 4255 0480
00000060: bb5d 6cac 756b 253d d757 0180 aeec dcbb
00000070: b04a 4f25 b5e5 2b16 1aeb 0937 ec8f 0580
-0.01390397 -0.026821997 -0.016754182 -1.5936e-41 -0.004810043 -0.018784612 0.00026171017 -0.0033511904
-0.00010853678 0.039611246 0.0077951555 -3.29151e-40 0.0032963015 -0.0005634407 -1.16255e-40 -8.9326e-41
1.91007e-40 0.044832673 -0.0054648337 -0.048659287 6.355e-41 -0.030655166 -1.3913e-40 -3.97927e-40
-3.3589648e-12 0.040385682 -1.23346e-40 -0.0067420816 1.7979693e-16 1.3885753e-25 8.220575e-06 -5.10807e-40

layers.0.1.running_var f4 [32]
00000000: ebe7 013c 7d91 873c 2717 8b3c 0400 0000
00000010: b4cc 893c 4827 cb3c b1a9 9738 b173 893c
00000020: 8fe2 be33 9c5a a43c ac58 aa3b 0400 0000
00000030: bd82 593c b599 893c 0400 0000 0400 0000
00000040: 0400 0000 b0c4 963c a6e7 9a3c e2af 633c
00000050: 0400 0000 8fef 8a3c 0400 0000 0400 0000
00000060: 8259 1a1d 1d25 3e3c 0400 0000 c5e8 b63c
00000070: f2f6 ad0e 0400 0000 7bdc 2730 0400 0000
0.007928829 0.016548866 0.016978813 6e-45 0.016821243 0.024799004 7.2318486e-05 0.016778799
8.888775e-08 0.020062737 0.005198559 6e-45 0.013275799 0.016796926 6e-45 6e-45
6e-45 0.018404335 0.018909287 0.013896914 6e-45 0.016959934 6e-45 6e-45
2.0428005e-21 0.011605528 6e-45 0.02232779 4.2885592e-30 6e-45 6.106757e-10 6e-45

layers.1.conv1.weight f4 [32, 32, 3, 3]
00000000: 1567 0500 77a2 0c80 19b2 0300 6efb 0f80
00000010: 0638 0680 8385 0b00 f7fa 0e00 5917 0e00
00000020: 2438 0880 cd21 0000 b848 0680 3492 0d80
00000030: 634e 0800 2a19 0a00 5fce 0900 b1c0 0700
00000040: 7d9c 0500 3102 0100 6c95 0d00 4e6d 0a80
00000050: b286 0900 5053 0000 aa66 0b00 427c 0680
00000060: a4ed 0d00 aeab 0980 e739 0a00 6a38 0b00
00000070: 971a 0980 67d6 0a00 b9af 1300 d619 0c00
00000080: 2d71 0600 1748 0600 1ad2 0900 6849 1080
00000090: 3cb8 0380 46a4 0480 a818 0700 971d 0d00
000000a0: 256d 0f80 64f4 0d80 2ebc 0a00 8a2b 0700
000000b0: 01f7 0a00 2a20 0800 c40f 1180 1cd9 0680
000000c0: 36fd 0880 add4 0f80 a1aa 0c00 2466 0200
000000d0: d12f 0580 0bf0 0c80 e716 1600 6160 0600
000000e0: c419 1400 a11b 0d00 714a 0c00 34f6 0180
000000f0: 6fe8 0900 bab0 0d00 63dc 0700 bfbb 0500
00000100: f655 0f80 aedd 0b80 1e5e 0b80 c9cd 0700
00000110: 13b4 0600 b8c4 0280 c009 0600 2e26 0b00
00000120: 6904 0c80 e6a0 0680 a402 0b00 ba12 0b80
00000130: d333 0d00 e1c8 0800 0bd1 1400 e8f0 0980
00000140: f4cb 0200 c19a 0580 41fa 0280 400a 0180
00000150: b87b 0500 34bf 0380 2144 0680 9f63 0580
00000160: 1e49 0600 98cc 0380 63ea 0200 f382 0100
00000170: 3655 0380 420f 0f00 e88e 0300 38bc 0980
00000180: 85a4 0480 b118 0b80 a99d 0c00 8d37 1380
00000190: ceed 0100 6419 0d00 a862 0400 3d85 0f00
000001a0: dd20 1180 0bb9 0c00 94db 0480 06d8 0d00
000001b0: bdb7 0f00 1d93 0380 5e58 0900 38de 0e00
000001c0: edf5 1000 615c 0080 f105 0200 bdc4 0880
000001d0: eef0 0e80 a4f9 0900 5335 0900 3e79 0680
000001e0: df03 0100 57c7 0980 e8cb 0d80 39f1 0980
000001f0: 4a43 0b80 55a8 0800 bde4 0600 6b7b 0c80
00000200: 34f8 0280 3ed6 0a00 afdd 0300 5911 0780
00000210: 8826 0b00 460e 0e80 9a47 0a80 61a0 0280
00000220: 4d44 0000 f225 0000 1fca 0980 5e2c 0d80
00000230: 763b 0300 732a 1100 c2cb 0a80 ff2e 0600
00000240: b2d4 0d80 02df 0c80 e2fc 0c00 3a54 0080
00000250: 3787 0b00 0e3b 0f00 7a1d 0d00 d917 0b00
00000260: e702 0d00 b2e5 0400 9655 0c00 d93c 0c00
00000270: 94b1 0300 c06b 0a00 e781 0780 3914 0480
00000280: b0b7 0d00 6fcc 0400 6d68 1000 1673 0a00
00000290: 9f4f 0680 6c89 1280 af98 0400 c2a7 0c80
000002a0: be26 0380 6217 0280 7eb1 0780 1d28 0080
000002b0: 9988 0c00 0fce 0a80 5b72 0b00 756c 0c00
000002c0: 2bc0 0380 d8c7 0580 a207 0480 4595 1280
000002d0: fe3b 0480 a03f 0e00 08fa 0480 7629 0500
000002e0: db08 0780 3032 0680 e67b 0200 11cf 0100
000002f0: 3129 0300 13e9 0480 a7a7 0a00 3871 0480
00000300: c6a9 0800 a95a 0380 fc0c 0980 cec7 0a80
00000310: bd25 0100 82f5 0480 5117 1180 0003 0600
00000320: aa31 0600 bead 0d00 8b89 1100 dffe 0f80
00000330: 75b8 0600 fb67 0a00 b938 0c80 1d3b 0280
00000340: 4bae 0880 cda9 0980 b3e6 0800 4909 0580
00000350: 1645 0c00 b994 1380 37cd 0180 1942 0480
00000360: 049b 0c00 44d0 0d80 dab1 0b00 4101 0e00
00000370: b8b5 0a80 8175 0480 07b9 0180 a1c3 0b00
00000380: 3ac2 0c00 edb6 0480 124e 0080 6b63 0180
00000390: e66d 0c00 3120 0c00 0382 0380 d00f 0b00
000003a0: 18a3 0880 2509 0380 b9c5 0200 fd86 0b80
000003b0: 94e6 0f00 9645 0480 e784 0b00 e0ca 1000
000003c0: c99e 0900 9828 1480 e1c1 0000 93d0 0a00
000003d0: ed4f 1200 3a22 0780 0499 1080 3c39 0100
000003e0: 9685 0f80 4ab4 0280 75da 0880 198d 0400
000003f0: 997e 0f00 36c1 1180 6c49 0980 0f80 1580
4.96156e-40 -1.160307e-39 3.39396e-40 -1.467728e-39 -5.7111e-40 1.058085e-39 1.375726e-39 1.294073e-39
-7.54823e-40 1.2125e-41 -5.771e-40 -1.246309e-39 7.62804e-40 9.27382e-40 9.00551e-40 7.11973e-40
5.15315e-40 9.2622e-41 1.247464e-39 -9.57566e-40 8.74839e-40 2.9887e-41 1.04702e-39 -5.95588e-40
1.279111e-39 -8.88107e-40 9.39126e-40 1.030428e-39 -8.36058e-40 9.95268e-40 1.807912e-39 1.111294e-39
5.91613e-40 5.76874e-40 9.0189e-40 -1.495701e-39 -3.41597e-40 -4.26272e-40 6.51693e-40 1.204476e-39
-1.416686e-39 -1.281532e-39 9.85861e-40 6.58467e-40 1.006963e-39 7.46222e-40 -1.566859e-39 -6.28897e-40
-8.25519e-40 -1.453826e-39 1.163236e-39 2.20312e-40 -4.76331e-40 -1.188137e-39 2.028597e-39 5.85587e-40
1.845953e-39 1.203773e-39 1.12873e-39 -1.80157e-40 9.09901e-40 1.257259e-39 7.21908e-40 5.26528e-40
-1.40837e-39 -1.089714e-39 -1.043953e-39 7.1667e-40 6.15611e-40 -2.5424e-40 5.5451e-40 1.023887e-39
-1.103608e-39 -6.08732e-40 1.011138e-39 -1.016908e-39 1.212452e-39 8.06746e-40 1.9117e-39 -9.1294e-40
2.56836e-40 -5.14693e-40 -2.73445e-40 -9.5513e-41 5.0356e-40 -3.44097e-40 -5.75453e-40 -4.94915e-40
5.77242e-40 -3.48901e-40 2.67753e-40 1.38811e-40 -3.06074e-40 1.383006e-39 3.26772e-40 -8.9404e-40
-4.2636e-40 -1.019048e-39 1.158584e-39 -1.764802e-39 1.77144e-40 1.20297e-39 4.02733e-40 1.42533e-39
-1.572993e-39 1.168407e-39 -4.46112e-40 1.271356e-39 1.443445e-39 -3.28281e-40 8.5822e-40 1.365414e-39
1.55759e-39 -3.314e-41 1.85802e-40 -8.0526e-40 -1.372126e-39 9.16074e-40 8.45649e-40 -5.94506e-40
9.3224e-41 -8.98029e-40 -1.267009e-39 -9.13054e-40 -1.034329e-39 7.9507e-40 6.33069e-40 -1.1463e-39
-2.7271e-40 9.9521e-40 3.55032e-40 -6.49072e-40 1.024013e-39 -1.290817e-39 -9.44041e-40 -2.41204e-40
2.4502e-41 1.3612e-41 -8.99027e-40 -1.209777e-39 2.96837e-40 1.576431e-39 -9.9145e-40 5.67872e-40
-1.270162e-39 -1.182026e-39 1.192743e-39 -3.0215e-41 1.058696e-39 1.398717e-39 1.204436e-39 1.018745e-39
1.194903e-39 4.49741e-40 1.132728e-39 1.123854e-39 3.3921e-40 9.57008e-40 -6.89449e-40 -3.74597e-40
1.259756e-39 4.40679e-40 1.506829e-39 9.5964e-40 -5.79576e-40 -1.702337e-39 4.22115e-40 -1.162206e-39
-2.89405e-40 -1.92059e-40 -7.0652e-40 -1.439e-41 1.151028e-39 -9.92275e-40 1.051213e-39 1.140933e-39
-3.44443e-40 -5.30868e-40 -3.7008e-40 -1.706587e-39 -3.88863e-40 1.308521e-39 -4.57036e-40 4.74051e-40
-6.46025e-40 -5.69017e-40 2.28117e-40 1.66117e-40 2.90283e-40 -4.50953e-40 9.78497e-40 -4.07957e-40
7.95587e-40 -3.08029e-40 -8.31177e-40 -9.90031e-40 1.05373e-40 -4.55414e-40 -1.569568e-39 5.52089e-40
5.68829e-40 1.256188e-39 1.610545e-39 -1.468963e-39 6.17184e-40 9.55656e-40 -1.122374e-39 -2.04877e-40
-7.97209e-40 -8.87433e-40 8.17443e-40 -4.62508e-40 1.12681e-39 -1.798226e-39 -1.65453e-40 -3.91053e-40
1.157635e-39 -1.268573e-39 1.073992e-39 1.286147e-39 -9.83543e-40 -4.09494e-40 -1.58211e-40 1.080369e-39
1.171701e-39 -4.32963e-40 -2.8006e-41 -1.275e-40 1.14145e-39 1.113574e-39 -3.22146e-40 1.015863e-39
-7.93191e-40 -2.78787e-40 2.546e-40 -1.058615e-39 1.460248e-39 -3.92305e-40 1.057867e-39 1.542146e-39
8.83481e-40 -1.851272e-39 6.955e-41 9.93177e-40 1.681711e-39 -6.55127e-40 -1.52426e-39 1.12367e-40
-1.425454e-39 -2.48347e-40 -8.13052e-40 4.17958e-40 1.422947e-39 -1.630514e-39 -8.52858e-40 -1.974484e-39

layers.1.bn1.weight f4 [32]
00000000: fe88 0280 1f60 9535 9b09 8f3b 710a 0280
00000010: a8d4 0600 bfde 0f00 82b4 0600 0ff9 0c19
00000020: 9245 0980 1d11 6c2f 132d 9c8a 6fe8 0500
00000030: 3102 3dbc 5d77 dd34 07a6 1eb6 65a4 1080
00000040: ff20 3017 cd5a 0200 3e45 98bb 5ede 3cb9
00000050: 0709 903e 252b 013b c569 f13b 5c72 0000
00000060: 2cdf 0500 4d29 32ba 0d1b 1080 2e1d 0a00
00000070: c66d 0b80 1a43 0400 77ca a5b8 c405 0880
-2.32815e-40 1.112934e-06 0.0043651587 -1.87417e-40 6.273e-40 1.457439e-39 6.15767e-40 7.288127e-24
-8.51477e-40 2.1470155e-10 -1.5039209e-32 5.42559e-40 -0.011536167 4.1251306e-07 -2.3640475e-06 -1.528342e-39
5.6910314e-25 2.16244e-40 -0.004646926 -0.00018011915 0.28131887 0.0019709554 0.007367345 4.1024e-41
5.39236e-40 -0.00067963154 -1.479072e-39 9.28823e-40 -1.04957e-39 3.91413e-40 -7.905525e-05 -7.36752e-40

layers.1.bn1.bias f4 [32]
00000000: fd2e 6a80 8ac2 62b6 40cb 6f3c cd0f f481
00000010: e35d 1c81 8dbe 3ea1 1bf2 7481 45eb 4680
00000020: 2cac 09af f58b b6a6 8d3b 95a9 dad4 6280
00000030: 08e5 0ebd b9ea 9eba 8982 27b3 5dc0 ed02
00000040: 4086 9580 8886 9182 1925 7ebd d309 93b1
00000050: 569e fd3d 10df 6fbb 9105 cdbc 7d2d 06ba
00000060: bcd6 8781 71f8 52b9 fe78 6081 8e86 a99e
00000070: e0a4 09a7 f717 6080 69bf 3fbb e509 9c8a
-9.751419e-39 -3.378986e-06 0.014635861 -8.965412e-38 -2.8720035e-38 -6.4626696e-19 -4.4989424e-38 -6.512884e-39
-1.2521245e-10 -1.2666722e-15 -6.6272596e-14 -9.076235e-39 -0.03488639 -0.0012124396 -3.900144e-08 3.4934431e-37
-1.3731649e-38 -2.1383052e-37 -0.062047098 -4.27938e-09 0.12383716 -0.0036601461 -0.025027068 -0.00051184726
-4.9899297e-38 -0.00020119712 -4.122911e-38 -1.7949222e-20 -1.9101948e-15 -8.824805e-39 -0.0029258376 -1.5025975e-32

layers.1.bn1.running_mean f4 [32]
00000000: 0680 1300 df03 2286 a1ab cd3d 79fe 0880
00000010: 0543 0b80 b890 1400 b48d 0700 5c54 1000
00000020: 01e6 0d00 6af4 0400 f828 1380 824f 0c80
00000030: 5249 163c f572 0900 1841 b324 1576 1380
00000040: 6ae2 0100 fe5f 0080 43ae 8cbc 2aa4 0000
00000050: 5cb1 78bf d346 38ba cd44 25bc e1d5 0b00
00000060: fef8 0300 3d70 e1a9 8000 0e80 0a7a 0700
00000070: 9c6d 0300 c47d 0d00 b6c2 0c2f 1913 0980
1.7908e-39 -3.0471658e-35 0.10042501 -8.25972e-40 -1.034233e-39 1.888625e-39 6.93682e-40 1.49963e-39
1.276371e-39 4.55021e-40 -1.759571e-39 -1.130548e-39 0.009172754 8.67758e-40 7.773915e-17 -1.787234e-39
1.73058e-40 -3.4436e-41 -0.017172938 5.8891e-41 -0.9714563 -0.00070295966 -0.010087204 1.086916e-39
3.64828e-40 -1.00114775e-13 -1.285876e-39 6.86628e-40 3.14827e-40 1.238978e-39 1.2802101e-10 -8.3337e-40

layers.1.bn1.running_var f4 [32]
00000000: 0400 0000 0400 0000 6fc7 c93b 0400 0000
00000010: 0400 0000 0400 0000 0400 0000 0400 0000
00000020: 0400 0000 0400 0000 0400 0000 0400 0000
00000030: 41fb 7938 0400 0000 e72c 1d0a 0400 0000
00000040: 0400 0000 0400 0000 abd3 263b 0400 0000
00000050: 6e0b 0f3f 22ef 5435 1431 9938 0400 0000
00000060: 0400 0000 a415 0615 0400 0000 0400 0000
00000070: 0400 0000 0400 0000 b489 071f 0400 0000
6e-45 6e-45 0.0061578075 6e-45 6e-45 6e-45 6e-45 6e-45
6e-45 6e-45 6e-45 6e-45 5.9600225e-05 6e-45 7.56772e-33 6e-45
6e-45 6e-45 0.0025455754 6e-45 0.55876815 7.932414e-07 7.30475e-05 6e-45
6e-45 2.7078156e-26 6e-45 6e-45 6e-45 6e-45 2.8701267e-20 6e-45

layers.1.conv2.weight f4 [32, 32, 3, 3]
00000000: 7f53 0400 de3b 0100 6e63 0a80 099f 0380
00000010: 8780 0e80 8497 0380 ae03 1580 3f3e 0680
00000020: 12ff 0900 201a 0200 75a7 0700 e843 0780
00000030: 3f3a 0880 9f43 0800 601f 0400 19bf 0200
00000040: 7a60 0780 70f7 0180 f2ae a8bb 615b eebb
00000050: 6481 19bc 8819 4dbb 2a6d c939 338e 8739
00000060: f000 e4bb 97ac b6bb 60eb b439 b422 0e00
00000070: 8323 0a80 f7ab 0a80 12b6 0a80 0086 1280
00000080: f88c 0a80 d899 0600 a445 0f00 17f9 0980
00000090: 6eb9 0680 12b9 0f80 f557 0f80 6dcb 0b80
000000a0: 7129 0280 33d6 0500 84a0 0980 6943 0800
000000b0: 784e 0900 401f 491f eaaf 301f aa6d 541f
000000c0: 7e73 2a1e 0c92 9b14 eff4 121e ebc1 ff9e
000000d0: 4ed7 351d 2b8c 211e c8d8 0f00 9a33 0d80
000000e0: d80f 1080 1b46 0a80 7ea5 0780 fe48 0d80
000000f0: 1990 0600 9a15 0b00 ae6e 0280 0403 0180
00000100: 6e88 0b00 2c7f 0880 f5af 0200 73d9 0900
00000110: b257 0600 b591 0100 7178 0b80 6aaf 0100
00000120: 68c8 0080 a9e1 0400 8b42 0400 fb34 0c00
00000130: 3b38 0080 d28a 0280 6212 0000 f56f 0080
00000140: 4c64 0600 094b 0880 b5da 0880 cad5 0580
00000150: a590 0c80 2e0c 0600 191c 0900 d8c9 0700
00000160: 0fa5 0180 f384 0400 7c97 5126 6c15 d9a5
00000170: 49b8 bb26 8be8 9926 7a0f 381c ee48 ba26
00000180: e112 3e27 d4a8 4a27 4dbb 9f27 9e54 0280
00000190: adf6 0800 eb46 0b80 591b 0600 9ef9 0c00
000001a0: e072 0580 54e3 0480 88ff 0c00 b7cb 0700
000001b0: ac84 04b8 8953 e1b7 77b9 68b7 702d 88b7
000001c0: 0b6d 3137 5361 9bb7 77f8 b437 95ee 3f38
000001d0: a379 6d37 236c 0600 202e 0580 057d 0500
000001e0: 334d 0500 0392 0800 2bbe 0700 3b2a 0480
000001f0: 0ec3 0080 4538 0880 a707 0900 00a7 0a80
00000200: 6131 0880 c476 0680 9e37 0900 6a26 0380
00000210: 50f1 0380 8d46 0600 0353 0880 2a20 1280
00000220: dd06 1300 1cab 1200 6ebd 0780 44df 1580
00000230: 5062 1000 cd8c 0000 ad6e 0580 1e28 1280
00000240: 73d9 0700 da8a 0400 77b5 0800 e325 0680
00000250: bff7 0200 7cbe 0280 7044 0400 5d11 0300
00000260: c04c 0400 ab40 0e00 9189 0800 dbb2 0e00
00000270: 9821 1200 c771 0480 49db 0400 1087 0300
00000280: 26a2 0980 5bea 0580 184d 6935 7fac a839
00000290: 9e78 0e39 cd32 8db2 c136 a936 fcf2 603a
000002a0: 4074 7835 9c1c 2fb7 036c 6b3b 9f83 0200
000002b0: 8edb 0300 7aa0 0600 bbb5 0800 c208 0100
000002c0: 70a5 0200 d15f 0980 4f03 0200 b082 0700
000002d0: 9081 893d f429 d03d a4bf b5bc c5b8 f73c
000002e0: bce6 b13b 02e0 88bc 5cb3 03bc 8cb8 4dbd
000002f0: 71d1 27bd 1e3d 1eb9 4f24 e0b5 d22c c1b4
00000300: c67e 3eb8 6aa5 b6b3 073c 0b36 60a1 bdb4
00000310: 75cb ab2f 5211 4035 1fe7 b9b5 632a 01b3
00000320: cb99 2ab7 9786 3335 5c5a 3a35 a726 11b7
00000330: 294c 41b5 349b 6fb6 d49f f1b6 ea99 4b09
00000340: b27e 2d89 a6fe af89 26aa 9908 12a1 1180
00000350: b579 a908 a0c1 d308 b405 ed08 b579 1589
00000360: e676 0600 beb7 0280 70b9 0b80 c14f 0600
00000370: c722 0700 c6c5 0100 11e1 1300 8115 0180
00000380: feba 1200 c062 0480 8db5 0300 7817 0500
00000390: 0db5 0500 2586 0580 a5c5 0580 f847 0180
000003a0: 78d8 0280 88d4 0480 0e98 0680 2c5a 1280
000003b0: 64f6 1280 6905 0780 a89e 0600 24fe 0e80
000003c0: e7f6 0f00 26be 0480 7a39 1180 7c0e 0180
000003d0: 88cc 0200 0ec8 0000 93b8 0500 5e3a 0980
000003e0: 6cf1 0c00 d01d 0800 2a6d 0d00 4e53 0480
000003f0: 2e22 0800 3be2 1200 921c 0080 5a02 0300
3.97295e-40 1.13312e-40 -9.54024e-40 -3.32558e-40 -1.331804e-39 -3.2986e-40 -1.929865e-39 -5.73343e-40
9.18021e-40 1.93043e-40 7.02921e-40 -6.67209e-40 -7.55579e-40 7.58942e-40 3.78597e-40 2.52224e-40
-6.77458e-40 -1.806e-40 -0.005147808 -0.007274077 -0.009369228 -0.0031295735 0.0003841904 0.00025855153
-0.0069581196 -0.0055747735 0.00034507643 1.298146e-39 -9.31094e-40 -9.80044e-40 -9.8367e-40 -1.701109e-39
-9.68925e-40 6.06202e-40 1.402515e-39 -9.15876e-40 -6.17533e-40 -1.443923e-39 -1.409085e-39 -1.083166e-39
-1.98537e-40 5.36018e-40 -8.84102e-40 7.58866e-40 8.54669e-40 4.2589255e-20 3.7414962e-20 4.4983458e-20
9.023608e-21 1.5708606e-26 7.779827e-21 -2.7079378e-20 2.406646e-21 8.552255e-21 1.455299e-39 -1.212373e-39
-1.475052e-39 -9.43504e-40 -7.02216e-40 -1.220046e-39 6.02705e-40 1.01794e-39 -2.23375e-40 -9.2917e-41
1.059132e-39 -7.80305e-40 2.46792e-40 9.04526e-40 5.82472e-40 1.44105e-40 -1.053397e-39 1.54762e-40
-7.1892e-41 4.48294e-40 3.91213e-40 1.121032e-39 -2.0172e-41 -2.3347e-40 6.595e-42 -4.0163e-41
5.86993e-40 -7.61602e-40 -8.13141e-40 -5.3587e-40 -1.153915e-39 5.55382e-40 8.36599e-40 7.15256e-40
-1.51047e-40 4.15035e-40 7.271674e-16 -3.7658015e-16 1.3025682e-15 1.0679539e-15 6.0900496e-22 1.292611e-15
2.6378031e-15 2.8124653e-15 4.4334437e-15 -2.14026e-40 8.23175e-40 -1.035631e-39 5.60823e-40 1.191572e-39
-5.00387e-40 -4.48892e-40 1.193693e-39 7.15928e-40 -3.1594813e-05 -2.686099e-05 -1.38714595e-05 -1.6233622e-05
1.0575411e-05 -1.852276e-05 2.1573373e-05 4.5760145e-05 1.4154622e-05 5.89805e-40 -4.75724e-40 5.04026e-40
4.86871e-40 7.87063e-40 7.11068e-40 -3.82491e-40 -6.9972e-41 -7.5487e-40 8.29265e-40 -9.78263e-40
-7.52398e-40 -5.93618e-40 8.46471e-40 -2.89287e-40 -3.62073e-40 5.76322e-40 -7.64463e-40 -1.664577e-39
1.747337e-39 1.714421e-39 -7.10803e-40 -2.008638e-39 1.504636e-39 5.051e-41 -4.9888e-40 -1.66743e-39
7.20855e-40 4.17153e-40 7.99781e-40 -5.64604e-40 2.72546e-40 -2.52004e-40 3.91893e-40 2.81735e-40
3.94875e-40 1.308895e-39 7.84033e-40 1.349858e-39 1.66509e-39 -4.08158e-40 4.46007e-40 3.23958e-40
-8.84687e-40 -5.43248e-40 8.691145e-07 0.00032171977 0.00013587109 -1.6437662e-08 5.0429667e-06 0.00085811294
9.2556365e-07 -1.0437474e-05 0.0035922534 2.30888e-40 3.54268e-40 6.08581e-40 7.99877e-40 9.4977e-41
2.43019e-40 -8.60892e-40 1.84858e-40 6.8973e-40 0.06714165 0.10164252 -0.022186108 0.030239472
0.005429117 -0.016708378 -0.008038368 -0.050224826 -0.040971223 -0.00015090822 -1.6699868e-06 -3.5981662e-07
-4.5417597e-05 -8.505124e-08 2.0747555e-06 -3.532141e-07 3.1249284e-10 7.155078e-07 -1.3850839e-06 -3.0073704e-08
-1.0168597e-05 6.687855e-07 6.942189e-07 -8.651673e-06 -7.200893e-07 -3.5704115e-06 -7.200966e-06 2.4507606e-33
-2.088369e-33 -4.2369188e-33 9.248354e-34 -1.618985e-39 1.0199931e-33 1.2744622e-33 1.4265259e-33 -1.7992449e-33
5.93666e-40 -2.49585e-40 -1.076713e-39 5.79623e-40 6.55324e-40 1.62783e-40 1.825613e-39 -9.955e-41
1.720119e-39 -4.02767e-40 3.40635e-40 4.67596e-40 5.24126e-40 -5.073e-40 -5.30079e-40 -1.17653e-40
-2.61325e-40 -4.43584e-40 -6.0556e-40 -1.685387e-39 -1.741427e-39 -6.44789e-40 6.07928e-40 -1.376865e-39
1.466104e-39 -4.35554e-40 -1.581822e-39 -9.7032e-41 2.57043e-40 7.1766e-41 5.2539e-40 -8.47458e-40
1.188632e-39 7.45379e-40 1.233022e-39 -3.97226e-40 7.46945e-40 1.734195e-39 -1.0249e-41 2.7635e-40

layers.1.bn2.weight f4 [32]
00000000: ea93 883d ef51 1d3e 2f7b 023e a947 9f30
00000010: 38fd 853e ec84 ab3e 8a7c d03b f1fc 6f3e
00000020: 1091 cb39 2940 723c f14e 573d 22ac 0880
00000030: a96f 3b3e bb6a 2a3e 8935 1080 6195 0c00
00000040: 844e 0980 306c 153e 0f88 1e3d c9bf 443c
00000050: 4334 0000 7fbb 833e 8d38 0a00 d48c 0e80
00000060: e6fb 27bb 966a 173d a485 0780 c1cc 983d
00000070: 1cc9 dd3a a48e 1300 1f97 34bb 0131 0480
0.06668837 0.15363286 0.12742303 1.158914e-09 0.26169753 0.3349985 0.0063625025 0.23436333
0.00038827257 0.014785805 0.05256552 -7.96434e-40 0.18304314 0.16642277 -1.488573e-39 1.155613e-39
-8.54686e-40 0.14592052 0.038703974 0.012008616 1.8748e-41 0.25728986 9.38642e-40 -1.336217e-39
-0.002563232 0.036966883 -6.9079e-40 0.07460929 0.0016920897 1.796044e-39 -0.0027555896 -3.84921e-40

layers.1.bn2.bias f4 [32]
00000000: c860 49bc c149 363d 2e5a 91bd 199f 1bb0
00000010: 13a4 923d aeeb b33c 6758 3bbd 95b1 2ebc
00000020: dd62 34bb 7b9d 93bc 2fde b4bd d788 2e1a
00000030: cbb3 e23c e6ce 293d b2b1 c9ac 6091 0481
00000040: 567b 7f80 e4b4 99bc fda5 adbd 9816 01bd
00000050: 4563 fcb8 3b80 863d 4f0f 35b9 c5a2 18b4
00000060: e1ed 52bb b8dd f6bd 4f33 ea80 23fa 4c3b
00000070: 98df 2abb ba16 adb9 679a 64bc bc21 dd38
-0.012291141 0.04450393 -0.070972785 -5.6614763e-10 0.07160201 0.021962967 -0.045738604 -0.010662456
-0.0027524747 -0.018019428 -0.08831441 3.6092895e-23 0.027673623 0.04145708 -5.7324917e-12 -2.4348872e-38
-1.1707353e-38 -0.018763013 -0.084789254 -0.031515688 -0.00012034787 0.06567427 -0.00017267208 -1.4215318e-07
-0.0032185244 -0.12054008 -2.1507912e-38 0.0031277023 -0.0026073214 -0.00033014064 -0.013952828 0.00010544385

layers.1.bn2.running_mean f4 [32]
00000000: 5edb 363c b2e1 923d 758f 693d 3c74 0100
00000010: 48b6 933d eb13 983d 027e 75bb 05d8 253d
00000020: 8343 6f37 5626 303c ead3 d6bc 41c1 0100
00000030: 137f 583d 662e 1d3d 53c4 0200 293f 0280
00000040: 4326 0100 4ce3 9c3d 74ac 053d 9f21 103c
00000050: 8317 0080 1b90 883d c89e 0180 c00c 0100
00000060: d936 2533 5b8f 7c3c 2443 0100 87e5 563d
00000070: 3407 0633 cfea 0500 df1f 4838 68d7 0200
0.0111607 0.07171954 0.057021577 1.33533e-40 0.07212502 0.07425674 -0.003745914 0.040489215
1.4261229e-05 0.0107513275 -0.026224095 1.61162e-40 0.052855562 0.038374327 2.54099e-40 -2.06329e-40
1.05561e-40 0.07660541 0.032635167 0.008797078 -8.434e-42 0.06668111 -1.48795e-40 9.641e-41
3.846694e-08 0.015415038 1.15921e-40 0.052464988 3.1205857e-08 5.43411e-40 4.7713398e-05 2.60944e-40

layers.1.bn2.running_var f4 [32]
00000000: 02e6 6b3a 822a 803b 7dbb 1d3b 0400 0000
00000010: d7fa 8c3b 263e 943b 6395 9f37 a5f2 463b
00000020: 522e 372f 4ee2 193a a332 3b3a 0400 0000
00000030: 6e0d 5f3b 7ddf f73a 0400 0000 0400 0000
00000040: 0400 0000 02e5 833b 2e1b 403a 7bc8 de38
00000050: 0400 0000 239a 8c3b 0400 0000 0400 0000
00000060: 8c28 6127 1886 3139 0400 0000 e3c1 023b
00000070: bac2 9b26 0400 0000 f3fd 1531 0400 0000
0.00089988124 0.0039113173 0.002406805 6e-45 0.0043023634 0.0045240102 1.902384e-05 0.003035703
1.666021e-10 0.0005870209 0.00071410293 6e-45 0.0034035104 0.0018911209 6e-45 6e-45
6e-45 0.0040251026 0.0007328269 0.00010623127 6e-45 0.0042908355 6e-45 6e-45
3.1247003e-15 0.00016929989 6e-45 0.0019951991 1.0808066e-15 6e-45 2.1826707e-09 6e-45

layers.2.conv1.weight f4 [32, 32, 3, 3]
00000000: 69d0 1380 bf95 0d00 4d8f 1400 d784 0280
00000010: 109c 0400 0f18 0780 9e27 0a00 3750 0180
00000020: e376 0880 1312 0380 7db7 1400 004b 1280
00000030: 8389 1000 50cc 0580 78e9 0300 ebb1 0400
00000040: c221 0580 d8ba 0200 49b1 1080 4109 0700
00000050: da93 0580 e413 1080 32ac 1480 004f 0a80
00000060: 3c8d 0680 9706 0d00 6cbd 0380 52c9 0c80
00000070: ba8c 0a80 2185 0b80 9821 0700 0419 0000
00000080: fb1f 0280 b4ea 0680 ab8f 0d00 71b2 0b80
00000090: d5ef 0e80 94a9 0600 72ba 0d00 ab71 0700
000000a0: 6ec9 0a00 6648 0b00 4b24 0e00 2b14 0100
000000b0: d164 0980 dcd8 0c80 1e6d 0e80 b5da 0b00
000000c0: 8464 0600 a2ea 0980 9999 1300 4b15 0980
000000d0: 2ed9 0c00 c13c 0c80 cfda 0d80 cd7d 0f80
000000e0: b36b 0d80 5dac 0880 40ea 0100 3488 0500
000000f0: 8176 0e80 cea9 0b80 678d 0980 68e5 0680
00000100: 529a 0c80 f470 0100 1fe6 0400 a6c6 0200
00000110: 7683 0b00 4e22 0700 d94c 0f80 1500 0180
00000120: 5567 1100 704a 0600 c5e4 0d00 0e81 0000
00000130: 9459 0c00 d76b 1000 d4d0 0c80 6477 0100
00000140: 9c41 0380 9ff5 1200 a3d6 0b00 f018 1080
00000150: 5f18 0900 8d79 0500 57c5 0a00 3b89 1380
00000160: 2c80 0a80 796e 0100 9bbb 0300 1e86 0d80
00000170: 47d9 0280 362d 1480 6855 0a80 358b 0280
00000180: a999 0480 a740 0700 a089 0600 0fc0 1500
00000190: df9c 0580 c952 0080 e891 0800 af20 1300
000001a0: 0f8e 0600 ac88 0100 6ee5 0700 715a 0a80
000001b0: 87af 0880 51e0 0280 70a8 0b80 85ac 0d00
000001c0: 7926 0c00 ca06 1200 ae81 0d80 8e31 0300
000001d0: b4ee 0100 a72f 1080 db8f 0d80 653d 0e80
000001e0: f042 0600 9177 0a00 732f 0300 5e08 0400
000001f0: abcc 0800 468b 0c00 44da 0800 ad9e 0800
00000200: 7249 0a00 56e4 1380 279d 0080 9d39 0e80
00000210: 3ac7 0c80 5c66 0a80 91ac 0000 ccae 0c80
00000220: 769a 0400 d96d 0a00 50b1 0900 cc2f 0500
00000230: 3a83 0a00 5d26 0600 abb7 0400 f163 1080
00000240: e48e 1380 ebd6 0080 7dd2 0900 ab72 0580
00000250: d5d6 0880 d477 0080 75ba 1380 3158 0900
00000260: ea26 1080 69c6 0380 0dcb 0f80 343e 0a00
00000270: 7343 0b00 f6db 0200 c6ae 0600 6392 0a80
00000280: f324 0d00 58d1 0880 a94c 0580 74e2 0700
00000290: 6b2c 1300 bd21 0900 1ab6 0700 d9ac 0580
000002a0: 4669 0b00 0e85 0d00 c400 0880 a203 0300
000002b0: a0e5 0180 a0ae 0c00 8d26 0880 c937 0e00
000002c0: 9e95 0a80 bf29 0800 3d9f 0b80 32be 0880
000002d0: 6766 0980 4b40 0780 7192 0480 e7c7 0a80
000002e0: 116e 1480 1d9e 0e80 49f6 0580 93ab 0a00
000002f0: fafa 0c00 670a 1100 5733 1080 e53a 1080
00000300: 65e2 0d80 cf29 0780 3075 0a80 6e8a 0000
00000310: 5993 0880 4850 0380 d135 1300 7b94 0400
00000320: ef11 0d00 fbf2 0a00 13ab 0a00 e928 0280
00000330: 9628 0300 f688 0100 5a96 0e80 f87d 0c80
00000340: 2208 0d80 9394 0b80 4cba 0780 3eb1 1380
00000350: 6634 1200 8227 0f80 c652 0980 3edb 1380
00000360: 9f70 0d80 f0be 0b80 2eae 0200 aea2 0c80
00000370: 363a 0e00 47eb 0400 65cd 0100 d3f9 0d00
00000380: cbcc 0600 345e 0a80 b49d 0400 1162 0b00
00000390: af23 0b00 29eb 0b80 1558 0500 97f4 0d00
000003a0: d6d4 1400 e59d 0380 12c0 0900 0806 0080
000003b0: 2c3d 0480 4b2b 0280 12c8 1000 f938 0180
000003c0: ca02 0480 8995 0a80 0af7 0b00 100a 0d00
000003d0: 55c5 0000 f36a 0500 76e2 0080 a986 1200
000003e0: a490 0500 9a46 0700 ebac 0d00 a150 0080
000003f0: 04c7 0780 aff4 1000 9d48 0d00 e11a 0c80
-1.819638e-39 1.24758e-39 1.888117e-39 -2.31325e-40 4.23327e-40 -6.51479e-40 9.32567e-40 -1.20611e-40
-7.77332e-40 -2.8199e-40 1.902533e-39 -1.679944e-39 1.518698e-39 -5.32471e-40 3.59259e-40 4.31167e-40
-4.71288e-40 2.50698e-40 -1.532966e-39 6.46168e-40 -5.12217e-40 -1.476503e-39 -1.898482e-39 -9.46695e-40
-6.01678e-40 1.196225e-39 -3.43458e-40 -1.174246e-39 -9.68838e-40 -1.057948e-39 6.549e-40 8.974e-42
-1.95143e-40 -6.35209e-40 1.2454e-39 -1.074203e-39 -1.371732e-39 6.11846e-40 1.260745e-39 6.83625e-40
9.90614e-40 1.036162e-39 1.298716e-39 9.907e-41 -8.62686e-40 -1.17982e-39 -1.324841e-39 1.088648e-39
5.87071e-40 -9.1069e-40 1.799975e-39 -8.34158e-40 1.179935e-39 -1.12382e-39 -1.272355e-39 -1.422661e-39
-1.232497e-39 -7.96516e-40 1.75869e-40 5.08038e-40 -1.328208e-39 -1.071105e-39 -8.77245e-40 -6.33308e-40
-1.157386e-39 1.32355e-40 4.49894e-40 2.54933e-40 1.05735e-39 6.55155e-40 -1.4051e-39 -9.1865e-41
1.598272e-39 5.77716e-40 1.275928e-39 4.6296e-41 1.13416e-39 1.508054e-39 -1.17694e-39 1.34665e-40
-2.99043e-40 1.741151e-39 1.087188e-39 -1.478314e-39 8.35262e-40 5.02782e-40 9.89147e-40 -1.794103e-39
-9.64334e-40 1.31466e-40 3.42807e-40 -1.241974e-39 -2.61615e-40 -1.852929e-39 -9.48993e-40 -2.33609e-40
-4.22465e-40 6.66041e-40 6.00384e-40 1.997443e-39 -5.15452e-40 -2.9698e-41 7.87025e-40 1.756599e-39
6.01974e-40 1.40864e-40 7.25152e-40 -9.50799e-40 -7.97651e-40 -2.6414e-40 -1.070614e-39 1.25575e-39
1.115827e-39 1.655474e-39 -1.240382e-39 2.93283e-40 1.77466e-40 -1.486462e-39 -1.245467e-39 -1.307721e-39
5.75026e-40 9.61247e-40 2.92528e-40 3.70344e-40 8.08105e-40 1.151988e-39 8.12983e-40 7.91606e-40
9.44702e-40 -1.826786e-39 -5.6376e-41 -1.306365e-39 -1.173495e-39 -9.55075e-40 6.1905e-41 -1.164731e-39
4.22752e-40 9.57761e-40 8.90127e-40 4.76324e-40 9.6543e-40 5.64775e-40 4.3323e-40 -1.50522e-39
-1.796134e-39 -7.7098e-41 9.02028e-40 -5.00313e-40 -8.11751e-40 -4.2986e-41 -1.811763e-39 8.58157e-40
-1.483328e-39 -3.46683e-40 -1.450373e-39 9.40669e-40 1.034387e-39 2.62578e-40 6.1371e-40 -9.70869e-40
1.207116e-39 -8.09782e-40 -4.86678e-40 7.24085e-40 1.760809e-39 8.38622e-40 7.08174e-40 -5.21184e-40
1.047955e-39 1.241592e-39 -7.34959e-40 2.7681e-40 -1.7421e-40 1.16467e-39 -7.48513e-40 1.305709e-39
-9.72027e-40 7.4966e-40 -1.067314e-39 -8.02913e-40 -8.63255e-40 -6.65912e-40 -4.19875e-40 -9.90066e-40
-1.876194e-39 -1.342417e-39 -5.47528e-40 9.79904e-40 1.19206e-39 1.564935e-39 -1.487785e-39 -1.490495e-39
-1.275077e-39 -6.57847e-40 -9.60394e-40 4.9659e-41 -7.87542e-40 -3.04306e-40 1.76418e-39 4.20607e-40
1.200295e-39 1.00552e-39 9.79725e-40 -1.98347e-40 2.90066e-40 1.40968e-40 -1.339633e-39 -1.147215e-39
-1.196779e-39 -1.063489e-39 -7.09679e-40 -1.808457e-39 1.671836e-39 -1.391705e-39 -8.56213e-40 -1.823524e-39
-1.234262e-39 -1.078686e-39 2.46155e-40 -1.160384e-39 1.306579e-39 4.51744e-40 1.65517e-40 1.283481e-39
6.24479e-40 -9.52149e-40 4.23915e-40 1.04537e-39 1.022991e-39 -1.09455e-39 4.90775e-40 1.281604e-39
1.913061e-39 -3.32148e-40 8.95421e-40 -2.164e-42 -3.89286e-40 -1.99202e-40 1.54114e-39 -1.12273e-40
-3.68343e-40 -9.71998e-40 1.098811e-39 1.197471e-39 7.079e-41 4.97544e-40 -8.1239e-41 1.701346e-39
5.11065e-40 6.68176e-40 1.255893e-39 -2.8924e-41 -7.14242e-40 1.557144e-39 1.21991e-39 -1.111668e-39

layers.2.bn1.weight f4 [32]
00000000: fb16 0680 915e 3bb2 50ef f1bb 732c 0aba
00000010: b9f0 1300 5439 0700 d47b a620 b4f2 27bc
00000020: 3c1a 0800 2c28 879a d59a 0980 bcb9 0300
00000030: e9d4 4523 80f8 0100 b005 0e00 1d1f cbbb
00000040: eacd 4f3e 322e 0380 12e5 4a8e 2294 1580
00000050: 7af4 863e 6b89 0200 8a91 0b00 7fbf 71b9
00000060: 01cd caba ff11 1280 69e2 1000 4536 0300
00000070: f3f4 0db7 3945 0480 0bc6 c036 f697 0080
-5.59257e-40 -1.09063345e-08 -0.0073832646 -0.00052709057 1.83123e-39 6.63414e-40 2.8203436e-19 -0.010250736
7.44095e-40 -5.589959e-23 -8.82063e-40 3.42135e-40 1.0724477e-17 1.8098e-40 1.287737e-39 -0.0061987774
0.20293394 -2.92078e-40 -2.5008716e-30 -1.981685e-39 0.26358396 2.32967e-40 1.0624e-39 -0.00023054889
-0.0015472473 -1.659495e-39 1.550589e-39 2.94975e-40 -8.461287e-06 -3.92174e-40 5.745101e-06 -5.4513e-41

layers.2.bn1.bias f4 [32]
00000000: 609c 3202 01cb 00b0 2176 0bbd 6971 40bb
00000010: 3606 1881 28c6 1a80 bd91 8d00 f02f 91bc
00000020: 2753 7f00 9662 5880 4bbb 8682 b98b b500
00000030: 63d0 bb88 be8b d102 bf73 f680 f2fb b1bc
00000040: bc48 bfbd 6856 8181 df72 9280 e43b 0200
00000050: 3eff 003e b989 0280 c46f 54b3 5b4a 9ab7
00000060: ddc7 8cbc 2ad4 a200 9d85 92ba f7ed 0080
00000070: ec0b 26b8 693c 9903 1373 5eb9 8a01 0882
1.3122252e-37 -4.6854615e-10 -0.034048203 -0.0029364473 -2.7922447e-38 -2.458808e-39 1.3001086e-38 -0.017723054
1.1692937e-38 -8.11689e-39 -1.9797031e-37 1.6672348e-38 -1.1303645e-33 3.0789998e-37 -2.2633054e-38 -0.021726582
-0.09340045 -4.7511103e-38 -1.344919e-38 2.05156e-40 0.12597367 -2.33077e-40 -4.9461747e-08 -1.8392855e-05
-0.017185146 1.495346e-38 -0.0011178736 -8.5366e-41 -3.9588587e-05 9.006401e-37 -0.00021214438 -9.992144e-38

layers.2.bn1.running_mean f4 [32]
00000000: eda3 0080 ddd6 0900 77af 66be 883d d72c
00000010: aa18 0f80 4e58 0180 8fa6 0380 1eb8 4b3d
00000020: 25ed 0400 ca59 0600 e3c0 0100 2db2 0400
00000030: 78ef 0680 92f5 0400 4aec 0480 a236 cc3b
00000040: f6b7 063f 64d7 0d00 0de5 1100 dd40 1400
00000050: 67d6 a5bf 1234 0300 fb73 0580 7ee3 1718
00000060: a8cd f63a d0d8 0b00 7744 4880 15e8 0100
00000070: a61a 0880 97c7 0400 1bc4 039a 605a 0e80
-5.8805e-41 9.03598e-40 -0.22527872 6.117499e-12 -1.38638e-39 -1.23513e-40 -3.35256e-40 0.049736135
4.52413e-40 5.83223e-40 1.6103e-40 4.3126e-40 -6.36918e-40 4.55436e-40 -4.52107e-40 0.0062320987
0.5262445 1.271129e-39 1.643371e-39 1.859978e-39 -1.2956055 2.94186e-40 -5.00783e-40 1.9631147e-24
0.0018829601 1.087968e-39 -6.636716e-39 1.75091e-40 -7.44244e-40 4.38941e-40 -2.7248578e-23 -1.318117e-39

layers.2.bn1.running_var f4 [32]
00000000: 0400 0000 0400 0000 8ae7 e73c a3d8 801a
00000010: 0400 0000 0400 0000 0400 0000 6394 bd3a
00000020: 0400 0000 0400 0000 0400 0000 0400 0000
00000030: 0400 0000 0400 0000 0400 0000 b5f2 5237
00000040: 5b49 033e 0400 0000 0400 0000 0400 0000
00000050: cf90 853e 0400 0000 0400 0000 0400 0000
00000060: 45f7 0a36 0400 0000 0400 0000 0400 0000
00000070: 0400 0000 0400 0000 0400 0000 0400 0000
6e-45 6e-45 0.028308649 5.3289555e-23 6e-45 6e-45 6e-45 0.0014463778
6e-45 6e-45 6e-45 6e-45 6e-45 6e-45 6e-45 1.2573485e-05
0.12820952 6e-45 6e-45 6e-45 0.26087043 6e-45 6e-45 6e-45
2.0707532e-06 6e-45 6e-45 6e-45 6e-45 6e-45 6e-45 6e-45

layers.2.conv2.weight f4 [32, 32, 3, 3]
00000000: c4f2 0100 f31f 0a00 3dba 0580 2d2f 0d00
00000010: 43cd 0a00 ea42 0c00 c8dc 1080 dcb5 1480
00000020: cb0c 0d80 2c15 0880 80a3 0780 d325 0380
00000030: f807 0200 c9ce 0a80 551e 0580 f950 0380
00000040: 8059 0800 64e9 0500 e6d9 b8bb 39a0 883b
00000050: 9a43 383c 4ef9 afba 713a 9d3a 3c49 183c
00000060: 8847 1fb9 fc01 7e3b 7769 003c 56db 2da0
00000070: d34d 0a19 9666 291b b20b 6796 fd03 2100
00000080: 7e62 8e12 8b15 8b98 dfa1 0093 e525 539b
00000090: e213 0100 d3ea 0b80 b270 0e00 a408 0780
000000a0: 04b8 0400 92e0 0180 fbdf 0a80 104a 0580
000000b0: 4c5a 0a00 3cca 0880 56d7 0480 58bc 0b80
000000c0: 5a4a 0300 7c62 0c00 6465 0400 8720 0d00
000000d0: c29b 0580 b53f 0200 ff35 0200 5914 0680
000000e0: 04fe 0400 57e4 0a00 f60c 0100 d5dc 0b00
000000f0: 6d36 0d80 dfcb 0880 314d 0c80 0402 3d3a
00000100: 7e1a b1ba 6641 923a 165b 8039 ddfe adba
00000110: 8edd 743a 5a5a 6f3b 388b 00b9 5b05 00ba
00000120: 5672 0b80 d2bb 0600 1b40 0280 8582 0580
00000130: 0f95 0180 d7a1 0380 34e9 0880 b45e 0280
00000140: 9be6 0200 5a50 0580 9395 0b80 860c 0a80
00000150: ecd0 0480 a22b 0e00 df20 0000 33b5 0280
00000160: d0b7 0c80 7d92 0d80 cd6b 0b80 89cf 0380
00000170: 1485 0880 2e47 0a00 7ffb 0280 9765 0580
00000180: a092 0980 b2f8 1100 3223 0b00 5402 0f00
00000190: 50c6 0a80 1b09 0400 405b 0000 1f5c 0380
000001a0: 6bd9 0380 8a66 0e00 c0bd 0c00 d478 0d80
000001b0: a35d 0900 89f2 0880 a77c 0100 e6dc 0280
000001c0: d6a0 0700 ba3e 0a80 7fd2 0880 b723 0800
000001d0: 2627 0100 c718 0500 c4d4 0e80 77fc 0a00
000001e0: 52ae 0080 bb71 1180 fbbe 0600 cc0e 0700
000001f0: e998 0580 1c5f 1300 b778 0600 3c47 0680
00000200: 6180 0480 bf2f 0500 9558 0a80 75bb 0000
00000210: bd8e 0780 68e7 0880 ed81 0080 d6e2 f321
00000220: b64e 6138 e28c b137 130d 9a21 a41b 7633
00000230: 82d6 dfa9 bd95 c52d 19a4 2e31 7375 f1aa
00000240: e072 39bd 2658 623b d41a 73bb 773a 64bd
00000250: 7d46 37bd 9309 6dbd bbd3 2fbd b44d 89bd
00000260: a829 af3c f0d7 0d80 57e4 0f80 b4bd 0f80
00000270: 1b18 1080 19af 0680 3afe 0d80 85e4 1280
00000280: 8233 1300 7fc3 0180 3cd2 0600 a571 0b00
00000290: d4ad 0180 532e 0180 8116 0980 b8cd 0a00
000002a0: 08f8 0b00 c774 0100 2715 0c80 4f4f 0c80
000002b0: ebc5 0e00 a2ea 0380 9508 1000 ce9e 0e80
000002c0: d268 1000 2908 1180 19fb 0800 bee2 1000
000002d0: 5645 953d 824e 043e cca8 bb39 d337 7bbc
000002e0: 1d0e 85ba 95fb ad3b 498c ccbc c4de 66bd
000002f0: 6e88 09bd ca88 0b00 b471 0000 5d82 0980
00000300: f4de 0080 3294 0f80 06b2 1000 b2d8 0100
00000310: 2e0c 0980 febc 0400 45b3 672f e505 a6ae
00000320: aac1 8e2f 6adf 5d2f 86bf 5325 569f e72e
00000330: 5a43 8530 0047 5b30 b340 c130 490c 0500
00000340: ddcb 0100 149d 0480 9dff 0680 b983 0780
00000350: 0fe4 0400 3e43 0680 8c39 0000 80c6 0600
00000360: e8b9 8fb4 cce9 c5b0 e8f3 abb4 7544 4935
00000370: 5c0e ec32 8ec6 d2b1 2c37 9eac b2d0 c6b3
00000380: 4682 74b6 224e 0300 bc0e 0d80 c751 0c00
00000390: 8ce1 1080 e6ae 1380 6136 0500 4141 0f00
000003a0: ac7b 0900 92e7 0d80 0e67 0400 5c34 0800
000003b0: 77a2 0280 cb74 0a00 3c81 0b00 d677 0480
000003c0: 92a7 0780 d053 0080 caa1 0500 acca 0c80
000003d0: af8d 0880 a792 0b00 88dc 0700 3eee 0200
000003e0: 875e 0280 858e 0a00 7714 0200 0f0d 0900
000003f0: 8f53 0080 b5c7 0400 e430 0080 5a3b 0200
1.78923e-40 9.29816e-40 -5.25987e-40 1.210785e-39 9.91989e-40 1.12603e-39 -1.54857e-39 -1.901949e-39
-1.198451e-39 -7.42279e-40 -7.01501e-40 -2.89075e-40 1.8653e-40 -9.92535e-40 -4.70059e-40 -3.04554e-40
7.6679e-40 5.42902e-40 -0.00564121 0.0041694907 0.011246586 -0.0013425739 0.0011995566 0.009294804
-0.00015190069 0.0038758507 0.007837645 -1.4726242e-19 7.150149e-24 1.40125e-22 -1.8663722e-25 3.032002e-39
8.98574e-28 -3.595241e-24 -1.623568e-27 -1.7465755e-22 9.8968e-41 -1.09443e-39 1.326124e-39 -6.45948e-40
4.33354e-40 -1.72396e-40 -9.98704e-40 -4.85746e-40 9.50747e-40 -8.07232e-40 -4.4459e-40 -1.077755e-39
3.02179e-40 1.137355e-39 4.03714e-40 1.20553e-39 -5.15053e-40 2.06525e-40 2.03041e-40 -5.58312e-40
4.58466e-40 1.000268e-39 9.6485e-41 1.08941e-39 -1.213386e-39 -8.07819e-40 -1.129717e-39 0.0007210078
-0.0013511924 0.0011158406 0.00024481927 -0.0013274808 0.00093408755 0.003652236 -0.00012258894 -0.00048836105
-1.051206e-39 6.1839e-40 -2.06668e-40 -5.05999e-40 -1.45308e-40 -3.33564e-40 -8.18341e-40 -2.17644e-40
2.66397e-40 -4.88002e-40 -1.063848e-39 -9.22848e-40 -4.42289e-40 1.30135e-39 1.1792e-41 -2.48673e-40
-1.167965e-39 -1.246412e-39 -1.048862e-39 -3.49956e-40 -7.82423e-40 9.4389e-40 -2.73891e-40 -4.95621e-40
-8.79119e-40 1.650419e-39 1.022816e-39 1.378368e-39 -9.89496e-40 3.70608e-40 3.2734e-41 -3.08553e-40
-3.53501e-40 1.322481e-39 1.170095e-39 -1.237206e-39 8.6011e-40 -8.21689e-40 1.36552e-40 -2.62914e-40
7.00546e-40 -9.40857e-40 -8.10196e-40 7.47496e-40 1.0588e-40 4.68066e-40 -1.362023e-39 1.008922e-39
-6.2534e-41 -1.602002e-39 6.19524e-40 6.48157e-40 -5.14031e-40 1.778993e-39 5.94317e-40 -5.76567e-40
-4.13396e-40 4.76306e-40 -9.50132e-40 6.7247e-41 -6.94053e-40 -8.17697e-40 -4.6609e-41 1.6526363e-18
5.3717486e-05 2.1165648e-05 1.0438907e-18 5.7301477e-08 -9.9404006e-14 2.2462804e-11 2.5413611e-09 -4.2891697e-13
-0.04527557 0.0034537404 -0.0037094848 -0.05571982 -0.044744957 -0.05787046 -0.04292653 -0.06704274
0.021382168 -1.271325e-39 -1.459445e-39 -1.445585e-39 -1.478015e-39 -6.13826e-40 -1.285061e-39 -1.735016e-39
1.763352e-39 -1.61966e-40 6.26431e-40 1.050958e-39 -1.54193e-40 -1.08453e-40 -8.34592e-40 9.92153e-40
1.099167e-39 1.33727e-40 -1.109614e-39 -1.130477e-39 1.356697e-39 -3.59677e-40 1.472447e-39 -1.342665e-39
1.50697e-39 -1.564131e-39 8.24761e-40 1.550708e-39 0.072886154 0.12920573 0.00035793183 -0.015333134
-0.0010151301 0.005309532 -0.024969237 -0.05636479 -0.033577375 1.059261e-39 4.0789e-41 -8.73285e-40
-7.998e-41 -1.430695e-39 1.533231e-39 1.69571e-40 -8.30889e-40 4.3514e-40 2.1073017e-10 -7.549853e-11
2.5967256e-10 2.0179206e-10 1.8366223e-16 1.05329676e-10 9.696166e-10 7.9772633e-10 1.4060987e-09 4.63585e-40
1.64968e-40 -4.23691e-40 -6.4271e-40 -6.90102e-40 4.49154e-40 -5.75135e-40 2.0644e-41 6.22221e-40
-2.677109e-07 -1.4400086e-09 -3.2028697e-07 7.4977953e-07 2.7480546e-08 -6.1343775e-09 -4.4967554e-12 -9.258055e-08
-3.6434662e-06 3.03535e-40 -1.199147e-39 1.131362e-39 -1.550279e-39 -1.807616e-39 4.78685e-40 1.400941e-39
8.70885e-40 -1.276933e-39 4.04311e-40 7.53467e-40 -2.41952e-40 9.60252e-40 1.056551e-39 -4.10331e-40
-7.02961e-40 -3.0066e-41 5.17216e-40 -1.174731e-39 -7.8551e-40 1.0628e-39 7.2196e-40 2.69136e-40
-2.17581e-40 9.69481e-40 1.91012e-40 8.31204e-40 -2.9975e-41 4.38983e-40 -1.7539e-41 2.04962e-40

layers.2.bn2.weight f4 [32]
00000000: 8522 b43d 9111 cc3d c0b0 803d 7e09 4034
00000010: 2ea7 333e 897c 7f3e 5146 0abc 69c6 3d3e
00000020: 0fc5 1d39 c222 8d3c 4427 ad3d a73b 0280
00000030: 8060 8f3d a294 533e 2db4 ae3b 8b68 1080
00000040: 1091 0200 2c50 553b aa87 c83d 5ac5 2ebc
00000050: a8b3 1000 2e82 f73d 2430 0280 841d 0a00
00000060: 82b8 9c3a ddc6 883e b2d8 0380 7f28 6b3e
00000070: 3cd9 00bb 08c9 1480 e5c7 f1ba 5f0c 0180
0.087956466 0.09964288 0.062837124 1.7884847e-07 0.17544243 0.2494985 -0.008439616 0.18532719
0.00015046097 0.017228488 0.08454755 -2.0507e-40 0.07000828 0.20662168 0.005331537 -1.506871e-39
2.3571e-40 0.0032549007 0.09791501 -0.0106671695 1.533816e-39 0.12085377 -2.0094e-40 9.28943e-40
0.0011956843 0.2671422 -3.53242e-40 0.22964667 -0.0019660732 -1.908826e-39 -0.0018446414 -9.6273e-41

layers.2.bn2.bias f4 [32]
00000000: dd2a c4bd 8d4f 083d 2e0a e3bd 22b7 0fb1
00000010: 10f0 273d 6aac 3a3c 8742 06bd d30e 72bb
00000020: 22ac a7ba 312b 12bd b2a6 afbd af98 631a
00000030: d748 4d3d 161d c4bc 7b5b 93bc f676 0800
00000040: 046a 0000 bb34 e1bc 3fce 6abd ec17 cfbc
00000050: a849 8ab8 ac6b bebc b0bc 31b9 7b0f 30b4
00000060: e730 6fba 11a0 393c ce3f 0880 9dbc bcbd
00000070: 0122 35bb b4d9 82b9 57a9 27bc c912 f338
-0.09578488 0.03327899 -0.11085926 -2.0913338e-09 0.041000426 0.011393646 -0.03277829 -0.0036935105
-0.0012792388 -0.03568572 -0.085767165 4.7065837e-23 0.050118294 -0.02393965 -0.017987957 7.77359e-40
3.8031e-41 -0.027490964 -0.057325598 -0.025279962 -6.594072e-05 -0.023244701 -0.00016950327 -1.6396909e-07
-0.00091244135 0.011329667 -7.57573e-40 -0.09215663 -0.0027638676 -0.00024957734 -0.010233245 0.00011590642

layers.2.bn2.running_mean f4 [32]
00000000: 541b ecba f3ff 943c ba0c 333d fc30 1d8c
00000010: 735f bbbb 474b fa3c 9e99 49bc 4239 3b3d
00000020: 8055 9534 a4b3 bdbc affa 843c 4a67 0080
00000030: 4ee4 313d 3944 37bc 514a 3fb9 99d8 0000
00000040: 3c53 0100 45af 933c 5186 6e3d d4a1 1b3a
00000050: ad0c 0200 7bff 8c3c 143a 0080 e5d1 0100
00000060: fc90 a431 a31c 04bd f0ed 0080 f71b 4e3d
00000070: 849a 8b2f 919b 0580 98d5 80b2 5c34 0080
-0.0018013516 0.018188452 0.04371331 -1.2109581e-31 -0.0057181655 0.030553473 -0.012304692 0.045708902
2.7815622e-07 -0.023156948 0.016232817 -3.7053e-41 0.04343062 -0.011185699 -0.00018242864 7.77e-41
1.21694e-40 0.018027911 0.058233563 0.0005936895 1.88218e-40 0.017211666 -2.0835e-41 1.67131e-40
4.789511e-09 -0.032253873 -8.5356e-41 0.050319638 2.5393743e-10 -5.14984e-40 -1.4998292e-08 -1.8783e-41

layers.2.bn2.running_var f4 [32]
00000000: 8f6a da3a 4830 503b ae97 a13a 0400 0000
00000010: 68d3 2e3b 293d 933b fd30 b738 691d 223b
00000020: 3c94 232a 82c3 073a a1a2 b03a 0400 0000
00000030: 856e 313b 7955 683b 3d12 9e33 0400 0000
00000040: 0400 0000 f976 9839 15c8 1e3b a5f0 d137
00000050: 0400 0000 15dc 1e3b 0400 0000 0400 0000
00000060: 4a59 7c26 c529 c43a 0400 0000 aa51 d43b
00000070: 99d1 c31f 0400 0000 63f0 4a26 0400 0000
0.0016663837 0.003176706 0.0012328529 6e-45 0.00266763 0.004493375 8.735245e-05 0.0024736768
1.4528737e-13 0.0005178974 0.0013476202 6e-45 0.0027073931 0.0035451336 7.360766e-08 6e-45
6e-45 0.0002908034 0.0024228145 2.50268e-05 6e-45 0.0024240066 6e-45 6e-45
8.755107e-16 0.0014966062 6e-45 0.0064794617 8.293246e-20 6e-45 7.0408613e-16 6e-45
