results/1691513906/models/last_model.pt (torch, 740517 bytes, 103 tensors)

layers.0.0.weight f4 [32, 5, 7, 7]
-0.0044081663 -0.0013029145 0.012529195 0.06058293 0.070055366 -0.026554026 -0.054135572 -0.009955231
-0.02516896 0.0047980906 -0.036519527 0.017419225 -0.011945604 -0.030098595 -0.034148537 -0.040382426
-0.036199756 0.042222165 0.013345879 -0.006753619 -0.029132832 -0.038942732 -0.041072913 -0.018557986
0.04202927 0.03169028 -0.030737193 -0.042508036 -0.029333772 -0.006507123 0.0028219775 -0.031759933
-0.0072163395 -0.01643573 -0.061373588 -0.0024888571 0.010798105 0.030707698 -0.011413446 -0.018512163
-0.030935649 -0.057504807 -0.021156218 -0.0141391875 -0.007902401 -0.015021071 -0.02304057 -0.029994175
-0.04798628 0.0034705475 0.02162389 0.004380166 0.0031457038 -0.00898016 -0.009237737 0.0045340224
-0.0076128533 -0.0022737214 0.008837513 0.000636465 -0.00096717855 -0.002406975 -0.004919664 -0.021252384
-0.006652701 0.016316816 0.012110358 0.013635127 0.013546363 0.036865715 -0.021823036 -0.007611557
0.0059393565 0.027933914 0.014379816 0.036836926 0.047764692 0.011915851 -0.0061511067 0.0409303
0.015802652 0.01647506 0.017590655 0.03968388 0.008955935 0.00096470595 0.004256308 -0.012600369
0.018835753 -0.008514224 0.038910266 0.01532553 0.012761015 0.0053036422 -0.009597083 -0.0077211615
-0.010144944 -0.015127728 0.039299987 0.09192124 -0.060936365 -0.04829521 -0.02360116 -0.005296109
0.008621891 0.042174604 0.060093425 -0.038015448 0.018739413 0.051929615 0.023969539 -0.01821526
0.08789903 -0.028498955 -0.035935547 0.02464401 -0.0112839155 0.009288179 -0.011978924 0.091326244
0.04538483 -0.094108574 -0.026847068 0.0023070527 -0.021288028 -0.017615322 0.040543392 0.074660495
0.078816555 -0.04830199 -0.07854905 -0.048513122 0.032891966 -0.013486331 0.075395025 0.038876146
-0.0210645 -0.00571827 0.02203649 0.030946596 -0.038887702 0.08157361 0.1434893 0.015298761
0.05567212 0.022060294 0.008070204 0.06598233 0.004521042 0.045184903 0.05322329 0.02008331
-0.012001466 0.032888614 0.064593814 0.057682827 0.09502723 0.07346922 -0.007098661 -0.0012069454
0.047996838 0.032831833 0.0473929 0.06963506 -0.006171909 -0.056902073 -0.030402897 0.009148803
-0.03148995 -0.029052142 -0.028085275 -0.019828843 0.014593065 -0.013362779 -0.028769353 0.010840293
-0.0018879722 0.0038403845 -0.031376496 -0.026566993 -0.029974945 -0.0763406 0.025342012 0.016126107
-0.03646982 0.00751885 0.030016804 0.015800476 0.028944481 -0.031044923 0.017949672 0.010834417
0.053749487 0.080458 0.06788604 0.044483222 -1.389333e-39 8.8255e-40 -4.24547e-40 -1.608651e-39
1.26735e-39 5.00268e-40 2.8214e-41 -1.089112e-39 1.38076e-40 -1.978928e-39 -3.31408e-40 -5.44716e-40
1.048303e-39 1.330787e-39 -2.78323e-40 -1.609876e-39 -4.97724e-40 1.558654e-39 1.176834e-39 1.187436e-39
1.150549e-39 -1.27923e-39 2.6349e-40 -9.82027e-40 1.217868e-39 1.55663e-39 7.07496e-40 1.84417e-39
-3.96542e-40 3.17212e-40 1.775438e-39 8.11828e-40 9.73984e-40 -9.707e-40 -5.9786e-41 -1.831172e-39
1.040098e-39 -9.69501e-40 6.21103e-40 -1.375439e-39 1.33413e-39 -3.07794e-40 -1.302037e-39 1.550884e-39
-1.543344e-39 -1.07324e-39 -4.90298e-40 -1.454014e-39 -1.525867e-39 1.89938e-40 8.90225e-40 1.49813e-39
3.8771e-41 -6.24651e-40 9.44338e-40 1.455698e-39 1.96335e-39 8.14589e-40 -5.2809e-40 -7.55157e-40
00000000: 6172 90bb 8ec6 aaba 4147 4d3c ce25 783d
00000010: 3079 8f3d d487 d9bc 43bd 5dbd 441b 23bc
00000020: 232f cebc 4d39 9d3b 8095 15bd c3b2 8e3c
00000030: 7fb7 43bc 5491 f6bc 56df 0bbd 0b68 25bd
00000040: 3246 14bd 26f1 2c3d aca8 5a3c 764d ddbb
00000050: faa7 eebc 6a82 1fbd 123c 28bd eb06 98bc
00000060: e226 2c3d abcd 013d 91cc fbbc e81c 2ebd
00000070: 614d f0bc b439 d5bb edf0 383b b416 02bd
00000080: 0b77 ecbb 39a4 86bc df62 7bbd 181c 23bb
00000090: 89ea 303c b68e fb3c 76ff 3abc d2a6 97bc
000000a0: c26c fdbc 298a 6bbd ce4f adbc 0da8 67bc
000000b0: 1279 01bc f01a 76bc 94bf bcbc 58b6 f5bc
000000c0: 438d 44bd 2072 633b 9624 b13c 7f87 8f3b
000000d0: 2728 4e3b 8521 13bc e159 17bc 2392 943b
000000e0: 3e75 f9bb b702 15bb 37cb 103c 71d8 263a
000000f0: 418a 7dba 57be 1dbb 2235 a1bb 7b19 aebc
00000100: e7fe d9bb d8aa 853c 866a 463c de65 5f3c
00000110: 91f1 5d3c 8100 173d 39c6 b2bc 5e6a f9bb
00000120: ef9e c23b aad5 e43c 5299 6b3c 51e2 163d
00000130: e9a4 433d b43a 433c 398f c9bb 88a6 273d
00000140: 9074 813c b4f6 863c 471a 903c 908b 223d
00000150: eabb 123c 52e4 7c3a 8078 8b3b c771 4ebc
00000160: 704d 9a3c 3e7f 0bbc 5f60 1f3d ef17 7b3c
00000170: 9413 513c 2dca ad3b 153d 1dbc cc01 fdbb
00000180: fb36 26bc 4ada 77bc 06f9 203d 3441 bc3d
00000190: 6998 79bd 33d1 45bd 3857 c1bc fb8a adbb
000001a0: d542 0d3c 47bf 2c3d 8624 763d 16b6 1bbd
000001b0: 6683 993c 26b4 543d c45b c43c 2b38 95bc
000001c0: 6804 b43d a476 e9bc 2731 13bd 3ce2 c93c
000001d0: 2ce0 38bc 722d 183c 4043 44bc 4109 bb3d
000001e0: 72e5 393d ffbb c0bd 62ee dbbc ec31 173b
000001f0: 3b64 aebc 024e 90bc d410 263d 9ae7 983d
00000200: 936a a13d 4fd8 45bd 53de a0bd b2b5 46bd
00000210: bab9 063d c6f5 5cbc b568 9a3d 983c 1f3d
00000220: 758f acbc 5360 bbbb de85 b43c b783 fd3c
00000230: b648 1fbd 1110 a73d dcee 123e a8a7 7a3c
00000240: 7308 643d cab7 b43c e438 043c be21 873d
00000250: 4025 943b ce13 393d aa00 5a3d c185 a43c
00000260: cca1 44bc 36b6 063d c349 843d d444 6c3d
00000270: a39d c23d 0877 963d e29b e8bb 5e32 9eba
00000280: 5598 443d ac7a 063d 0f1f 423d d49c 8e3d
00000290: ba3d cabb 2612 69bd 7f0f f9bc dce4 153c
000002a0: 9bfb 00bd c2fe edbc 1713 e6bc 1970 a2bc
000002b0: c017 6f3c 8fef 5abc b5ad ebbc 7c9b 313c
000002c0: d675 f7ba f6ae 7b3b a484 00bd 06a3 d9bc
000002d0: 048e f5bc 7658 9cbd 0d9a cf3c e61a 843c
000002e0: 6161 15bd af60 f63b cde5 f53c 0070 813c
000002f0: fa1c ed3c ec51 febc 310b 933c d782 313c
00000300: 6c28 5c3d 2ac7 a43d d607 8b3d 0a34 363d
00000310: e520 0f80 319c 0900 779f 0480 4484 1180
00000320: dbcc 0d00 8b72 0500 a64e 0000 00dc 0b80
00000330: e680 0100 728c 1580 d59b 0380 72ee 0580
00000340: 3e6a 0b00 b17d 0e00 da07 0380 ae87 1180
00000350: 746b 0580 e5f8 1000 89d0 0c00 17ee 0c00
00000360: 4387 0c00 f9ed 0d80 81de 0200 7eb1 0a80
00000370: ec42 0d00 40f3 1000 36b4 0700 cc14 1400
00000380: 6651 0480 4274 0300 3355 1300 0cd7 0800
00000390: 129b 0a00 eb91 0a80 a9a6 0080 90f0 1380
000003a0: 5f53 0b00 938e 0a80 62c3 0600 2afa 0e80
000003b0: 0387 0e00 015a 0380 8d2d 0e80 3ce3 1000
000003c0: 37ce 1080 c2af 0b80 c056 0580 33d5 0f80
000003d0: 7f9d 1080 7811 0200 96b1 0900 2d50 1000
000003e0: 146c 0000 46cd 0680 6e48 0a00 e5d9 0f00
000003f0: 0561 1500 bede 0800 1ac0 0580 1239 0880

layers.0.1.weight f4 [32]
0.11495284 -1.590367e-39 0.18040559 -1.5359029e-13 -1.196061e-39 1.942941e-06 0.22317708 0.1409061
1.355274e-39 -6.85651e-40 -3.7120661e-22 0.20315735 -0.021109845 -6.02554e-40 8.86181e-40 0.003632905
1.7620632e-14 0.15607522 -6.509629e-22 -7.15158e-40 0.15097558 5.8056e-40 6.02073e-40 0.17494531
-6.72697e-11 1.141868e-39 5.15182e-40 -3.8428e-40 2.5884437e-09 -0.01509435 0.19561298 1.37554e-39
00000000: 656c eb3d 4c51 1180 3ebc 383e 63ed 2caa
00000010: 2206 0d80 7963 0236 8888 643e b049 103e
00000020: f4c1 0e00 5177 0780 7161 e09b 7b08 503e
00000030: 8eee acbc ad8f 0680 50a6 0900 0816 6e3b
00000040: 69b6 9e28 2fd2 1f3e d1bd 449c 92c9 0780
00000050: 5899 1a3e 5d52 0600 568e 0600 dd24 333e
00000060: 79ed 93ae 106f 0c00 1e9c 0500 372f 0480
00000070: 62e0 3131 4b4e 77bc c54e 483e 72fa 0e00

layers.0.1.bias f4 [32]
-0.09848894 -1.466386e-13 0.093627244 -2.2569712e-11 -3.0667353e-14 -1.6145578e-13 0.020021383 -0.100736365
-4.5712835e-30 -1.2401506e-13 -5.0315362e-17 -0.02258967 0.05789401 -4.7431633e-25 -2.8212414e-15 -0.013071678
-2.59799e-20 -0.04304867 -1.1480007e-33 -1.28631e-07 0.015787823 -4.119459e-37 -2.4884237e-05 -0.028530568
-2.5922825e-25 -2.1523036e-21 -8.482303e-05 -0.00024194755 -6.718545e-35 -0.019944264 -0.008967521 -8.635427e-06
00000000: 92b4 c9bd b319 25aa a4bf bf3d 7986 c6ad
00000010: 0d1d 0aa9 76c8 35aa e203 a43c de4e cebd
00000020: ec6e b98e e8a0 0baa e509 68a4 f90d b9bc
00000030: 4522 6d3d 36cb 1297 b84a 4ba7 972a 56bc
00000040: 8b5f f59e cd53 30bd 8dbe be88 d21d 0ab4
00000050: 7755 813c 8d2d 0c83 7ebe d0b7 f0b8 e9bc
00000060: 5b74 a096 9b9f 229d 04e3 b1b8 4db3 7db9
00000070: 0c9c b286 2762 a3bc 82ec 12bc e0e0 10b7

layers.0.1.running_mean f4 [32]
0.033920825 -8.3955e-41 0.0076067867 -5.4922e-41 1.000744e-39 2.5969456e-25 -0.04940609 -0.012983306
-1.11832e-40 -3.56953e-40 -1.9701e-40 -0.022867203 -0.022420097 -4.1991e-41 2.7012e-40 -1.3130483e-07
1.75199e-40 -0.011937126 -4.5545e-41 1.455e-42 -0.021744398 3.76712e-40 8.6391e-41 -0.071599126
-9.7245e-41 1.317e-42 1.78134e-40 3.4131e-41 -1.10527e-40 3.9870308e-08 -0.0037419146 -1.84634e-40
00000000: 90f0 0a3d 08ea 0080 5a42 f93b 1a99 0080
00000010: abe5 0a00 3fbe a016 0a5e 4abd efb7 54bc
00000020: be37 0180 0ae3 0380 2f25 0280 0054 bbbc
00000030: 5aaa b7bc 0e75 0080 fcf0 0200 ccfc 0cb4
00000040: 62e8 0100 ef93 43bc f67e 0080 0e04 0000
00000050: 4f21 b2bc 1f1a 0400 d3f0 0000 90a2 92bd
00000060: 140f 0180 ac03 0000 91f0 0100 255f 0000
00000070: 1b34 0180 de3d 2b33 e93a 75bb af02 0280

layers.0.1.running_var f4 [32]
0.011890036 6e-45 0.01504129 6e-45 6e-45 6e-45 0.016057622 0.011807427
6e-45 6e-45 6e-45 0.014313711 0.0045190826 6e-45 6e-45 1.6955317e-13
6e-45 0.013350814 6e-45 6e-45 0.01309358 6e-45 6e-45 0.025663225
6e-45 6e-45 6e-45 6e-45 6e-45 5.4133852e-14 0.012398555 6e-45
00000000: 6dce 423c 0400 0000 be6f 763c 0400 0000
00000010: 0400 0000 0400 0000 468b 833c f073 413c
00000020: 0400 0000 0400 0000 0400 0000 0e84 6a3c
00000030: d014 943b 0400 0000 0400 0000 60e6 3e2a
00000040: 0400 0000 5fbd 5a3c 0400 0000 0400 0000
00000050: 7486 563c 0400 0000 0400 0000 af3b d23c
00000060: 0400 0000 0400 0000 0400 0000 0400 0000
00000070: 0400 0000 15cc 7329 4f23 4b3c 0400 0000

layers.1.conv1.weight f4 [32, 32, 3, 3]
-1.56742e-40 -1.86603e-40 5.26244e-40 4.20135e-40 -3.71458e-40 1.31262e-40 1.1049e-41 -1.59119e-40
-6.7725e-41 1.955094e-39 1.595605e-39 1.488654e-39 -8.10836e-40 -1.707362e-39 1.853381e-39 1.873444e-39
1.491064e-39 1.334431e-39 -3.58249e-40 5.9334e-40 -1.28e-41 -3.84148e-40 -6.8879e-40 -5.96775e-40
-4.053e-42 -2.74413e-40 7.8773e-41 -1.20784e-40 -3.9898e-40 -1.92435e-40 5.6114e-41 -1.794522e-39
-1.515047e-39 -1.981002e-39 -9.2306e-40 -1.978359e-39 -1.312888e-39 -1.418717e-39 -1.7841e-40 -1.42954e-39
-1.596012e-39 -1.9179e-39 1.088334e-39 1.946353e-39 -1.91026e-40 -1.333047e-39 -1.480402e-39 -1.940578e-39
1.512454e-39 1.663278e-39 -1.181957e-39 1.439901e-39 1.333896e-39 5.27432e-40 9.5456e-41 -2.1458e-41
-7.12562e-40 3.10205e-40 -1.04447e-40 4.52563e-40 5.09993e-40 -6.9559e-40 4.17811e-40 4.02728e-40
-5.95831e-40 -1.99297e-40 5.62537e-40 8.00293e-40 -5.76847e-40 4.62613e-40 -2.87e-42 5.2488e-41
-1.901562e-39 -1.68125e-40 1.614996e-39 -1.708389e-39 -1.31152e-39 1.069377e-39 -1.502392e-39 -1.509686e-39
5.33955e-40 -5.8417e-40 -1.423239e-39 1.138422e-39 -1.792088e-39 9.35141e-40 1.788655e-39 1.4744e-40
-8.68571e-40 5.83702e-40 8.71086e-40 2.04867e-40 -6.96953e-40 7.43613e-40 -1.848973e-39 -1.82177e-40
-5.296e-41 4.13589e-40 1.16588e-40 7.51186e-40 1.57381e-40 6.89706e-40 -6.6876e-41 2.6157e-41
1.8445e-40 7.21697e-40 7.2779e-41 -1.68931e-40 -4.94036e-40 -1.516167e-39 -1.677469e-39 -1.654255e-39
1.868755e-39 -1.638313e-39 -1.116116e-39 1.11743e-39 5.42214e-40 -1.891306e-39 -1.875672e-39 -1.5656e-39
1.928181e-39 1.883714e-39 -1.7768e-39 -1.52422e-39 -1.491025e-39 -1.562434e-39 1.614021e-39 1.283679e-39
1.04679e-39 1.797715e-39 -1.97588e-39 -1.108534e-39 2.16826e-40 1.825291e-39 1.979917e-39 -1.875607e-39
1.101659e-39 1.268604e-39 -9.82247e-40 -3.9888e-40 -1.2423e-40 -1.113249e-39 6.47756e-40 -2.51698e-40
-1.600067e-39 1.519057e-39 -1.77486e-39 1.795213e-39 1.819973e-39 1.66294e-39 1.130562e-39 -1.606017e-39
-1.146377e-39 -8.972e-41 -6.53322e-40 5.05518e-40 2.2434e-40 -7.69669e-40 -6.38149e-40 -6.53378e-40
-7.1386e-41 -7.18535e-40 -1.332828e-39 -1.418794e-39 -1.289279e-39 -1.463546e-39 -1.45229e-39 -1.274978e-39
-1.455425e-39 -1.42009e-39 -1.279821e-39 1.784032e-39 1.738854e-39 1.680476e-39 1.907257e-39 -1.54247e-40
1.274582e-39 1.7678e-39 3.9203e-40 1.55406e-39 -7.5519e-41 5.64044e-40 1.59312e-40 9.9583e-41
-4.3622e-41 3.94136e-40 -2.86858e-40 2.05123e-40 -6.8733e-40 -1.621676e-39 -1.190622e-39 1.58142e-39
-1.115115e-39 -4.80372e-40 1.792325e-39 -6.64636e-40 -5.65347e-40 1.803138e-39 2.96696e-40 1.948164e-39
-7.56181e-40 7.30725e-40 1.94758e-40 1.759035e-39 6.34041e-40 1.910764e-39 1.813083e-39 2.67392e-40
5.75289e-40 6.79135e-40 -6.1749e-40 6.28302e-40 -4.22803e-40 -1.0194e-41 -3.62607e-40 1.92562e-40
1.444959e-39 1.518025e-39 -1.650053e-39 1.680506e-39 -1.38462e-40 1.997992e-39 -5.82691e-40 1.42069e-39
1.173649e-39 1.675671e-39 -1.136763e-39 1.255136e-39 -1.852908e-39 9.09782e-40 -1.136585e-39 9.5979e-40
-1.504278e-39 -1.518105e-39 1.567554e-39 1.54455e-39 1.508637e-39 -1.859959e-39 1.323938e-39 1.685064e-39
-1.945432e-39 1.528193e-39 -1.065044e-39 -1.43587e-40 -2.005948e-39 1.6904e-40 6.6172e-41 1.691776e-39
2.93751e-40 1.077241e-39 -5.62675e-40 -9.25853e-40 3.7881e-40 -7.878e-41 -1.660513e-39 1.601157e-39
00000000: efb4 0180 2c08 0280 f4ba 0500 2a93 0400
00000010: 790b 0480 e86d 0100 cd1e 0000 8fbb 0180
00000020: cabc 0080 024a 1500 e65f 1100 c335 1000
00000030: 48d4 0880 6e97 1280 792e 1400 6666 1400
00000040: 7b3c 1000 da87 0e00 a7e6 0380 fe75 0600
00000050: ae23 0080 d92e 0480 1180 0780 917f 0680
00000060: 4c0b 0080 f4fc 0280 96db 0000 b250 0180
00000070: 3258 0480 6e18 0280 6c9c 0000 668a 1380
00000080: 567f 1080 3a92 1580 1e0d 0a80 dc8a 1580
00000090: cc4b 0e80 ce72 0f80 56f1 0180 fa90 0f80
000000a0: 0861 1180 53e2 1480 d5d9 0b00 a431 1500
000000b0: 8114 0280 fe83 0e80 c21e 1080 8b21 1580
000000c0: 1b78 1000 8b1c 1200 d1de 0c80 dcad 0f00
000000d0: 5c86 0e00 44be 0500 180a 0100 d13b 0080
000000e0: 55c2 0780 ba60 0300 2823 0180 90ed 0400
000000f0: a78d 0500 0693 0780 b08c 0400 a462 0400
00000100: ef7c 0680 8f2b 0280 2020 0600 e4b6 0800
00000110: 0448 0680 9409 0500 0008 0080 5192 0000
00000120: c8b4 1480 aad4 0180 f495 1100 4b9a 1280
00000130: fc47 0e80 fda4 0b00 0f5c 1080 6470 1080
00000140: 73d0 0500 6e5c 0680 697f 0f80 7565 0c00
00000150: 9d83 1380 cb2e 0a00 0b7a 1300 019b 0100
00000160: 3975 0980 205b 0600 3c7c 0900 163b 0200
00000170: d296 0780 e418 0800 2f22 1480 d6fb 0180
00000180: a293 0080 eb80 0400 0045 0100 002e 0800
00000190: b7b6 0100 9f82 0700 6cba 0080 ea48 0000
000001a0: 2c02 0200 ccdb 0700 e1ca 0000 e9d6 0180
000001b0: 2c61 0580 7582 1080 1a44 1280 6403 1280
000001c0: 5459 1400 f3d6 1180 4727 0c80 f12a 0c00
000001d0: 79e7 0500 3198 1480 9c6c 1480 410c 1180
000001e0: fcfe 1400 0783 1400 ff58 1380 e898 1080
000001f0: 5f3c 1080 6e03 1180 3c93 1100 60fa 0d00
00000200: 0666 0b00 4c93 1300 f383 1580 2412 0c80
00000210: 6c5c 0200 2be0 1300 348f 1500 6e6c 1480
00000220: fafe 0b00 5ad0 0d00 1bb2 0a80 ea57 0480
00000230: 4d5a 0180 491f 0c80 ae0d 0700 a2bd 0280
00000240: 566c 1180 838a 1000 9653 1380 538c 1300
00000250: 58d1 1300 9a1b 1200 8c4f 0c00 ec7c 1180
00000260: a27b 0c80 1afa 0080 321d 0780 2e81 0500
00000270: 5e71 0200 8661 0880 e6f2 0680 5a1d 0780
00000280: ffc6 0080 fcd2 0780 6283 0e80 0573 0f80
00000290: fc09 0e80 c5ef 0f80 65d0 0f80 1fe2 0d80
000002a0: 22d9 0f80 a276 0f80 9fef 0d80 286d 1300
000002b0: 38ef 1200 7c4c 1200 a8c4 1400 faad 0180
000002c0: 04e1 0d00 e83f 1300 d244 0400 16ec 1000
000002d0: 84d2 0080 5324 0600 19bc 0100 9915 0100
000002e0: 9a79 0080 b14a 0400 a51f 0380 cd3b 0200
000002f0: ff7b 0780 93a8 1180 f8f6 0c80 5b38 1100
00000300: 7d24 0c80 153b 0580 4684 1300 bc3c 0780
00000310: f527 0680 6aa2 1300 113b 0300 b036 1500
00000320: ed3b 0880 f7f4 0700 e81e 0200 7927 1300
00000330: 73e7 0600 6fce 1400 23be 1300 61e9 0200
00000340: ac43 0600 2765 0700 50b9 0680 73d7 0600
00000350: 9a9a 0480 6b1c 0080 cdf2 0380 c918 0200
00000360: f5bb 0f00 a387 1000 adf7 1180 914c 1200
00000370: fa81 0180 97c1 1500 4e58 0680 4e78 0f00
00000380: a8c7 0c00 173f 1200 d560 0c80 cfaa 0d00
00000390: 272d 1480 1ae8 0900 5660 0c80 8173 0a00
000003a0: 5161 1080 dc87 1080 b411 1100 94d1 1000
000003b0: 776d 1000 cf40 1480 9a6a 0e00 4659 1200
000003c0: 132f 1580 fba3 1000 e998 0b80 4390 0180
000003d0: c4d7 1580 37d7 0100 76b8 0000 fc6b 1200
000003e0: dc32 0300 e9ba 0b00 8220 0680 e714 0a80
000003f0: f81f 0400 9bdb 0080 d614 1280 606f 1100

layers.1.bn1.weight f4 [32]
3.4787972e-06 -3.2698e-40 4.9632764e-08 1.4220823e-37 -3.33163e-40 -3.9895e-40 -6.11105e-40 -1.108636e-39
-0.00038959927 0.0019164142 9.91052e-40 8.917611e-28 -3.9738996e-05 -0.000116719406 0.00023097965 7.0266e-40
-1.5448533e-06 -0.0012574726 1.3564683e-16 6.69671e-40 3.2779633e-35 6.65388e-40 -1.145759e-39 -0.0028370633
-0.0005051509 0.19707446 1.713359e-39 -2.96064e-40 3.04277e-40 -8.4927e-40 0.00021762676 1.3342e-40
00000000: 4875 6936 7d8f 0380 cd2b 5533 5690 4102
00000010: b9a0 0380 1c58 0480 83a7 0680 6d12 0c80
00000020: 2143 ccb9 3130 fb3a a6ca 0a00 214e 8d12
00000030: 6cad 26b8 41c7 f4b8 2133 7239 bba6 0700
00000040: c158 cfb5 c7d1 a4ba e163 1c25 c54a 0700
00000050: 5349 2e06 d53e 0700 e979 0c80 06ee 39bb
00000060: 1a6c 04ba e3cd 493e 26a8 1200 4e39 0380
00000070: 3350 0300 6b3f 0980 bd32 6439 ec73 0100

layers.1.bn1.bias f4 [32]
-0.000114437054 3.6207972e-37 -2.4896177e-05 -0.021201462 -0.00024606465 -2.1671773e-30 -1.4202381e-37 -3.9224206e-21
-0.0011015723 -0.023282487 -1.1732813e-38 -2.3466636e-19 -0.036913447 -0.00017941077 -0.00061175955 -2.561194e-39
-4.3841585e-13 -0.0043272646 -2.856387e-14 -1.4621345e-37 -1.7592303e-19 3.5819657e-37 -3.7769175e-13 -0.0037882559
-0.0046005356 -0.02333457 -3.2990113e-07 -2.0285186e-31 -5.566804e-38 -3.0359357e-10 -0.00019284029 -0.001985335
00000000: edfd efb8 2f6b f602 22d8 d0b7 b0ae adbc
00000010: 3d02 81b9 83d2 2f8e 1350 4182 532f 949d
00000020: a262 90ba eaba bebc 4fc2 7f80 c785 8aa0
00000030: 8e32 17bd 3620 3cb9 7d5e 20ba 91e3 1b80
00000040: 62ce f6aa bacb 8dbb e6a3 00a9 f403 4782
00000050: 79b1 4fa0 a5c6 f302 1e9f d4aa 6344 78bb
00000060: 17c0 96bb 2428 bfbc 441d b1b4 8ca8 838c
00000070: f68a 9781 ffe6 a6af 2c35 4ab9 651c 02bb

layers.1.bn1.running_mean f4 [32]
-4.37931e-40 -6.433e-42 -1.3631771e-30 1.1439e-41 4.85156e-40 2.26912e-40 -1.75534e-40 -2.03285e-40
1.3487843e-15 -8.974998e-05 1.40766e-40 -4.08736e-40 0.07782676 -2.3284136e-20 -5.55821e-40 -2.75278e-40
3.84387e-40 1.2296015e-06 -1.51179e-40 -4.59504e-40 -1.36397e-40 1.18533e-40 -2.92238e-40 -2.1044148e-10
-2.5364673e-17 -0.41491383 6.91377e-40 -5.6635e-41 4.51207e-40 -7.40672e-40 1.8225596e-38 -5.93855e-40
00000000: c6c4 0480 ef11 0080 2930 dd8d e31f 0000
00000010: 6b48 0500 8a78 0200 51e9 0180 ad36 0280
00000020: 5c61 c226 2738 bcb8 6688 0100 6473 0480
00000030: a363 9f3d 96e9 db9e 670d 0680 5dff 0280
00000040: 842f 0400 c908 a535 6da5 0180 e900 0580
00000050: 387c 0180 6c4a 0100 a42e 0380 0362 67af
00000060: a4f2 e9a3 966f d4be 4787 0700 e09d 0080
00000070: c8e9 0400 b110 0880 8c75 c600 6d77 0680

layers.1.bn1.running_var f4 [32]
6e-45 6e-45 6e-45 6e-45 6e-45 6e-45 6e-45 6e-45
2.1500558e-29 2.6126052e-08 6e-45 6e-45 0.0044421703 8.49609e-40 6e-45 6e-45
6e-45 2.5063543e-12 6e-45 6e-45 6e-45 6e-45 6e-45 6.1523406e-20
8.802032e-34 0.07648205 6e-45 6e-45 6e-45 6e-45 6e-45 6e-45
00000000: 0400 0000 0400 0000 0400 0000 0400 0000
00000010: 0400 0000 0400 0000 0400 0000 0400 0000
00000020: a40a da0f cc6b e032 0400 0000 0400 0000
00000030: a08f 913b 5d40 0900 0400 0000 0400 0000
00000040: 0400 0000 775e 302c 0400 0000 0400 0000
00000050: 0400 0000 0400 0000 0400 0000 9e44 911f
00000060: b43f 9208 9fa2 9c3d 0400 0000 0400 0000
00000070: 0400 0000 0400 0000 0400 0000 0400 0000

layers.1.conv2.weight f4 [32, 32, 3, 3]
4.4374e-41 2.87294e-40 7.87081e-40 -1.71602e-40 5.60215e-40 3.3335e-40 -7.96477e-40 -5.76372e-40
7.09955e-40 -1.118938e-39 1.677716e-39 -6.69783e-40 6.24148e-40 1.81181e-39 -4.44287e-40 4.88437e-40
-9.28311e-40 1.10694e-40 -7.51428e-40 7.03179e-40 -8.17522e-40 -7.74869e-40 7.84733e-40 -4.7915e-40
-3.999e-40 -2.67578e-40 -1.6373e-41 0.0064956658 0.0047278306 0.004063181 -0.0030251124 -5.7316756e-09
0.0016699407 -0.003298179 -0.0042995973 -0.001662809 1.84265e-40 -5.3006e-41 -4.49272e-40 -5.56614e-40
1.792373e-39 -3.7088e-41 3.85866e-40 -8.52678e-40 6.68861e-40 -5.44418e-40 -3.45218e-40 7.65567e-40
-7.8618e-40 -3.4963e-40 -2.94851e-40 8.9674e-40 3.82587e-40 -6.81875e-40 1.618127e-39 1.73846e-40
5.32634e-40 1.50048e-39 7.77665e-40 -1.05975e-40 3.50081e-40 -3.34804e-40 -9.24595e-40 1.075775e-39
2.14898e-40 8.57108e-40 -1.343771e-39 2.45463e-40 1.57933e-40 5.26647e-40 -9.00675e-40 -3.74559e-40
-2.73727e-40 5.36536e-40 6.47365e-40 -5.1032e-41 2.00503e-40 -5.214e-42 -2.00241e-40 -5.27799e-40
-2.68783e-40 -9.834314e-06 9.15929e-06 4.9220896e-05 -0.000121731864 3.579201e-05 -5.91025e-05 -0.00054626784
-2.8375587e-05 -0.00021076517 -6.79424e-40 -2.87325e-40 9.99961e-40 -1.561481e-39 1.032079e-39 -1.190581e-39
-6.44125e-40 1.026752e-39 -1.17509e-39 -7.13052e-40 -5.83852e-40 7.80998e-40 6.72469e-40 -2.1307e-41
-4.77116e-40 -5.17005e-40 -5.97287e-40 3.2999e-40 0.002537986 -0.0047755726 -0.018171588 0.014568218
-0.019592166 -0.005853351 0.009854819 -0.0009465169 -0.00029964093 -5.47189e-40 -6.10415e-40 5.14321e-40
-2.18081e-40 9.2251e-40 1.90002e-40 -4.95826e-40 -2.41671e-40 -1.51682e-40 -1.92529e-40 3.77328e-40
-6.27612e-40 -3.79317e-40 5.55705e-40 2.7021e-41 4.66991e-40 -1.37763e-40 7.03513e-40 2.72611e-40
-7.71584e-40 6.51284e-40 -3.5489e-41 1.26708e-40 1.18436e-39 -8.2762e-41 -7.7481e-40 1.40238e-40
6.53441e-40 6.02128e-40 2.99916e-40 -9.4169e-41 8.60519e-40 -8.52928e-40 -7.83288e-40 5.11967e-40
7.38588e-40 -1.5425777e-22 3.0482247e-33 1.800591e-27 3.0442018e-32 -2.0124938e-35 3.747085e-28 5.9062836e-24
-2.263155e-25 -4.861606e-22 -7.43668e-40 -4.52966e-40 6.86409e-40 4.848e-42 -2.27602e-40 9.40714e-40
-5.66112e-40 -4.24722e-40 -7.02391e-40 -1.293735e-39 -1.007371e-39 3.11524e-40 -4.29184e-40 -1.055815e-39
-1.271027e-39 8.70624e-40 1.186995e-39 -1.280584e-39 2.32971e-40 9.03704e-40 -6.34537e-40 -5.6583e-40
-8.6516e-41 5.76224e-40 -2.68848e-40 -8.46028e-40 -9.8436e-41 -4.09814e-40 -5.93814e-40 -3.69004e-40
1.216173e-39 -1.735804e-39 -1.20775e-39 1.89209e-40 -1.22761e-39 9.32933e-40 -2.46893e-40 -4.43683e-40
-2.0086e-40 2.5563e-40 1.799329e-39 -7.01144e-40 7.3328e-40 8.51227e-40 3.30762e-40 2.8612462e-17
-4.5376756e-30 -2.3435255e-19 5.2952968e-33 6.3411e-40 -1.8962532e-14 5.9679316e-15 1.6692975e-17 -4.2666064e-19
-1.44845e-40 2.130202e-23 -1.3761634e-22 -1.9038716e-29 -6.00721e-20 -1.2200237e-20 3.66344e-40 2.2024951e-29
1.5656649e-25 0.041294836 -0.01932208 0.046807017 -0.03640303 -0.10037764 -0.0262293 -0.0039569796
-0.0269236 0.14221889 -7.3407727e-31 2.141101e-30 1.1699071e-30 3.518197e-31 5.3524694e-36 -3.0947605e-30
3.170849e-31 4.101892e-31 2.6081227e-30 -1.6489218e-32 3.6547993e-33 -1.6484138e-32 -1.5520437e-32 -7.922737e-33
-3.0433758e-33 -4.7875722e-32 -6.183567e-32 -8.5061833e-32 -9.44729e-40 1.049228e-39 -1.165977e-39 -3.87968e-40
00000000: b27b 0000 dc20 0300 1092 0800 5bde 0180
00000010: a719 0600 3fa1 0300 41ac 0880 b146 0680
00000020: 11bb 0700 252f 0c80 ca44 1200 154b 0780
00000030: dfcb 0600 97ba 1300 7ed6 0480 9051 0500
00000040: c11b 0a80 9234 0100 ad2e 0880 2da8 0700
00000050: ebe6 0880 0570 0880 848b 0800 ad37 0580
00000060: c25a 0480 e6e9 0280 a42d 0080 98d9 d43b
00000070: ebeb 9a3b 6f24 853b f740 46bb 5af0 c4b1
00000080: e9e1 da3a 4326 58bb a3e3 8cbb 9df2 d9ba
00000090: a801 0200 c293 0080 63e4 0480 9d0f 0680
000000a0: 6884 1300 6367 0080 a333 0400 eb48 0980
000000b0: 8348 0700 9eed 0580 54c2 0380 1756 0800
000000c0: 8d8f 0880 a0ce 0380 ed35 0380 bfc3 0900
000000d0: 7f2a 0400 ca6c 0780 ae9e 1100 9de4 0100
000000e0: c4cc 0500 ba56 1000 d077 0800 6a27 0180
000000f0: e2cf 0300 4ca5 0380 6511 0a80 d3b6 0b00
00000100: 0c57 0200 4555 0900 e3a1 0e80 40ac 0200
00000110: 41b8 0100 14bc 0500 b7ce 0980 1e14 0480
00000120: 0afb 0280 a5d7 0500 970c 0700 428e 0080
00000130: ec2e 0200 890e 0080 312e 0280 4abf 0580
00000140: 42ed 0280 0ffe 24b7 daaa 1937 8972 4e38
00000150: 4c4a ffb8 611f 1638 d3e4 77b8 6a33 0fba
00000160: 1c08 eeb7 d800 5db9 f565 0780 f220 0380
00000170: 7ce3 0a00 c600 1180 043d 0b00 dbf6 0c80
00000180: 8f03 0780 2b2e 0b00 accb 0c80 b3c3 0780
00000190: 8b5b 0680 1b81 0800 9252 0700 653b 0080
000001a0: 0132 0580 33a1 0580 fe80 0680 e197 0300
000001b0: 5754 263b 687c 9cbb 95dc 94bc 89af 6e3c
000001c0: c07f a0bc 78cd bfbb 1b76 213c ad1f 78ba
000001d0: 2019 9db9 57f5 0580 97a5 0680 b899 0500
000001e0: ec5f 0280 950b 0a00 a611 0200 2966 0580
000001f0: aea1 0280 d4a6 0180 b118 0280 d61b 0400
00000200: 87d5 0680 6221 0480 140d 0600 534b 0000
00000210: c815 0500 0780 0180 1ca9 0700 eef7 0200
00000220: dd66 0880 8417 0700 ee62 0080 3661 0100
00000230: 84e5 0c00 b5e6 0080 db6f 0880 ed86 0100
00000240: 871d 0700 7d8e 0600 0b44 0300 8106 0180
00000250: c75e 0900 9e49 0980 7d87 0880 2893 0500
00000260: e20a 0800 787c 3a9b 923c 7d09 53a8 0e13
00000270: 6210 1e0b 4b01 d685 ee7f ed11 007d e418
00000280: 1f15 8c96 dbee 129c 0b19 0880 afee 0480
00000290: 6e79 0700 840d 0000 767a 0280 543e 0a00
000002a0: 172a 0680 f49f 0480 fba5 0780 6816 0e80
000002b0: 24f8 0a80 6764 0300 64ac 0480 2f7f 0b80
000002c0: 1bd7 0d80 f27a 0900 dcec 0c00 bff1 0d80
000002d0: 6e89 0200 29d7 0900 d5e8 0680 4e29 0680
000002e0: 2cf1 0080 4746 0600 70ed 0280 6236 0980
000002f0: 6612 0180 6576 0480 5077 0680 a204 0480
00000300: 323e 0d00 b7e6 1280 b726 0d80 700f 0200
00000310: 145e 0d80 a328 0a00 3db0 0280 cfd4 0480
00000320: ea2f 0280 98c8 0200 cc97 1300 81a2 0780
00000330: 16fc 0700 e044 0900 089a 0300 a2f3 0324
00000340: eb11 b88e 5b56 8aa0 41f5 db09 a4e7 0600
00000350: 9fcc aaa8 7404 d727 2cf7 9923 22db fba0
00000360: c593 0180 3f05 ce19 325e 269b 5513 c18f
00000370: 5bd7 8d9f ba74 669e 38fd 0300 0b5c df0f
00000380: e7d1 4116 c624 293d 5749 9ebc b7b8 3f3d
00000390: 581b 15bd cb92 cdbd d4de d6bc 8da9 81bb
000003a0: e28e dcbc d4a1 113e c138 6e8d eeb4 2d0e
000003b0: 0ad4 bd0d 1358 e40c 3bab e304 a913 7b8e
000003c0: c4cc cd0c 2f1d 050d 9798 530e dc3b ab8a
000003d0: 7ed0 9709 5b2e ab8a 662c a18a 7f8c 248a
000003e0: 72d5 7c89 c095 788b da88 a08b 49d5 dc8b
000003f0: 8549 0a80 d26c 0b00 45b2 0c80 7f39 0480

layers.1.bn2.weight f4 [32]
-0.08429867 1.877645e-39 0.12934607 -3.4299723e-15 -1.330283e-39 -1.838726e-39 0.061055243 0.170407
-1.9231e-41 0.24552654 -1.7465e-40 0.13060929 -1.0661463e-36 1.907767e-39 -1.840485e-39 0.014555418
1.738592e-39 0.087880746 -1.042709e-39 -1.054577e-39 0.057315953 1.036842e-39 -1.813353e-39 0.04188898
8.723e-41 1.713382e-39 -1.153581e-39 3.71159e-40 4.095428e-22 1.182631e-39 0.12136533 6.04788e-40
00000000: c8a4 acbd 1c72 1400 4c73 043e d227 77a7
00000010: 4a7c 0e80 9f05 1480 1015 7a3d 2c7f 2e3e
00000020: 9c35 0080 4f6b 7b3e dae6 0180 71be 053e
00000030: 3865 b583 14c6 1400 860a 1480 d979 6e3c
00000040: 7dee 1200 d2fa b33d a65a 0b80 bb7b 0b80
00000050: 22c4 6a3d 4b4a 0b00 e4be 1380 c793 2b3d
00000060: 29f3 0000 36a8 1200 b78f 0c80 a40a 0400
00000070: ae8d f71b b2e0 0c00 638e f83d e795 0600

layers.1.bn2.bias f4 [32]
-0.08140741 0.0014896868 0.13226527 -1.3759997e-12 -3.0871104e-20 -2.0479933e-30 0.06661146 0.06949857
-2.9420781e-33 0.06301257 -1.4470456e-17 0.05339444 -0.011356407 -4.055885e-19 -7.169947e-17 -0.04824299
-1.820517e-34 0.043661196 -4.6060544e-19 -9.08976e-08 0.02424971 -9.329349e-19 -2.4884619e-05 0.039605606
-9.719745e-06 -5.0253916e-21 -0.00092766905 -0.0002581335 -2.6542358e-21 -0.02202083 -0.021284172 -7.188579e-06
00000000: eeb8 a6bd 9841 c33a 8c70 073e 9da7 c1ab
00000010: e0c8 119f 2827 268e 976b 883d 4455 8e3d
00000020: 156b 7489 bc0c 813d 6677 85a3 21b4 5a3d
00000030: 3910 3abc cd6a efa0 e653 a5a4 719a 45bd
00000040: fcfc 7187 15d6 323d 5df2 07a1 7c33 c3b3
00000050: 54a7 c63c 49ad 89a1 50bf d0b7 7d39 223d
00000060: fd11 23b7 9bda bd9d d12e 73ba 1856 87b9
00000070: 638c 489d 0765 b4bc 255c aebc 6c35 f1b6

layers.1.bn2.running_mean f4 [32]
-0.0023293141 3.2104e-41 0.02522129 9.0112e-41 -2.057e-42 -8.1242e-41 0.024628457 0.0057134647
-2.005e-42 0.0040423917 -5.6991e-41 0.030086813 -5.8203e-41 -9.49e-42 -5.374e-41 0.005473419
-1.7616e-41 0.02315444 7.872e-42 1.47488e-40 0.020465795 5.059e-42 4.504e-41 0.023757342
5.434e-41 1.41072e-40 1.56276e-40 -2.2625e-41 3.0471e-41 -8.174e-42 0.01901375 4.224e-41
00000000: 68a7 18bb 7e59 0000 e19c ce3c 32fb 0000
00000010: bc05 0080 78e2 0080 9ec1 c93c 0438 bb3b
00000020: 9705 0080 0a76 843b de9e 0080 9f78 f63c
00000030: 3fa2 0080 741a 0080 ce95 0080 5e5a b33b
00000040: 1b31 0080 61ae bd3c f215 0000 239b 0100
00000050: e2a7 a73c 1a0e 0000 8e7d 0000 c29e c23c
00000060: 7a97 0000 4089 0100 a2b3 0100 123f 0080
00000070: f154 0000 c916 0080 b9c2 9b3c bf75 0000

layers.1.bn2.running_var f4 [32]
0.00014642988 6e-45 0.00082217646 6e-45 6e-45 6e-45 0.0006881421 0.0004212091
6e-45 0.00029555656 6e-45 0.0009549557 6e-45 6e-45 6e-45 3.941e-05
6e-45 0.00062391395 6e-45 6e-45 0.00050386315 6e-45 6e-45 0.0006167993
6e-45 6e-45 6e-45 6e-45 6e-45 6e-45 0.00068120094 6e-45
00000000: f98a 1939 0400 0000 5487 573a 0400 0000
00000010: 0400 0000 0400 0000 6f64 343a bad5 dc39
00000020: 0400 0000 eef4 9a39 0400 0000 fe55 7a3a
00000030: 0400 0000 0400 0000 0400 0000 2a4c 2538
00000040: 0400 0000 288e 233a 0400 0000 0400 0000
00000050: af15 043a 0400 0000 0400 0000 b3b0 213a
00000060: 0400 0000 0400 0000 0400 0000 0400 0000
00000070: 0400 0000 0400 0000 9f92 323a 0400 0000

layers.2.conv1.weight f4 [32, 32, 3, 3]
-5.7222e-40 4.21917e-40 -2.70135e-40 -3.5577e-40 5.73987e-40 7.00529e-40 6.359e-42 -1.33017e-40
4.71285e-40 1.924444e-39 -1.480854e-39 -1.463006e-39 1.809679e-39 -1.13804e-39 1.709671e-39 1.624986e-39
1.579202e-39 -1.791982e-39 2.36059e-40 -3.12216e-40 2.42521e-40 6.88223e-40 -4.78082e-40 3.75852e-40
-4.14999e-40 -6.7495e-40 1.0127613e-38 1.087628e-39 1.162593e-39 1.586154e-39 5.98703e-40 1.58348e-40
-1.38692e-39 1.608943e-39 -1.522694e-39 -1.829694e-39 -1.92461e-39 -1.844858e-39 -1.397415e-39 -1.904268e-39
-1.717657e-39 -1.188845e-39 -1.406175e-39 -1.098177e-39 -8.77029e-40 1.837221e-39 1.295733e-39 1.687376e-39
1.801009e-39 -1.502823e-39 -1.491494e-39 1.866665e-39 -9.91967e-40 -5.89121e-40 -5.00608e-40 -4.32902e-40
-6.90155e-40 6.0153e-40 -2.8751e-40 -6.67476e-40 -4.4225e-41 1.7965e-41 4.66318e-40 -3.03e-41
-3.90126e-40 7.1755e-41 -1.58725e-40 -2.81714e-40 -6.19448e-40 2.01791e-40 6.93193e-40 -3.49289e-40
1.802248e-39 -1.739866e-39 -9.54678e-40 -1.574911e-39 1.5768e-39 -2.03138e-39 -1.147818e-39 -2.017155e-39
1.569037e-39 6.94526e-40 -4.68681e-40 -5.22113e-40 -6.37138e-40 3.38175e-40 -6.9902e-41 -5.06422e-40
2.63964e-40 -5.20943e-40 1.333921e-39 1.48557e-39 1.357069e-39 1.469446e-39 1.457205e-39 1.145058e-39
1.710487e-39 1.342598e-39 1.453266e-39 -2.21093e-40 4.96296e-40 7.28611e-40 7.01602e-40 -5.391e-42
-7.0769e-40 7.7205e-41 -6.2926e-40 -3.32318e-40 -9.93179e-40 6.23215e-40 -9.05087e-40 -9.68153e-40
5.11027e-40 -2.01103e-40 -1.497671e-39 9.06612e-40 1.545786e-39 -1.031e-39 -9.0433e-41 -1.55092e-40
1.50794e-39 6.20562e-40 4.45596e-40 1.814823e-39 1.505304e-39 -1.787519e-39 1.788895e-39 -4.23952e-40
1.420709e-39 2.001915e-39 -7.10509e-40 1.390007e-39 -1.428358e-39 -1.399499e-39 -6.03451e-40 1.989578e-39
1.07344e-39 -2.019892e-39 -1.887849e-39 1.398521e-39 1.576197e-39 1.594165e-39 7.75416e-40 1.507944e-39
1.058772e-39 7.12395e-40 1.80265e-39 6.3358e-40 -1.158982e-39 -1.17863e-39 -1.185975e-39 -1.4801e-40
-1.935972e-39 1.2986e-40 -5.01707e-40 4.6133e-40 5.79845e-40 2.92891e-40 4.80033e-40 4.23719e-40
-3.42636e-40 -6.16912e-40 1.95624e-40 3.85158e-40 9.244e-42 -1.097046e-39 -6.88253e-40 -9.51075e-40
1.081919e-39 3.57157e-40 -3.6282e-40 9.91859e-40 -1.821582e-39 4.83678e-40 -9.3252e-41 2.34891e-40
1.037521e-39 -1.91532e-39 -3.6927e-40 1.07163e-39 -6.3789e-41 -2.95231e-40 -3.5884e-40 -3.94494e-40
-5.6626e-40 4.62478e-40 -4.53927e-40 6.05637e-40 7.179072e-39 1.95833e-39 -1.75482e-39 1.769072e-39
1.059317e-39 1.768139e-39 1.845291e-39 -1.939485e-39 1.478139e-39 -1.954273e-39 -2.07426e-40 -3.28687e-40
4.31617e-40 6.38778e-40 1.593425e-39 -4.98795e-40 4.72755e-40 8.45038e-40 9.53883e-40 -2.31244e-40
6.02422e-40 -3.19975e-40 7.09667e-40 -5.71852e-40 4.63613e-40 -5.67324e-40 -1.24794e-40 1.47473e-40
1.321804e-39 -1.570444e-39 -1.471002e-39 7.87526e-40 -1.679794e-39 1.71669e-39 1.603441e-39 2.003691e-39
-4.19524e-40 -1.14074e-39 -5.42958e-40 1.088914e-39 1.821663e-39 -1.050821e-39 5.9078e-40 5.71218e-40
-1.824195e-39 1.873449e-39 -5.77725e-40 1.679117e-39 1.778758e-39 -1.0961e-41 1.593133e-39 -1.41404e-39
-1.606223e-39 1.863546e-39 1.08995e-39 1.95266e-39 -1.790244e-39 -8.57321e-40 -1.187434e-39 5.91759e-40
1.191724e-39 5.75187e-40 1.316356e-39 -8.03652e-40 1.580921e-39 -7.1134e-41 1.483342e-39 -1.435018e-39
00000000: 1e3b 0680 2298 0400 07f1 0280 bedf 0380
00000010: 0b40 0600 caa0 0700 ba11 0000 cc72 0180
00000020: c021 0500 91f4 1400 0520 1080 44ee 0f80
00000030: a6b4 1300 6464 0c80 de9d 1200 cdb1 1100
00000040: 2c32 1100 5183 1380 0992 0200 5566 0380
00000050: 0da4 0200 7c7e 0700 b334 0580 b917 0400
00000060: d984 0480 7c59 0780 aa47 6e00 ddd7 0b00
00000070: d6a8 0c00 8d45 1100 f184 0600 69b9 0100
00000080: 2b1a 0f80 1485 1100 a794 1080 71ec 1380
00000090: 08f5 1480 b716 1480 6d37 0f80 53bc 1480
000000a0: 21b4 1280 04f2 0c80 d84f 0f80 45f5 0b80
000000b0: cd8c 0980 6d01 1400 fa1b 0e00 b85f 1200
000000c0: 7b9c 1300 425d 1080 ae3d 1080 8153 1400
000000d0: 33cd 0a80 3b6a 0680 7e73 0580 c1b6 0480
000000e0: df83 0780 d28c 0600 7621 0380 a744 0780
000000f0: 487b 0080 1432 0000 e813 0500 7754 0080
00000100: 833f 0480 06c8 0000 76ba 0180 4e11 0380
00000110: c5be 0680 8332 0200 578c 0700 adcd 0380
00000120: ef9f 1300 0af2 1280 4165 0a80 3626 1180
00000130: 7a2b 1100 a91e 1680 a67f 0c80 02f7 1580
00000140: d615 1100 0e90 0700 7e1a 0580 70af 0580
00000150: 15f0 0680 b2ae 0300 dcc2 0080 b383 0580
00000160: d3df 0200 2dac 0580 6e86 0e00 2a2d 1000
00000170: f5c6 0e00 3800 1000 18de 0f00 f577 0c00
00000180: 24a0 1200 9e9e 0e00 1dd3 0f00 5168 0280
00000190: 7967 0500 12ef 0700 c8a3 0700 070f 0080
000001a0: c0b4 0780 37d7 0000 1fda 0680 5e9e 0380
000001b0: 94d0 0a80 45c9 0600 04db 0980 d18a 0a80
000001c0: 8990 0500 9830 0280 e64e 1080 44df 0900
000001d0: 06d5 1000 023a 0b80 17fc 0080 55b0 0180
000001e0: 866b 1000 e0c1 0600 24da 0400 fdc2 1300
000001f0: 2d64 1000 e076 1380 b67a 1300 ce9d 0480
00000200: 5c78 0f00 86cc 1500 9cbc 0780 c622 0f00
00000210: ae8d 0f80 3c3d 0f80 2d92 0680 22aa 1500
00000220: 50b0 0b00 a3fe 1580 8e8e 1480 823a 0f00
00000230: cc29 1100 e25b 1100 8b71 0800 896b 1000
00000240: 6d87 0b00 dec1 0700 0ea1 1300 2ae6 0600
00000250: c59e 0c80 8ad5 0c80 04ea 0c80 979c 0180
00000260: b414 1580 ff69 0100 8e76 0580 0006 0500
00000270: 5f50 0600 7630 0300 233a 0500 289d 0400
00000280: 21bb 0380 b3b7 0680 5221 0200 aa31 0400
00000290: c519 0000 1ef2 0b80 927e 0780 365b 0a80
000002a0: f3c7 0b00 9ce3 0300 65f3 0380 e6cc 0a00
000002b0: d4d5 1380 4c44 0500 f303 0180 c88e 0200
000002c0: 304c 0b00 22db 1480 6005 0480 45ab 0b00
000002d0: d1b1 0080 fc36 0380 4de8 0380 b04b 0480
000002e0: 812a 0680 3309 0500 5df1 0480 4598 0600
000002f0: 552c 4e00 0753 1500 b91b 1380 7443 1300
00000300: f288 0b00 da40 1300 ec17 1400 7f1e 1580
00000310: 7318 1000 b847 1580 3842 0280 3f94 0380
00000320: 2cb3 0400 a7f4 0600 d259 1100 706e 0580
00000330: d925 0500 9f33 0900 0a63 0a00 9d84 0280
00000340: 4f8f 0600 f67b 0380 43ba 0700 173a 0680
00000350: 5d0c 0500 782d 0680 e05b 0180 189b 0100
00000360: a764 0e00 c219 1180 8e04 1080 4d93 0800
00000370: 954a 1280 6fb1 1200 be75 1100 7ad1 1500
00000380: 7691 0480 eb6b 0c80 8ce9 0580 73db 0b00
00000390: 0ed6 1300 4371 0b80 db6e 0600 5338 0600
000003a0: 1ddd 1380 6a66 1400 764a 0680 b248 1200
000003b0: 745e 1300 8e1e 0080 0259 1100 c565 0f80
000003c0: 7f7d 1180 cf4a 1400 56de 0b00 3943 1500
000003d0: 797e 1380 dd55 0980 15ee 0c80 9571 0600
000003e0: 0bfa 0c00 6343 0600 7755 0e00 41c0 0880
000003f0: f736 1100 4bc6 0080 f426 1000 3fa0 0f80

layers.2.bn1.weight f4 [32]
-9.1497634e-07 5.87316e-40 -0.0005664695 -1.994416e-06 -0.000533477 -2.027698e-39 -1.758994e-39 -3.736999e-08
-6.571949e-14 7.33567e-40 -0.0013869337 1.913236e-39 4.918537e-39 -3.3618208e-18 6.32863e-40 -1.766428e-39
-1.498498e-39 3.70056e-40 -6.13669e-40 -0.0020200643 -1.62951e-40 -9.56271e-40 0.0003732814 0.006313963
0.00017362695 -0.00033406634 0.23795412 -5.62043e-40 0.10744842 -6.0311435e-05 -1.19119e-40 -0.00011232365
00000000: b29c 75b5 3365 0600 207f 14ba ced7 05b6
00000010: 09d9 0bba 6614 1680 5c27 1380 bd80 20b3
00000020: b5fc 93a9 e3fc 0700 c6c9 b5ba 53d5 1400
00000030: e18e 3500 000f 78a2 2ae4 0600 153c 1380
00000040: 3451 1080 9107 0400 a9ae 0680 0e63 04bb
00000050: 3ec6 0180 b269 0a80 fbb4 c339 5ce5 ce3b
00000060: a10f 3639 a025 afb9 3faa 733e bf1e 0680
00000070: eb0d dc3d e9f6 7cb8 0e4c 0180 4d8f ebb8

layers.2.bn1.bias f4 [32]
-1.6878062e-08 -2.4277624e-05 -0.0027174384 -3.2285826e-07 -0.0023680145 -1.9674898e-18 -5.7706555e-17 -1.05310605e-08
-1.5479961e-11 -1.2508621e-13 -0.013830224 -2.2037407e-12 -0.00011682998 -4.881674e-39 -6.3276e-29 1.5170284e-29
3.4251098e-31 -6.22546e-40 -1.5178567e-37 -0.008849038 -1.7239442e-36 -0.00026328085 -0.0006534425 -0.04263076
-9.277143e-06 -0.00040971406 0.007646951 3.1834924e-13 -0.068033904 -5.479074e-05 -2.4927533e-07 -3.3962995e-05
00000000: 40fb 90b2 cda7 cbb7 0d17 32bb 4d55 adb4
00000010: b130 1bbb d52c 11a2 f00f 85a4 18ec 34b2
00000020: c629 88ad a5d5 0caa 2a98 62bc 1013 1bac
00000030: 9e02 f5b8 1f28 3580 796c a090 4fd8 990f
00000040: 664d de0c 68c7 0680 9699 4e82 8efb 10bc
00000050: 2ea8 1284 f508 8ab9 c94b 2bba 989d 2ebd
00000060: 07a5 1bb7 e4ce d6b9 4693 fa3b f636 b32a
00000070: 5c55 8bbd 1ccf 65b8 24d4 85b4 7d73 0eb8

layers.2.bn1.running_mean f4 [32]
2.177667e-39 1.37651e-39 -0.00017374898 -4.0016858e-25 4.068897e-16 -3.11087e-40 9.37417e-40 -2.72518e-40
6.853262e-36 1.530977e-39 -2.3161012e-06 1.219481e-39 -4.25485e-40 -2.87213e-40 9.43e-42 -2.333787e-39
-1.094785e-39 5.48685e-40 2.33343e-40 3.0431042e-05 -5.9833e-40 1.155076e-39 -8.954538e-31 -0.019659344
-2.8977225e-17 1.2243934e-30 -0.45868552 -6.75311e-40 0.31236428 -3.5934558e-22 6.0131e-40 3.0314369e-13
00000000: 73b6 1700 26fd 0e00 6330 36b9 3eb1 f796
00000010: 528e ea25 2f63 0380 2335 0a00 abf7 0280
00000020: b5c0 1105 beab 1000 516e 1bb6 6b47 0d00
00000030: 14a2 0480 a220 0380 491a 0000 a669 1980
00000040: d1eb 0b80 83f9 0500 778a 0200 2a46 ff37
00000050: e783 0680 e293 0c00 b24b 918d a20c a1bc
00000060: 45a2 05a4 50ab c60d d4d8 eabe 7e5a 0780
00000070: 36ee 9f3e 0936 d99b 358c 0600 9ca7 aa2a

layers.2.bn1.running_var f4 [32]
6e-45 6e-45 9.610735e-05 6e-45 2.020437e-31 6e-45 6e-45 6e-45
6e-45 6e-45 2.0901782e-08 6e-45 6e-45 6e-45 6e-45 6e-45
6e-45 6e-45 6e-45 5.670018e-09 6e-45 6e-45 6e-45 0.0021428035
9.476465e-34 6e-45 0.049177404 6e-45 0.026775079 1.65e-43 6e-45 2.9385744e-26
00000000: 0400 0000 0400 0000 3e8d c938 0400 0000
00000010: 4522 830c 0400 0000 0400 0000 0400 0000
00000020: 0400 0000 0400 0000 818b b332 0400 0000
00000030: 0400 0000 0400 0000 0400 0000 0400 0000
00000040: 0400 0000 0400 0000 0400 0000 01d2 c231
00000050: 0400 0000 0400 0000 0400 0000 476e 0c3b
00000060: 6d74 9d08 0400 0000 3f6e 493d 0400 0000
00000070: 6957 db3c 7600 0000 0400 0000 db82 1115

layers.2.conv2.weight f4 [32, 32, 3, 3]
-1.07468e-40 2.25823e-40 3.13982e-40 3.28202e-40 4.71688e-40 -2.85e-41 2.27767e-40 2.89787e-40
-2.70329e-40 -2.126229e-29 2.9564716e-29 5.8694617e-29 2.990426e-29 -3.3107026e-35 1.4346192e-28 1.6224414e-28
-3.0290274e-30 2.0077679e-28 9.022908e-12 -6.38874e-08 -6.163594e-08 4.0804125e-13 2.5353172e-08 -2.5192305e-08
-6.5377554e-13 4.4922093e-09 2.9360347e-08 -4.96736e-40 7.35857e-40 -1.00528e-39 -2.07123e-40 -7.84839e-40
-1.005018e-39 -6.10603e-40 7.73916e-40 9.17027e-40 2.81962e-40 -7.7067e-40 3.0466e-41 -4.459e-42
-1.8035e-41 2.1291e-40 3.9951e-41 -4.9361e-41 7.86825e-40 9.54834e-40 -9.54688e-40 -3.41083e-40
1.7163e-39 -1.621315e-39 2.4765e-41 -8.9236e-40 -7.35247e-40 1.049543e-39 1.692022e-39 -1.060157e-39
3.2207e-40 6.97862e-40 -1.115791e-39 -4.27271e-40 -3.59024e-40 -1.062096e-39 -9.646e-40 -8.85936e-40
1.023943e-39 -8.88339e-40 -1.13779e-39 -9.17699e-40 5.9823e-40 -7.75324e-40 1.548882e-39 -1.197531e-39
-4.87439e-40 4.01784e-40 -1.012818e-39 -8.75953e-40 7.04699e-40 -7.20485e-40 6.85245e-40 -8.18137e-40
2.24101e-40 -7.93467e-40 5.35795e-40 -5.86456e-40 -7.12323e-40 1.785854e-39 8.11112e-40 -8.4591e-40
-5.958e-40 -6.25067e-40 6.21654e-40 -4.9512e-40 6.29723e-40 -5.96412e-40 4.19458e-40 -4.53394e-40
1.374674e-25 5.415303e-30 -2.39838e-40 1.4602577e-14 2.0522651e-14 -3.8082015e-14 -4.4886465e-15 -5.08589e-20
-5.6547977e-14 4.111234e-14 4.8113826e-14 -1.0002814e-14 2.888453e-06 4.9056057e-06 2.0827226e-06 -2.149896e-06
-5.7223958e-11 -2.4114863e-06 3.7110838e-06 3.920718e-06 7.5282283e-06 -7.97138e-40 -1.088595e-39 1.40546e-40
9.18738e-40 3.12251e-40 -3.18375e-40 2.66441e-40 4.91742e-40 8.94355e-40 -1.081752e-39 -1.290708e-39
-4.76903e-40 -1.046983e-39 1.58134e-40 -6.30825e-40 -6.15247e-40 -1.280537e-39 5.07742e-40 1.6089732e-31
3.4196835e-31 -2.5477914e-31 2.857469e-32 1.7988201e-31 -3.758464e-31 3.3963288e-31 4.8174236e-31 9.7416354e-33
8.106044e-32 8.6879665e-32 4.7589856e-32 7.6670097e-32 8.1993746e-32 4.2735935e-32 7.0323573e-32 7.2403734e-32
3.7956093e-32 -7.72376e-40 1.172898e-39 1.367628e-39 -1.460407e-39 1.520374e-39 1.118805e-39 -4.28772e-40
-7.11714e-40 -5.76259e-40 1.218653e-39 -1.167779e-39 -8.4455e-40 1.346052e-39 1.085802e-39 -3.5814e-40
1.67678e-40 -1.307425e-39 -1.46389e-39 1.0241285e-28 -2.961956e-16 4.7497784e-29 2.8734107e-37 -2.8424877e-25
1.620377e-39 6.12614e-40 8.253577e-34 -4.33866e-40 1.406468e-39 -1.186484e-39 -7.12075e-40 5.50382e-40
-5.7509e-41 -4.49786e-40 7.97329e-40 -5.74953e-40 3.89838e-40 -9.65156e-40 -1.731779e-39 -5.16114e-40
-1.127988e-39 1.385206e-39 -1.90523e-40 -1.384933e-39 1.652658e-39 -5.72608e-40 3.34137e-40 -5.51728e-40
5.93493e-40 -6.4234e-41 8.20571e-40 5.97388e-40 -2.64958e-40 -8.68123e-40 5.88027e-40 -9.30251e-12
1.2440511e-10 -3.9127576e-11 1.0795396e-12 7.733196e-12 -2.1912552e-12 -1.2084001e-11 -9.230818e-12 7.479821e-11
2.76562e-40 -3.33861e-40 7.4728e-40 -5.6516e-41 5.70323e-40 9.47774e-40 4.58733e-40 6.24201e-40
7.17867e-40 5.15905e-40 9.43707e-40 -6.73205e-40 5.12765e-40 -8.61684e-40 -6.62764e-40 -8.48516e-40
-5.80709e-40 6.04268e-40 -0.0035310197 0.020800773 0.012831774 -0.039896674 -0.024293277 -0.036429733
-0.023258558 -0.024188226 -0.032720976 1.3884843e-15 7.951226e-15 -2.1134692e-14 -4.8920663e-15 -9.84433e-25
-2.7458865e-14 3.0135298e-14 3.3888772e-14 7.038026e-15 0.0020313154 -0.01070869 0.005244825 0.009790518
00000000: 942b 0180 8175 0200 416b 0300 e592 0300
00000010: e022 0500 724f 0080 ec7a 0200 cf27 0300
00000020: 91f1 0280 10a0 d78f 32e9 1510 fcce 9410
00000030: f3a1 1710 f306 3086 0edc 3511 3cab 4d11
00000040: 70be 758e cb83 7e11 91bb 1e2d 7832 89b3
00000050: b75c 84b3 f1b4 e52a 37c8 d932 7766 d8b2
00000060: 7e05 38ab e459 9a31 1634 fc32 b368 0580
00000070: 4503 0800 50f2 0a80 6041 0280 d08b 0880
00000080: 95f1 0a80 1da6 0680 5d6d 0800 4cfc 0900
00000090: ff11 0300 5064 0880 ed54 0000 6e0c 0080
000000a0: 4632 0080 8251 0200 5e6f 0000 9989 0080
000000b0: 5991 0800 b065 0a00 4865 0a80 cdb6 0380
000000c0: 59b0 1200 91a7 1180 0945 0000 89b7 0980
000000d0: 9201 0880 b36d 0b00 ab6c 1200 498b 0b80
000000e0: cd81 0300 5b99 0700 5f26 0c80 0fa7 0480
000000f0: d0e8 0380 b190 0b80 ea80 0a80 a1a5 0980
00000100: 5626 0b00 54ac 0980 b263 0c80 2cfe 0980
00000110: 9f83 0600 4a71 0880 a7dd 1000 3b0a 0d80
00000120: c84e 0580 0360 0400 5307 0b80 cd89 0980
00000130: 6aac 0700 6bd8 0780 2f76 0700 a2e8 0880
00000140: b470 0200 dda3 0880 94d5 0500 cd62 0680
00000150: abc1 0780 3c72 1300 0dd5 0800 0e36 0980
00000160: d97c 0680 6fce 0680 ebc4 0600 3164 0580
00000170: 69db 0600 8e7e 0680 4791 0400 e1ef 0480
00000180: 282d 2a16 b9ab db0e 929c 0280 4087 8328
00000190: 03da b828 9381 2ba9 75b8 a1a7 a32c 709f
000001a0: 61ab 7ea9 4d27 3929 77af 5829 d631 34a8
000001b0: 3fd7 4136 d59a a436 e7c4 0b36 ef46 10b6
000001c0: 73ac 7bae 05d5 21b6 ef0b 7936 b68e 8336
000001d0: fd9a fc36 19ae 0880 8fda 0b80 c987 0100
000001e0: 1101 0a00 6e66 0300 8077 0380 bbe6 0200
000001f0: c75a 0500 19bd 0900 7cc7 0b80 f80d 0e80
00000200: 6931 0580 9066 0b80 d0b8 0100 7cde 0680
00000210: 0fb3 0680 9ef1 0d80 6187 0500 4edb 500c
00000220: 3df3 dd0c 725c a58c 475e 140b 0d80 690c
00000230: 32f0 f38c 316f dc0c 9755 1c0d 6b53 4a0a
00000240: e771 d20b 718d e10b c519 770b 050c c70b
00000250: 31de d40b cde5 5d0b 0892 b60b 89f8 bb0b
00000260: 4d14 450b 1269 0880 90c5 0c00 64e4 0e00
00000270: 05e7 0f80 2f8e 1000 c62e 0c00 3eab 0480
00000280: f8bf 0780 6046 0680 1c45 0d00 4bb7 0c80
00000290: 4332 0980 3fa8 0e00 c6d2 0b00 59e6 0380
000002a0: 6bd3 0100 923c 0e80 bbf0 0f80 dfd2 0111
000002b0: c1be aaa5 a6d7 7010 e08d c302 04f1 af96
000002c0: f4a4 1100 b8ab 0600 d522 8908 71b9 0480
000002d0: a950 0f00 6feb 0c80 fac0 0780 3efe 0500
000002e0: 50a0 0080 d2e5 0480 a1ae 0800 bc42 0680
000002f0: b63e 0400 7682 0a80 7fdb 1280 b79e 0580
00000300: 5f48 0c80 6415 0f00 1a13 0280 a114 0f80
00000310: f0fe 1100 333c 0680 70a3 0300 fe01 0680
00000320: 6b76 0600 0fb3 0080 6bef 0800 4681 0600
00000330: 98e2 0280 f973 0980 2e67 0600 c8a6 23ad
00000340: edc8 082f bc15 2cae 83ee 972b 380b 082d
00000350: 2532 1aac 8195 54ad e963 22ad a67b a42e
00000360: f102 0300 aba2 0380 1d23 0800 8b9d 0080
00000370: d435 0600 0252 0a00 c3fe 0400 05cc 0600
00000380: 1fd1 0700 229e 0500 ac46 0a00 9f54 0780
00000390: 6195 0500 0662 0980 8437 0780 513d 0980
000003a0: c852 0680 7494 0600 ae68 67bb 6266 aa3c
000003b0: 5c3c 523c b26a 23bd b202 c7bc 5837 15bd
000003c0: bb88 bebc 6326 c6bc 6e06 06bd 071a c826
000003d0: 8f3c 0f28 485d bea8 5941 b0a7 6955 9897
000003e0: d553 f7a8 a2b7 0729 189f 1829 5592 fd27
000003f0: d11f 053b 8073 2fbc c8dc ab3b 6968 203c

layers.2.bn2.weight f4 [32]
-0.004856186 1.953643e-39 0.15325075 -2.1383997e-14 1.197676e-39 -1.816639e-39 0.025883034 -0.0066271187
1.027e-39 -0.028566698 5.69772e-40 -0.012584711 -4.3528115e-37 1.581416e-39 1.157649e-39 0.28204677
1.098273e-39 -0.01551611 -1.224031e-39 1.10117e-39 0.02515224 -1.650633e-39 0.24678236 0.027086752
1.708072e-39 1.070074e-39 7.60305e-40 0.0005901296 -4.1725e-41 2.3243e-41 -0.026818914 0.0012691062
00000000: a420 9fbb f645 1500 c4ed 1c3e 249c c0a8
00000010: a20a 0d00 0dc8 1380 a808 d43c 4d28 d9bb
00000020: dc2e 0b00 b504 eabc 4b34 0600 1b30 4ebc
00000030: 561e 1483 5838 1100 0e9b 0c00 6f68 903e
00000040: 8af5 0b00 4837 7ebc 1a54 0d80 9dfd 0b00
00000050: 120c ce3c 4bf9 1180 84b4 7c3e 09e5 dd3c
00000060: 6999 1200 eea6 0b00 6c47 0800 edb2 1a3a
00000070: 5074 0080 cb40 0000 57b3 dbbc 2358 a63a

layers.2.bn2.bias f4 [32]
-0.057892673 0.0012507144 -0.16963048 -3.571883e-15 -3.6669073e-15 -9.475708e-32 -0.13296373 -0.014983204
-4.6682727e-29 -0.061526652 -2.2886723e-18 -0.060503427 -0.012418968 -2.905059e-12 -8.13927e-23 -0.060015034
-2.6160764e-21 -0.0189154 2.2858854e-16 -5.2385346e-08 -0.020003373 -8.90465e-19 -0.024704589 -0.01888465
-0.0009831063 -5.6668295e-11 -0.00031461363 -0.0019340187 -1.69555e-35 -0.027615145 -0.04254731 -0.006454134
00000000: de20 6dbd 03ef a33a 9db3 2dbe ceb0 80a7
00000010: 401d 84a7 e200 f68b a527 08be 1d7c 75bc
00000020: a5b5 6c90 5f03 7cbd ccdf 28a2 71d2 77bd
00000030: ed78 4bbc e46c 4cac a4cb c49a 53d2 75bd
00000040: 47aa 459d 78f4 9abc b7c5 8325 4cfe 60b3
00000050: 1dde a3bc d168 83a1 4761 cabc fbb3 9abc
00000060: 93db 80ba d43a 79ae baf2 a4b9 e67e fdba
00000070: 434d b485 2839 e2bc 1746 2ebd 337d d3bb

layers.2.bn2.running_mean f4 [32]
-0.0105278725 2.6342e-41 -0.005878095 -3.83e-41 -3.5353e-41 7.942e-41 0.019437056 -0.011103212
8.8034e-41 0.002677052 -2.42e-42 -0.012487083 -4.8042e-41 -1.39173e-40 2.16007e-40 -0.0030919372
-2.3095e-40 -0.000309727 -1.4379e-41 2.953e-41 0.020018235 -1.2759e-41 -0.018889664 0.008653312
3.5442e-41 9.2e-43 6.6922e-41 -3.1568848e-09 -8.2546e-41 1.30647e-40 -0.014092009 0.007738435
00000000: 197d 2cbc 6e49 0000 099d c0bb c46a 0080
00000010: 8d62 0080 64dd 0000 763a 9f3c 3fea 35bc
00000020: 67f5 0000 7b71 2f3b bf06 0080 9f96 4cbc
00000030: ec85 0080 f583 0180 245a 0200 19a2 4abb
00000040: cb83 0280 db62 a2b9 1528 0080 5152 0000
00000050: 48fd a33c 9123 0080 7fbe 9abc 9fc6 0d3c
00000060: cc62 0000 9102 0000 8dba 0000 81f0 58b1
00000070: 1be6 0080 316c 0100 2be2 66bc b392 fd3b

layers.2.bn2.running_var f4 [32]
0.00024574818 6e-45 0.00074985 6e-45 6e-45 6e-45 0.00084664114 0.00042023291
6e-45 0.00037015227 6e-45 0.0004519973 6e-45 6e-45 6e-45 0.0007310281
6e-45 0.0002464871 6e-45 6e-45 0.0007433836 6e-45 0.00057348865 0.00043084237
6e-45 6e-45 6e-45 2.7394088e-17 6e-45 6e-45 0.0005341582 0.00015432147
00000000: c3d7 8039 0400 0000 9591 443a 0400 0000
00000010: 0400 0000 0400 0000 20f1 5d3a b552 dc39
00000020: 0400 0000 ff10 c239 0400 0000 0dfa ec39
00000030: 0400 0000 0400 0000 0400 0000 77a2 3f3a
00000040: 0400 0000 f03a 8139 0400 0000 0400 0000
00000050: a1df 423a 0400 0000 2c56 163a afe2 e139
00000060: 0400 0000 0400 0000 0400 0000 76aa fc23
00000070: 0400 0000 0400 0000 c006 0c3a 5bd1 2139
